pth/fold9.pth (torch, 639596 bytes, 46 tensors)

gconv.0.lins.0.weight f4 [16, 2000]
000000 f2 38 52 3b b6 79 ba 3c 67 45 a6 3c a5 c7 8d 3c
       0.00320774 0.022763114 0.020296765 0.017307112
000010 a5 44 b6 3c c1 c7 e8 bc 8a 10 f6 bc 26 ac f4 bc
       0.02224953 -0.028415563 -0.030037183 -0.029867243
000020 81 ac a4 3c 9c 35 13 3d 24 f6 60 bd 58 4f 97 3c
       0.020101788 0.035939798 -0.054922238 0.018470451
000030 dc 45 86 3c 27 82 0c bd 80 31 31 3d f0 ad c8 3c
       0.016390733 -0.03430381 0.043260098 0.024497002
000040 46 8f 00 3d a1 39 e8 39 bc c8 ff 3b 2d a3 39 bc
       0.031386636 0.00044293425 0.007805912 -0.011330408
000050 ea ea e3 3c b3 d8 a4 bc 60 55 99 3c e8 76 a0 3c
       0.027821977 -0.020122861 0.018717468 0.019587949
000060 ab c1 34 bd ea 98 49 bd 0f 10 ac 3c ad 3b 01 bd
       -0.04413001 -0.049218096 0.021003751 -0.031551052
000070 cb b4 ba 3c 6c 8d a3 bb e2 b5 96 3c 62 62 a5 bb
       0.022791287 -0.004991224 0.018397275 -0.0050471285
000080 9c b9 3c 3d 85 fd 57 bd 4b 72 ca ba 6f ab d1 bc
       0.04607545 -0.05273201 -0.0015445439 -0.025594441
000090 58 5a 64 3c 0a 29 1a bd f5 c8 1e bd 86 f1 99 bc
       0.013937555 -0.037636794 -0.038765866 -0.018791925
0000a0 96 7a 0a bd 94 09 df bc 56 80 41 bd 3c 7b 2f bd
       -0.033808313 -0.027226247 -0.04724153 -0.042842135
0000b0 12 77 d6 bc 91 25 7e bc de ef 29 bd e6 0a 04 bd
       -0.026179824 -0.015511886 -0.04148852 -0.032236956
0000c0 24 e1 ac 3c 22 96 44 bd 4d 88 34 bd e1 44 e1 3c
       0.02110345 -0.04799474 -0.0440753 0.027498664
0000d0 c7 06 9e bc a5 55 d4 bc 44 d1 04 bb 54 49 39 bd
       -0.019290341 -0.025919745 -0.0020266334 -0.045235947
0000e0 6c 7e c0 bc 9c 00 ba bc b6 94 f0 3c d4 00 1f bd
       -0.023497783 -0.022705369 0.029367786 -0.03881915
0000f0 48 c9 ba 3c b8 3c 3a 3d 3c 0b a7 3c c9 f2 69 bc
       0.022801057 0.045468062 0.0203911 -0.014279076
000100 04 06 82 bc 80 d0 d1 3b b6 fc b3 3c 48 ee b8 3c
       -0.01587201 0.006403029 0.021971088 0.022574559
000110 fa a8 c3 3b 8e 26 48 bd 76 5d e5 3c 97 d3 c1 3c
       0.0059710713 -0.048864894 0.027998667 0.023660464
000120 01 b9 96 bc 69 83 41 bc 4a b2 2b bd 2b 25 64 bd
       -0.018398764 -0.011811116 -0.041918077 -0.05569951
000130 a2 a8 0f bd ac b0 24 3d 0b fb 3b 3c 17 79 53 3d
       -0.03507293 0.04020755 0.0114734275 0.051629152
000140 a2 28 af bc 2e 50 c1 bb a7 41 88 bc 94 53 f7 3c
       -0.02138168 -0.0058994507 -0.016632868 0.03019122
000150 2b b0 65 bb f7 0a 16 bd 25 1a 70 bc e8 97 42 3c
       -0.0035047631 -0.03663155 -0.014654671 0.011877038
000160 f1 06 27 bd 54 60 30 bd 4d c4 ca bc ef f6 e9 3b
       -0.040778104 -0.043060616 -0.024751807 0.0071400325
000170 09 1f f4 3c 78 cb da bb ef af 2f 3d c1 82 4f bc
       0.029799955 -0.0066770874 0.042892393 -0.0126654515
000180 0f 26 9d bc 5e 34 2d bd a4 49 63 bc a8 9b b0 bc
       -0.019183187 -0.04228627 -0.013872538 -0.021558598
000190 87 f6 36 3d 80 b3 ab 3b 02 11 fc 3c 65 a7 c8 bc
       0.0446687 0.005239904 0.030769829 -0.024493882
0001a0 91 b3 17 bb 7d 93 09 39 78 de d5 bc 9e b7 9f 3c
       -0.0023147801 0.00013120282 -0.026107058 0.019496735
0001b0 c9 66 0b bd 69 5c ac 3b 88 5e f7 3c e0 8d 67 bd
       -0.03403357 0.0052600396 0.030196443 -0.056531787
0001c0 93 73 3b 3c 1e 96 0b bd 49 ee a0 bc d8 4b 26 bd
       0.011441129 -0.03407871 -0.019644873 -0.040599674
0001d0 a3 b2 e5 3b 65 d3 fe 3b 31 57 4b 3c a1 bd 17 3d
       0.0070098205 0.007776665 0.012410925 0.03704608
0001e0 de c6 3f bc 4f 56 7c bc 0d d6 24 3c 2a 4a 29 3c
       -0.0117051285 -0.015401437 0.010060799 0.0103326235
0001f0 0a 79 19 bd 91 e0 37 bd c6 9d 28 3d 36 e9 26 bd
       -0.037468947 -0.044891898 0.04116609 -0.04074975
000200 c3 9f f9 3a 63 92 14 bc e1 79 14 3a 95 bf f0 bc
       0.0019044805 -0.009068104 0.00056639133 -0.029388228
000210 a8 e7 b5 3c 27 46 2f bd 0c 67 46 bd 01 bb f9 3b
       0.022205189 -0.042791512 -0.048438117 0.0076211696
000220 e1 6c b1 bc 97 d9 63 bc fc 6f f4 bb 41 cd b6 bc
       -0.021658363 -0.013906858 -0.0074596386 -0.02231467
000230 ee 9b 97 bb 19 70 17 3c 78 f7 13 bc f9 91 fd bc
       -0.0046267426 0.009243035 -0.009031169 -0.030953394
000240 c8 6d b7 3c d8 c7 8e bc 6b 8b 22 bd a7 dd 0f bd
       0.022391215 -0.017429277 -0.03968374 -0.035123494
000250 ac 3b 2b 3c b5 33 13 3d fb 14 07 3d 3c b9 d2 3b
       0.010451239 0.035937984 0.032978993 0.006430773
000260 03 db 08 3d b2 0d 30 3d 39 c0 7f bc 15 fe 53 bd
       0.03341199 0.04298181 -0.015609794 -0.051755983
000270 3a 6a b4 3a b8 8e e0 3c e0 06 19 3c 0c 14 16 bd
       0.0013764568 0.027411804 0.009340018 -0.036640212
000280 70 04 53 bc 4c c5 62 bc 27 f7 49 3c ca 8d ae bc
       -0.012879476 -0.013840985 0.012326992 -0.021307845
000290 bd 93 b2 3c 96 16 0f 3d 2a d5 ea bc 91 0a fe 3b
       0.021798963 0.03493365 -0.028666098 0.0077527245
0002a0 99 0a 9e bc 71 03 4a 3c 40 90 59 bd eb 99 ba bb
       -0.019292163 0.012329922 -0.053116083 -0.005694618
0002b0 93 63 f5 bb 9c 7b 86 3c 91 8a fe 3c 2f 18 84 ba
       -0.007488677 0.016416363 0.031071933 -0.0010078008
0002c0 01 8d 0a 3d e8 b7 1e 3d a1 b4 da bc 67 2b 26 3d
       0.033825878 0.038749605 -0.026697459 0.040568735
0002d0 a5 5f 90 3c e7 0e ac bb cd f8 11 bc 9d 23 96 ba
       0.017623732 -0.0052508 -0.008909416 -0.0011454705
0002e0 dc 5c 6d 3a da 04 a9 3c a0 b8 03 bd e8 4f 39 3d
       0.00090546696 0.020632196 -0.032158494 0.04524222
0002f0 55 77 1b 3d 3b 14 48 bd f0 ba 38 bd fc d9 ce bc
       0.0379556 -0.04884742 -0.045100152 -0.025250427
000300 30 65 2e 3d e7 d8 1e 3d 6c b6 91 3c 6d 4f 32 bd
       0.04257697 0.038781073 0.01778718 -0.043532778
000310 6f 9f 38 bd 66 4d d3 3c 3e 7b 3a 3d ae 77 55 bd
       -0.045073923 0.025793742 0.04552769 -0.05211609
000320 df 45 9d bc d0 29 19 3d 6c 6e 2e 3c c5 d5 2f bd
       -0.019198356 0.03739339 0.010646444 -0.042928476
000330 55 60 17 bd 86 16 b6 3c 8a 2f 9b bc 45 7f 76 3c
       -0.036957104 0.022227537 -0.018943567 0.015044992
000340 ca 15 07 3d 82 92 51 3c f6 26 8a 3c 26 ba 1e 3c
       0.032979764 0.012791278 0.016864281 0.009687936
000350 34 83 d4 bb c0 2e d4 bc 1a 26 13 3c ee b8 5a bd
       -0.006485367 -0.025901198 0.008981252 -0.05339902
000360 0d e5 8d bc 4a cd f0 3a 9f da 2b bd c2 33 09 bd
       -0.017321134 0.0018371728 -0.04195654 -0.033496626
000370 5b 38 5a bd 07 41 57 bd bd 2c b4 3b 49 88 8e bb
       -0.0532764 -0.05255225 0.0054984973 -0.0043497426
000380 8e 91 c2 bc f9 3a 77 3c 7a 9c 69 bc dd db b0 3c
       -0.023751047 0.015089744 -0.014258498 0.021589214
000390 8c dd 1f 3c 8d a1 1d 3d 71 4b 02 3d e0 cd 2d bc
       0.009757411 0.038484145 0.031810228 -0.010608166
0003a0 48 da 16 3d ec f7 8e ba bd 4b b5 bb ba 7d 4d 3c
       0.036829263 -0.0010907627 -0.0055327103 0.012542183
0003b0 28 1f e4 bc 46 37 58 bd 86 f7 82 bc d0 36 1f bd
       -0.027846888 -0.052787088 -0.015987169 -0.038870633
0003c0 16 84 6b 3c cc e0 b2 bc b5 3a a6 3c 87 74 84 3c
       0.014374753 -0.021835707 0.020291666 0.016168846
0003d0 cf 48 43 3d f7 f1 e6 3c a9 de e5 3b 0d 1c 1b bd
       0.047676858 0.02819155 0.0070150685 -0.03786855
0003e0 3c 47 fb bc 30 ed 1d 3c a1 30 21 bd 6c ff 7a bc
       -0.030673616 0.009639069 -0.039353017 -0.015319686
0003f0 dc 02 00 3d 1a 22 e7 3c f6 bd 20 3c e0 df b1 3c
       0.031252727 0.028214503 0.009810915 0.021713197

gconv.0.lins.1.weight f4 [16, 2000]
000000 ed df 13 bd da 75 e5 3c f5 e0 09 3c 76 c3 1c 3d
       -0.036102224 0.028010298 0.00841545 0.038272344
000010 58 7c 7f bc b6 08 4e 3c 65 ca 42 3d ee 66 8b bc
       -0.015593611 0.012575319 0.0475563 -0.017016854
000020 29 c6 d9 3a 3c 9b 56 3c 9f 65 0f 3d a9 10 9e 3c
       0.0016614842 0.013098534 0.035009023 0.019295054
000030 a8 51 fb bc f0 58 f4 3c 45 37 df bc 71 d8 e9 3b
       -0.030678585 0.029827565 -0.027248034 0.0071363975
000040 6f be 1a bd c2 29 ac bb ee 3c 2d 3d 66 54 1f bb
       -0.037779268 -0.0052540014 0.042294435 -0.002431178
000050 7b b5 63 bc d9 4a 38 bd f5 61 ec bc bc 58 19 bd
       -0.013898249 -0.044993255 -0.028855303 -0.03743814
000060 61 71 bf 3c f4 dc 15 bd 38 b9 96 bc ae 14 02 3d
       0.023369493 -0.03658767 -0.018398866 0.031758003
000070 b4 00 25 3c f7 1a 56 3c 66 ff 34 3b 6c d6 b8 bb
       0.010070968 0.013067952 0.002761805 -0.0056407955
000080 f6 e5 35 3d 5c 89 e5 3c e6 e8 a4 3c 76 62 f8 3c
       0.04440876 0.0280196 0.020130586 0.030320387
000090 af d2 23 bd ba 28 24 bc 0b f3 0c bd f2 cc ad bc
       -0.039995845 -0.010019476 -0.03441147 -0.02121589
0000a0 64 28 af 3b 03 dd 89 3c 93 e9 1b bd 3a 88 d8 bc
       0.005345391 0.01682902 -0.03806455 -0.026432145
0000b0 e6 09 95 3b e7 53 ec bc c4 ba 1e bd 81 ae da 3c
       0.004548299 -0.028848602 -0.038752332 0.026694538
0000c0 ff 75 63 3c 99 df ce 3c 86 3b 07 bb 17 43 0f bd
       0.013883113 0.025253104 -0.0020634844 -0.03497609
0000d0 6c 3d 51 bc f5 15 ee 3c d3 23 e2 bc 18 dd b2 3c
       -0.012770992 0.029063204 -0.027604973 0.021833941
0000e0 f1 12 1d bd fa c6 a5 bc 95 9c b5 bc 70 a8 5f 3d
       -0.038348142 -0.020236481 -0.02216939 0.054603994
0000f0 e2 b5 8c 3c 0b 51 79 3c 68 3b 7f bc 78 08 23 bd
       0.017176572 0.015217076 -0.015578128 -0.039803
000100 c1 4c 78 3b 28 e2 f0 3c 15 aa 08 3d 09 c5 ce bc
       0.0037887546 0.029404715 0.033365328 -0.025240438
000110 92 ce 42 bc c9 ed 54 3d af 92 d0 bc f2 7d 25 3c
       -0.0118900705 0.051984582 -0.02546057 0.0101008285
000120 2e 4f a6 3c 2d 48 ec 3c bd d2 21 3d 74 de e2 3c
       0.020301428 0.02884301 0.039507616 0.027693965
000130 a5 3e 13 3d f0 16 f2 bb ff 11 27 3d 12 8e e3 3c
       0.035948414 -0.0073879883 0.040788647 0.027777705
000140 a4 df a9 3c 37 52 35 bd 9e bd 4a 3d 71 6f 7e ba
       0.020736523 -0.04426786 0.04949724 -0.0009705937
000150 9d 73 ef 3c 72 aa 32 3c 7d 1f f3 3c e9 99 43 3a
       0.029229933 0.010904895 0.0296781 0.0007461594
000160 57 dd 05 3d 93 e4 0f 3b 35 2b e5 3c 22 f3 e6 bb
       0.03268179 0.002195631 0.027974704 -0.0070480267
000170 f7 eb 36 3d ac ca fe 3c 81 d8 10 bb 16 1c a7 bc
       0.044658627 0.0311025 -0.0022101703 -0.020399135
000180 8d ac 07 bd f5 d2 32 3b b3 e0 fd 3c 57 ff 5f 3d
       -0.03312354 0.0027286385 0.030990934 0.05468687
000190 58 c4 c2 3c 71 b2 2c bc 4a 00 f3 3b f6 49 f0 bc
       0.023775265 -0.010540591 0.007415806 -0.029332142
0001a0 e6 ae 2a bd 0c 05 4c 3d b0 0c 55 3c 05 d1 14 3c
       -0.041670702 0.0498095 0.013003513 0.009083037
0001b0 ff a2 57 3d 4b e1 0e bd 84 63 13 3d 1e 73 22 3d
       0.05264568 -0.034882825 0.035983577 0.039660566
0001c0 0a f0 56 3c 5e bc 42 3c cb fa 76 3c e0 3f 16 3d
       0.013118753 0.011885731 0.015074442 0.03668201
0001d0 64 99 1c bd 95 38 8c bc 21 d8 dc 3c 7d 93 59 bc
       -0.038232222 -0.017116824 0.026958527 -0.013279793
0001e0 6e 9c 12 3c 4f f8 06 bb e9 7d 33 3d 56 ac cd bb
       0.008948429 -0.002059478 0.04382125 -0.0062766476
0001f0 4a 07 3d 3c ac 7e 08 3d a9 36 f0 bc 9e 66 19 bb
       0.011537382 0.03332393 -0.029322939 -0.0023407112
000200 6c 7c 24 3d 71 07 03 bd 7e 80 4a bc bf fc e2 bc
       0.04015772 -0.03198952 -0.0123597365 -0.02770841
000210 93 f8 dd bc db 59 ad ba 57 39 dd 3c b8 c7 65 bc
       -0.027096068 -0.0013225632 0.02700488 -0.014024667
000220 7a 5a 74 bc 6e d2 28 bd 2c 53 74 bc 71 86 97 3b
       -0.014914149 -0.041216306 -0.014912408 0.004624181
000230 b7 0c 71 bc 75 66 9f 3c 89 a0 1e 3d 6f 91 01 3d
       -0.014712504 0.019458035 0.038727317 0.031632837
000240 c6 e7 1d bb 50 be f7 3c d0 c1 f4 bc 39 20 2d bd
       -0.0024094447 0.030242115 -0.029877573 -0.042267058
000250 e8 ea 28 3d 32 45 f8 bc d1 7d bd ba 99 d5 37 3d
       0.04123965 -0.030306432 -0.0014457052 0.044881437
000260 10 8c c5 3b 8d b5 1b 3a a1 21 a6 bc 19 bc fa 3b
       0.0060286596 0.0005939834 -0.020279707 0.0076518175
000270 72 a2 ae 3c 5e 62 e5 bc 7c a1 a0 3c 9e 38 a1 3b
       0.021317694 -0.028001007 0.019608252 0.0049200794
000280 99 fc fb ba ca 18 7d bb 26 12 b2 ba b1 fe dc 3c
       -0.001922506 -0.0038619512 -0.0013585731 0.026976915
000290 ad 8b 56 3d e0 b6 3f 3d e8 14 f0 3c 90 7c 00 bd
       0.0523793 0.046805263 0.029306844 -0.031368792
0002a0 4f d7 ec 3c 8b db 24 bc 71 3b 4a 3d 98 74 60 3d
       0.02891126 -0.010062109 0.049373094 0.054798692
0002b0 2a e7 32 3d 1c 40 b4 bc 09 66 38 3c 11 83 c3 3c
       0.043677486 -0.022003226 0.011254796 0.023866208
0002c0 d4 86 83 bc 6b b8 70 ba 26 44 1c bb 80 c6 a2 bc
       -0.016055502 -0.0009182754 -0.002384433 -0.019870043
0002d0 9f 84 5c 3c af 0a 3a 3d 0f b2 ff 3c 81 13 e0 3c
       0.013459354 0.045420345 0.031212835 0.02735305
0002e0 8b fb 69 3c 3b b7 83 bc 96 7a 94 3c 27 0d 13 bd
       0.014281164 -0.016078582 0.01812486 -0.035901215
0002f0 dd 40 1d 3d ed b3 45 3d 61 15 02 3c e0 86 03 ba
       0.038391937 0.048267294 0.007939667 -0.00050173514
000300 4b d8 b8 ba 1c 8c 55 3d c1 53 88 bc 35 bb 8a bc
       -0.0014102546 0.05213557 -0.0166415 -0.01693497
000310 d2 64 a1 bc d3 fd 27 bb c2 ae c9 3b 04 e9 49 3d
       -0.019701395 -0.0025633469 0.006154866 0.049294487
000320 4e 3a 3b 3d 97 5c 16 3d 2e f6 4c bc a2 1f 53 3d
       0.0457099 0.036709394 -0.012509866 0.05154384
000330 db 0e 00 3d 7c 78 df bc c6 2e 32 3d d2 e5 93 bc
       0.031264167 -0.027279131 0.043501638 -0.018053923
000340 95 8a 50 bc 7d 7b 40 b9 ed 84 ad bb 53 f7 a8 3c
       -0.012728353 -0.0001835655 -0.005295387 0.020625746
000350 68 e8 27 bd 31 80 c5 3c dd 8e a6 bc 81 97 25 3d
       -0.040993124 0.024108978 -0.020331794 0.04042769
000360 52 45 a9 3b 59 de 23 bd b5 52 3a 3d 88 a9 28 bb
       0.0051657343 -0.04000697 0.04548903 -0.0025735814
000370 9f 1d ec 3c 6b 1e 2b bc 85 1b 03 bd 2a a2 b5 3b
       0.028822718 -0.010444264 -0.032008667 0.005543013
000380 75 e3 2b bd 39 39 22 3d f7 23 ac 3c c1 96 00 bc
       -0.041964967 0.039605353 0.021013243 -0.0078484425
000390 44 4b cd bc eb 79 8f 3c 87 e9 e0 bc 4e d7 f6 3c
       -0.025060304 0.01751419 -0.027455105 0.030131962
0003a0 e2 b6 9a bc 1e 5c 02 3d 2f d7 05 bc dc 6c 01 b8
       -0.018886033 0.03182613 -0.00816898 -3.085738e-05
0003b0 6c 8d 42 3d 77 2d 60 3d 63 39 b0 3c fc e0 b1 3c
       0.04749815 0.05473086 0.02151174 0.021713726
0003c0 e5 a9 be bc 40 0f 86 3c ef d0 ca 3c 1d c5 05 3b
       -0.023274371 0.016364694 0.02475783 0.0020411678
0003d0 a3 bb 28 3c 7e 5c 22 bd c3 96 8c bb ff 5a 2c 3d
       0.010298642 -0.03963899 -0.004290433 0.04207897
0003e0 ec 01 7a 3c 1f 6a 81 bc 1b 59 78 bc b1 ea 20 3d
       0.015259247 -0.015797673 -0.015157963 0.03928632
0003f0 19 15 86 3c 58 8e 8a bb f9 08 35 3d e8 22 48 3c
       0.016367482 -0.0042283945 0.04419801 0.012215354

gconv.0.lins.2.weight f4 [16, 2000]
000000 58 5f 0d 3c 5f 4d f1 39 67 04 78 3c 77 24 23 3d
       0.008628689 0.00046024748 0.015137768 0.039829697
000010 a7 f0 0f bd c1 d9 34 bd a1 05 09 3d 43 25 1b 3d
       -0.035141613 -0.04415298 0.033452634 0.037877332
000020 96 f7 94 bc de 9e a7 3c 28 f5 de bc 03 02 01 3d
       -0.018184464 0.020461496 -0.027216509 0.03149606
000030 ab da 47 3d e1 c9 ce 3b 6a fc 31 bd ea 80 65 3d
       0.048792522 0.006310687 -0.04345361 0.056031145
000040 c6 00 37 bb f5 9a d3 bc 7f 3b d5 3c 12 c5 1d bd
       -0.0027924045 -0.025830725 0.026029347 -0.03851802
000050 08 9b 11 bd 38 5f f7 3c ea fd 83 ba d7 30 0a bd
       -0.03554824 0.030196771 -0.0010070179 -0.033737984
000060 bb a9 df 3c a7 45 9b bc 52 e6 b8 3c 1a 5a 00 3b
       0.027302613 -0.018954111 0.022570763 0.0019584955
000070 80 09 f8 3b 58 bf 3f 3d 10 da 38 3b 50 66 21 3d
       0.007569492 0.04681334 0.0028206147 0.039404213
000080 f8 82 56 3d e4 f6 5b 3d 35 e4 bf bc 90 e4 4e 3d
       0.052370995 0.05370225 -0.023424247 0.050510943
000090 46 85 09 3d a9 cc 26 bb 3e 24 95 bb b8 8b 46 bd
       0.033574365 -0.0025451577 -0.0045514395 -0.04847309
0000a0 3a 69 a5 3b 90 75 fc bb cc 98 bc 3c 87 e2 0b 3d
       0.0050479444 -0.007704444 0.023022078 0.03415158
0000b0 05 28 ea 3c 0d 51 30 bd 22 32 c7 3c 08 d2 38 3c
       0.028583536 -0.043046046 0.024315897 0.011280544
0000c0 6a 0f cb bb 67 2d 64 bd 2a 67 22 3d f7 8e 2b 3c
       -0.006196906 -0.05570736 0.039649166 0.010471097
0000d0 12 4f 06 3c 19 b2 2a bd b2 34 52 bc b2 55 11 3d
       0.008197563 -0.041673753 -0.012829946 0.035482116
0000e0 3f 1f 48 3c d9 90 c5 3c 2d 32 26 3d 3d 6d 64 bd
       0.012214481 0.02411692 0.040575195 -0.05576824
0000f0 a9 a4 8b 3c c2 32 cb 3c 2d 87 4e bd 01 1f b3 bc
       0.01704629 0.024804477 -0.050421882 -0.02186537
000100 30 78 ef bc bc 21 41 bd 32 93 9b bc 16 14 b7 bc
       -0.029232115 -0.047151312 -0.018991087 -0.022348445
000110 ec 8d 83 3c ec 45 22 3d c3 0f 93 3c 42 77 30 bd
       0.016058885 0.039617464 0.017951852 -0.043082483
000120 0c 1f 43 bd e0 20 79 bb fc 04 95 bc 3d 2b 32 bd
       -0.04763703 -0.003801398 -0.018190853 -0.043498266
000130 8e 17 24 bc bc 1a 10 3d bb 41 f1 bc 63 23 7c bc
       -0.0100153815 0.035181746 -0.029450288 -0.015389296
000140 89 cb 45 bd f6 6f 12 bc 62 12 e4 ba c2 e3 2d bd
       -0.04828981 -0.008937826 -0.0017400498 -0.042453535
000150 df 28 62 bc 78 67 5d 3d ee 62 11 bd 65 ba a2 3c
       -0.01380369 0.054053754 -0.035494737 0.01986427
000160 67 bf 1e 3d 8b 51 d5 bc e1 45 08 3d 1a 70 bd bb
       0.038756754 -0.02603986 0.033269767 -0.005781186
000170 6b c5 13 bd 78 4b 93 bc c6 73 73 3b a3 1f 22 3d
       -0.036076944 -0.017980322 0.0037147864 0.039580952
000180 11 80 02 bb 1c b4 ca bc f0 8d 5c bd 6c 55 62 bd
       -0.001991276 -0.024744086 -0.0538463 -0.055257246
000190 41 93 59 bb f8 ab e2 bc b2 25 26 3d 95 d5 36 bd
       -0.0033199342 -0.027669892 0.040563293 -0.04463728
0001a0 8d 34 ac bc 2c d1 f0 3c 60 e0 24 bd 56 39 13 3d
       -0.021021152 0.029396616 -0.040253043 0.03594335
0001b0 0a 19 b5 bb 20 0a 37 bc e1 37 e6 bc 7a e1 36 bd
       -0.0055266665 -0.011171848 -0.028102817 -0.044648625
0001c0 34 8a ba bb 5a fb d0 ba cd 8c 9e bc a9 71 87 3b
       -0.0056927446 -0.0015944049 -0.019354248 0.0041334224
0001d0 ad d7 d0 bc d2 ce 05 3d 31 fb e0 bc ee 03 ee bc
       -0.025493467 0.032667942 -0.027463527 -0.029054608
0001e0 cc f1 01 3d 13 61 05 3d db 05 ed bc a6 3a 05 3d
       0.031724736 0.03256328 -0.028933456 0.032526635
0001f0 02 0b 39 3d b7 cd d7 bc 2b 69 35 3d c7 7d 84 bc
       0.045176513 -0.02634321 0.04428975 -0.016173257
000200 b4 d2 e9 bc a5 4a 7c 3c bd 38 03 bc 74 73 8f bc
       -0.028542854 0.015398656 -0.008009133 -0.017511107
000210 f8 03 a2 ba 60 05 fd 3c 71 dc 05 bd d4 2a da 3c
       -0.0012360802 0.030886352 -0.032680932 0.02663175
000220 b1 b9 40 bd ec 7e 0a bd ad 67 13 bd 4d e7 20 bd
       -0.04705209 -0.03381245 -0.035987545 -0.039283086
000230 86 d4 30 bd 15 f8 ba bc 10 9c e7 bc 06 59 d5 bc
       -0.04317143 -0.022823373 -0.028272659 -0.026043426
000240 4e b9 64 bc 56 23 31 bc b9 96 22 3d d9 d3 ea 39
       -0.013960196 -0.010811647 0.03969452 0.00044789797
000250 23 6f 30 3c 84 8b ae 3c 4f de 26 3d d0 1b 27 bd
       0.010768685 0.02130676 0.040739354 -0.04079801
000260 08 28 18 bd 74 c3 16 3d 15 83 1f 3d 10 a3 83 3b
       -0.03714755 0.036807492 0.03894337 0.0040172413
000270 1c 72 1c 3b e9 fd 54 bb 3f 6c 45 3d dc 3f d5 ba
       0.0023871725 -0.0032499975 0.048198935 -0.0016269642
000280 55 23 aa bc f9 0b 2b bd 9e c7 27 bd 58 6d 28 3c
       -0.0207688 -0.041759465 -0.040961854 0.010279976
000290 13 1b 06 bc 92 13 0d 39 27 c2 bb 3c 39 df 66 bd
       -0.008185166 0.00013454098 0.022919727 -0.056365225
0002a0 de a2 4c 3c bd 11 12 3d 47 4f 91 ba bd ba 01 bd
       0.012490002 0.035661448 -0.0011086249 -0.031672228
0002b0 94 ae b7 3b 89 46 02 3d 11 61 3b 3d a7 96 9f bc
       0.005605528 0.03180555 0.045746867 -0.019481016
0002c0 d0 53 fe 3c c0 2b a5 3c 09 0d ae 3c 58 7b ab 3c
       0.031045824 0.020162463 0.02124645 0.020932838
0002d0 3c 21 07 3d 98 33 10 bd d0 59 fc 3c 4c 41 9b 3c
       0.03299068 -0.035205454 0.030804545 0.018952034
0002e0 d7 ce a0 bb e3 ca b8 3c 9c 26 65 bc 69 be c0 bc
       -0.0049074697 0.022557681 -0.013986256 -0.023528295
0002f0 91 ce 1b bd 66 3f d9 3c ef 6c 28 bd 1e 73 40 3c
       -0.038038794 0.026519489 -0.041119512 0.011746196
000300 02 df 0b 3d c1 eb a0 3c 02 9f 4f bb 6a 87 26 bd
       0.034148224 0.019643666 -0.003168047 -0.040656485
000310 1e aa d1 3c be fe 58 3d 2f 34 26 3d 37 58 04 bd
       0.025593814 0.052977316 0.04057711 -0.03231069
000320 7b 11 72 bd d1 fb fd 3c 91 50 2a bd f8 29 16 bd
       -0.059098702 0.031003864 -0.04158074 -0.03666112
000330 80 1f 36 bd 40 0a bf 3b 5a d5 cc 3b 73 48 1a 3c
       -0.044463634 0.0058300793 0.0062510194 0.009416687
000340 ba 70 a5 bc f7 38 e1 bc bc d4 5e 3c ef a5 28 3d
       -0.020195354 -0.027492983 0.0136005245 0.04117387
000350 d9 fe 5a bc 29 df 9f 3b ba cb b4 bc ef 9c 3a bd
       -0.0133664245 0.0048788977 -0.0220698 -0.04555982
000360 f5 10 43 bc 55 b0 d5 bc cd 4d df 3c 05 94 00 3d
       -0.011905898 -0.026085058 0.027258778 0.031391162
000370 ea 6b 31 bd 4f 62 c0 b9 01 c7 bb 3b 7a 4b 83 3c
       -0.043315805 -0.0003669434 0.00573051 0.016027201
000380 d7 49 13 3d b1 61 08 bd 97 55 ff 3b 4a 03 22 3d
       0.03595909 -0.03329629 0.0077921855 0.039553918
000390 ba b3 92 bc 1e c2 90 bb 1b 36 37 3c 7b e1 15 3b
       -0.017907966 -0.004417672 0.011182333 0.0022869993
0003a0 0b 40 cb bc fa 0e cf 3a 04 54 ba 3c 27 90 a9 3c
       -0.024810812 0.001579731 0.02274514 0.02069862
0003b0 3b cc 0a bd 7f 6a 30 3d fb 7c 01 3d 2b c8 05 3d
       -0.033886176 0.043070313 0.03161333 0.0326616
0003c0 a1 a2 14 bc d4 bb 85 ba 84 1a 4f 3d da 8d 12 bc
       -0.009071977 -0.0010203072 0.050562397 -0.008944953
0003d0 2a 93 3b 3d 31 87 33 3d 21 b5 21 bb cd 39 07 3d
       0.045794643 0.0438301 -0.0024674612 0.033014107
0003e0 1d f1 2b bc 86 91 33 3d 57 e6 ba 3b 9f 39 19 3d
       -0.010494498 0.043839954 0.005703728 0.037408467
0003f0 6d 6b c5 bc 6c 48 02 bd 93 0b f1 bc 34 46 7c 3c
       -0.024099076 -0.031807348 -0.029424464 0.015397597

gconv.1.lins.0.weight f4 [16, 16]
000000 82 a5 34 be 01 25 13 be f2 5f f8 3d c5 62 cf 3e
       -0.17641261 -0.14369585 0.12127675 0.40505043
000010 d6 bc 7e 3d c5 cd a0 be d9 dd 90 be 03 b3 86 be
       0.062191807 -0.3140699 -0.28294256 -0.2630845
000020 23 e1 cb 3d 54 3c bb be 39 0d a5 bd 20 d5 dc bd
       0.09955051 -0.36569464 -0.08059163 -0.10782838
000030 2b cc 16 be 4a 8b 28 3e 2e 89 1f 3e e0 5b 83 3d
       -0.14726321 0.16459385 0.15579674 0.06414008
000040 c1 19 78 be 83 b0 9f be 62 bb 52 3e 30 66 a0 3e
       -0.24228574 -0.31189355 0.20579293 0.31327963
000050 c9 eb ab 3e b7 de 29 3e 05 ce 9d 3e f7 f3 da be
       0.33578327 0.16588865 0.30821243 -0.42764255
000060 0e 56 0f be 4b e6 36 3d 72 6f a4 3e e8 59 ce 3c
       -0.13997671 0.04465322 0.32116276 0.025189355
000070 80 0e b7 be b6 7b 88 bd 86 bc db bd ae 2d 87 be
       -0.3575325 -0.06664221 -0.10729317 -0.26402038
000080 86 b5 a2 be 86 3d 56 be 57 a8 ca 3e 48 b2 93 3e
       -0.31779116 -0.20921907 0.39581558 0.28846955
000090 20 2f 88 3d 6f 34 92 be 06 46 9c bd 44 b5 95 be
       0.066496134 -0.2855563 -0.076305434 -0.29239857
0000a0 4e af 89 bd 17 8a 98 be 25 b5 6c be 00 65 c9 3e
       -0.0672289 -0.29792854 -0.23115976 0.3933487
0000b0 1b 64 a5 be 87 89 32 be d0 e3 f7 3e 4c d2 82 be
       -0.32302937 -0.17435275 0.48415995 -0.2555107
0000c0 18 0a 9b 3c 84 53 84 be d5 08 15 be 2c ff 65 bd
       0.018925712 -0.25844967 -0.1455415 -0.056151554
0000d0 3d f8 a0 bd 24 bc da 3e c7 87 9c be 0b 19 9f be
       -0.07859848 0.42721665 -0.3057234 -0.31073794
0000e0 a9 6e 0f be df 4b c9 be 78 47 a9 be e1 ba 60 bd
       -0.14007057 -0.39315698 -0.3306234 -0.05486572
0000f0 99 92 38 be 4b ff 98 be 9c 44 9c be 2e d7 7b 3e
       -0.18024673 -0.29882273 -0.30521095 0.24593803
000100 ba c5 d9 3d 7b 82 33 be 14 d5 8b 3e 0f 06 27 3e
       0.106334165 -0.17530243 0.27311003 0.16310905
000110 6e 57 69 3d 24 a5 db 3d bd cf c1 be c2 4d 91 bd
       0.056968145 0.107248574 -0.37853804 -0.07094909
000120 90 64 47 3e c8 40 07 3d e7 04 4c 3e 67 11 a6 3b
       0.19471955 0.033020765 0.19923745 0.0050679925
000130 76 18 a4 bd ea 85 dc 3e d6 28 7d bd 24 74 62 be
       -0.08012478 0.43070918 -0.061806522 -0.22114617
000140 0b 1e cb bd 94 81 db bd 76 68 58 3e 37 04 b2 3e
       -0.099178396 -0.107180744 0.21133599 0.3476884
000150 70 d9 e6 be 3d 84 ab 3d 3c 91 ac 3e e8 d2 10 3e
       -0.45087767 0.08374832 0.33704555 0.14142954
000160 8a b8 8f be 80 bc 40 3e 9a 8b 58 3e 69 99 0b 3c
       -0.2807048 0.18821907 0.21147004 0.008520463
000170 8f 40 bf be 0f d7 b9 3e 9f a2 5b be 0e e8 60 3e
       -0.37353942 0.3629689 -0.21448754 0.21963522
000180 cb e9 58 bd ad 64 69 be 40 be 0b 3e be 17 19 3e
       -0.052957337 -0.22792311 0.13646793 0.14950463
000190 7e bf 05 be a0 42 dc bd 5d 84 e8 3d f3 51 b9 be
       -0.1306133 -0.10754895 0.11353371 -0.36195335
0001a0 25 c3 2b 3e 97 b4 a5 bc 42 ed 87 bd 56 3f 77 be
       0.1677366 -0.020227714 -0.0663705 -0.24145254
0001b0 42 2c d4 3d 13 4c dc 3e 22 ca 83 3d 24 0c 7a 3e
       0.10360004 0.4302679 0.06435038 0.24418694
0001c0 6b 06 d3 bd bd ae 5f 3e 07 74 d4 be 47 a1 dc 3a
       -0.103039585 0.21844001 -0.41494772 0.0016832732
0001d0 47 3b dc be a3 c7 d8 3d 8d d7 8d bc 47 07 71 3e
       -0.43013975 0.10584953 -0.017314697 0.23537932
0001e0 87 20 98 be 6f 14 cd 3e 2f d1 5f 3d 05 c9 f9 3c
       -0.29712316 0.40054652 0.054642852 0.030491361
0001f0 d3 3e a6 be 1b 81 a3 be 3b d5 15 3d 3c b5 66 be
       -0.32469806 -0.31934437 0.036580306 -0.22530073
000200 c0 9a 6e be ab a0 c0 3e ad 0b f4 bc 44 c4 77 be
       -0.2330122 0.3762258 -0.029790724 -0.24195963
000210 b8 1a 12 be ab 1a a5 be 06 65 c8 be 53 0f 47 3e
       -0.14268005 -0.3224691 -0.39139575 0.1943944
000220 94 d9 10 bd a8 07 93 3e 63 75 85 be da 92 9d be
       -0.03536375 0.2871678 -0.2606612 -0.307761
000230 41 e5 39 be 4e 9e 65 3e 17 d9 01 3f 38 ee a8 bd
       -0.1815386 0.2242367 0.5072188 -0.082485616
000240 0b 3b a4 3e 3a 4f 13 3e 09 40 89 3c 9f 5a a7 be
       0.32076296 0.14385691 0.016754167 -0.32686326
000250 48 9f c2 be 38 80 e5 be a6 ed aa be ee eb ab be
       -0.38012147 -0.44824386 -0.33384436 -0.33578438
000260 f5 26 88 3e 67 42 b5 3e db e2 1e be b6 68 ff bd
       0.26592222 0.35402223 -0.15516226 -0.12471144
000270 18 16 aa 3e cb 0c 8c 3e cd 2f 75 3e 23 55 14 be
       0.3321998 0.2735351 0.23944016 -0.14485602
000280 3b 80 af bd 15 e9 26 be 61 38 8a 3e 78 ff 52 be
       -0.0856938 -0.16299851 0.2699614 -0.20605266
000290 03 29 cd bd 29 01 02 3e 7b 35 b2 3e 3c 99 0b be
       -0.10017588 0.12695755 0.34806427 -0.13632673
0002a0 a6 fc fa 3d 85 0f c1 be 1d 21 3b 3c 81 0e d1 3e
       0.1225522 -0.37707153 0.011421469 0.40831378
0002b0 0a dd b8 bd 35 7d a9 be a8 2e b1 3d 00 dd 88 be
       -0.09026535 -0.33103338 0.08651477 -0.2673111
0002c0 1a c4 b2 3e 35 6b 3f 3d d9 3d d5 be 20 18 b9 3e
       0.3491524 0.0467331 -0.4164875 0.36151218
0002d0 74 84 ac bd b2 bc d2 be 40 c8 1d be 68 c8 8d be
       -0.08423701 -0.41159588 -0.1540842 -0.2769196
0002e0 de 26 94 3e 5b f0 cd be 06 29 55 3e 82 ae 9f 3e
       0.28935903 -0.4022244 0.2081643 0.31187826
0002f0 e3 69 92 3e f2 79 2f be a5 6c fb bd 1e 53 8f be
       0.2859641 -0.17136362 -0.12276582 -0.279931
000300 a1 6a 6a 3d 44 74 ba 3e 08 49 a5 3d 7d c6 81 3e
       0.057230595 0.3641683 0.0807057 0.25346747
000310 d4 d3 20 be 6d cd a5 3e 46 ac cc bd 1c f0 d5 be
       -0.15705806 0.3238329 -0.09993796 -0.4178475
000320 e6 13 bb be 4d 2e a2 bd 9f a6 9d 3e 1a 58 07 be
       -0.3653862 -0.079189874 0.30791184 -0.13217202
000330 d2 3f 06 be a6 7d 8a be ad 46 df 3d fd 69 b9 3d
       -0.13110283 -0.27048987 0.10902152 0.09053419
000340 49 10 80 be 66 b9 cd bd 28 fa ae be 51 85 20 bb
       -0.25012425 -0.100451276 -0.3417523 -0.0024493525
000350 bf ef bc bd 12 2c 4d bd 8b a0 43 be 39 db 3f 3e
       -0.092254154 -0.050090857 -0.19104211 0.1873597
000360 5e 47 85 3e eb 9e a5 3e ae 5a 89 3e 0e 81 ad 3d
       0.2603101 0.32347807 0.26826996 0.08471881
000370 15 b5 9a bd 2b 07 1a 3d 04 10 69 bd df cb bb 3e
       -0.0755407 0.037604492 -0.05690004 0.3667898
000380 18 66 69 3e 60 3b c0 3d 4f ec b4 3e b3 12 db be
       0.22792852 0.09386325 0.3533654 -0.42787704
000390 0e d5 6a be 02 0b 80 3e 14 04 c5 3d 39 8b 0c 3d
       -0.22932836 0.25008398 0.096199185 0.03431246
0003a0 0e 0d ca be 7e 17 8a 3e f4 a0 94 bd b2 a6 bb 3e
       -0.39463085 0.26971048 -0.07257262 0.36650616
0003b0 11 57 aa bd 2e de 98 be 41 53 fb bd ea fc 5c 3e
       -0.08317388 -0.2985701 -0.12271739 0.21580854
0003c0 08 00 64 3e 2e b4 58 3e 90 5c 82 3e 2a 77 7c 3e
       0.22265637 0.21162483 0.25461245 0.24654832
0003d0 3e 6a 3e be 51 21 b1 3e 9f c7 d9 3d 8f 38 80 3e
       -0.18595216 0.3459573 0.10633778 0.2504315
0003e0 73 0d c0 3d 8f 58 cb bd 9e 51 93 3e d8 cc 45 bd
       0.09377565 -0.099290006 0.28773206 -0.048291057
0003f0 9f a9 89 3e 95 04 4c bd 7a 67 a6 be e9 9f 27 be
       0.26887223 -0.049809057 -0.3250082 -0.16369595

gconv.1.lins.1.weight f4 [16, 16]
000000 17 ff 5a 3e 45 64 24 be 4e 74 70 be e9 1a b5 3e
       0.21386372 -0.16053875 -0.23481867 0.35372093
000010 1b f3 04 3e bb 82 57 3e 8d 49 01 3e f1 1d c3 3e
       0.12983362 0.21045963 0.12625714 0.3810878
000020 db 3c ae 3e 8c 59 2e be 7e f7 ac be a6 ef 28 3e
       0.34030804 -0.17026347 -0.33782572 0.16497669
000030 8f d7 80 be a4 ff b3 3e d7 8c 8b be 78 d0 bf 3d
       -0.25164458 0.35155976 -0.2725589 0.09365934
000040 31 ff b0 3e 02 61 7a be e6 e1 b8 be 92 0d 68 3e
       0.34569696 -0.24451068 -0.36109847 0.22661427
000050 f0 95 0e 3e 9b 90 d4 3e 65 5d 12 be 03 cd 92 bd
       0.13924384 0.41516575 -0.1429344 -0.07168009
000060 e5 23 64 3c 2a 8e 48 be c6 1a a0 be 01 73 a8 be
       0.013924574 -0.19585481 -0.31270427 -0.3290024
000070 f3 a3 e7 3e df b9 bc 3e 64 4b 59 be 54 d6 5b 3e
       0.4524227 0.36860558 -0.21220165 0.21468478
000080 25 30 94 be c4 0f 7b be 3f d4 43 bd 2b 58 ad bc
       -0.2894298 -0.24517733 -0.047809836 -0.021160206
000090 bd 37 e4 3d 4c b9 d7 3e 91 74 c4 be 9d bc ac 3e
       0.11143444 0.42133558 -0.38370183 0.3373765
0000a0 fa 0d 6e 3e b1 6f 5d be 0a a6 03 3d 20 6b 81 be
       0.23247519 -0.21624638 0.03214077 -0.25277042
0000b0 9d 97 27 be 41 30 32 be 71 c6 11 3e 0f e3 d7 3d
       -0.1636643 -0.1740122 0.14235856 0.10541355
0000c0 b3 03 ad be a0 9e 5b bd 34 a2 73 bc 31 e3 ea 3d
       -0.33791885 -0.053618073 -0.014870215 0.114691146
0000d0 8a 7a bd 3d 4d 44 ef bd 6c 58 ae 3e 26 93 c5 3c
       0.09251888 -0.11682949 0.34051836 0.024118017
0000e0 15 8a b0 3e 9f 1d d0 3e 43 56 c8 3d b8 57 fc bc
       0.34480348 0.406476 0.09782078 -0.030803546
0000f0 4d f0 d1 be c6 55 bd be 79 c9 fd bc 33 25 c1 3e
       -0.41003647 -0.36979502 -0.030979859 0.37723693
000100 4b cb 2a be 73 da 14 be 84 8d ed 3d 4b 10 18 be
       -0.16679113 -0.14536457 0.115992576 -0.14849965
000110 e1 aa 71 3e 9d 8f 97 be 03 37 c5 3d 15 18 aa be
       0.23600341 -0.29601756 0.09629633 -0.33221498
000120 6c 09 93 be 03 e2 d8 3e 39 40 64 be 2e ad 87 be
       -0.28718126 0.42359933 -0.22290124 -0.26499313
000130 0d f3 a4 3e bf 8b d7 be 53 3d b7 3e 45 bb b0 3c
       0.32216683 -0.42098805 0.35788974 0.021573672
000140 f5 ad 5c be 5e 01 aa 3c ea 01 46 bd f6 6a bf 3e
       -0.21550734 0.020752605 -0.04834167 0.37386292
000150 1b 3c a5 3d fa cd 3a be dc e1 b0 be bb b3 1d be
       0.08068105 -0.18242636 -0.34547317 -0.15400593
000160 46 b1 b7 be e8 a1 b5 3e 20 69 57 be 37 2e 92 3c
       -0.35877436 0.35475087 -0.21036196 0.017844303
000170 4e 37 86 be ff 82 db 3d 97 bd fb bd 0a b4 7a be
       -0.2621407 0.10718345 -0.12292021 -0.24482742
000180 33 fa 97 3e 73 1f a8 bd cf b1 d8 3d 91 90 a2 bd
       0.29683074 -0.082091235 0.10580789 -0.0793773
000190 1e 5b ba 3e e2 81 ad be f8 0f 1a be e7 91 92 be
       0.36397642 -0.33888155 -0.15045154 -0.2862694
0001a0 83 8a ef 3c 81 86 3c bd b8 87 a0 3e 2b 1b 87 be
       0.029240852 -0.04602671 0.31353545 -0.26387915
0001b0 8d 20 52 3d 09 18 dc 3e 0e ad 73 be 0d b8 d9 3e
       0.051300574 0.42987087 -0.23796484 0.42523232
0001c0 7c a6 18 3e ff b1 3d bc 5d 01 6e be eb 48 87 be
       0.14907259 -0.011578082 -0.23242708 -0.2642282
0001d0 8b 42 49 bd b4 4a b2 3e 19 ea 66 3e 20 ac c7 be
       -0.049135726 0.3482262 0.22550239 -0.38998508
0001e0 23 19 f2 bd 48 c0 3b 3e cf 61 b2 be c0 c6 66 bd
       -0.11821201 0.18335068 -0.34840247 -0.056341887
0001f0 30 25 3d be 2c a3 9c bd 6e 67 34 3e 74 b2 bf 3e
       -0.18471217 -0.0764831 0.1761758 0.37440836
000200 90 d3 86 3e 2e f2 be be b0 18 8e bc 39 63 c1 be
       0.26333284 -0.37294143 -0.017345756 -0.37771013
000210 a4 38 4a 3e 0b c0 df 3e 80 b0 c6 bd bf fb b9 3e
       0.19748169 0.43701205 -0.097016335 0.3632488
000220 4b 8a 27 bd 87 44 09 3d a5 84 5a 3e 6f b0 b3 be
       -0.04090337 0.03351262 0.21339662 -0.35095546
000230 e1 7f 12 3e ad 0c 8e 3c b2 37 34 bd 53 27 f4 3b
       0.14306594 0.017340029 -0.043998428 0.007450977
000240 2e 20 0c 3d 8e d9 50 be e6 b0 b4 3e 19 88 85 3e
       0.034210376 -0.2039549 0.35291213 0.26080397
000250 68 d7 2f bd 5c cf d6 3e 67 62 8c 3e d3 48 7a 3e
       -0.042930037 0.41955078 0.27418825 0.24441843
000260 11 8e c8 3d 13 b9 51 3e 11 b7 57 3d cc c5 cd 3d
       0.09792722 0.20480756 0.05266482 0.100474924
000270 57 7a 7e 3e 24 9d fb 3d 83 a3 a1 3c 93 0a ae bd
       0.24851356 0.122858316 0.019731289 -0.084981106
000280 74 4a 08 be d4 e7 a8 bd e4 fa a7 3d 51 95 ca be
       -0.13309652 -0.08247343 0.082021505 -0.39567044
000290 f1 9d 80 bd 47 f6 a0 3e 87 c0 d0 bd 51 d7 98 3c
       -0.06280125 0.31437895 -0.10192972 0.018657358
0002a0 db da 45 3e 07 65 98 bd dc b4 c6 be 07 49 9c 3e
       0.19321768 -0.074411444 -0.3880986 0.30524465
0002b0 e3 4b 23 be 69 92 b8 be 22 f9 1e be f4 0e c5 3e
       -0.15946917 -0.36049202 -0.15524724 0.3848797
0002c0 28 6f 11 be 5d 11 91 3b b8 d2 bb be 47 fe d3 be
       -0.14202559 0.0044271187 -0.36684203 -0.41404936
0002d0 60 43 a7 bb c1 7f 77 3b 39 18 a2 be 98 c4 08 bd
       -0.0051044673 0.0037765356 -0.31659105 -0.03339061
0002e0 70 30 cf be 4f f7 af 3e 23 8e dd bd 24 30 cb 3c
       -0.40466642 0.3436837 -0.10818126 0.024803229
0002f0 b1 0a 3d bd 87 7e 8e be c6 d9 4a 3e 8b 34 9d bd
       -0.046152774 -0.27830908 0.19809636 -0.076760374
000300 26 2e da 3c c1 ce c7 be 62 28 f3 3d 14 97 28 bd
       0.026633333 -0.39024928 0.11872937 -0.041159704
000310 48 ca cb be 5c 24 30 3d 59 5d bd 3c 31 b5 35 3d
       -0.39802766 0.043003425 0.0231158 0.04436225
000320 9e 76 cc bc 03 dc 68 be df 33 9b 3e 05 47 5d 3c
       -0.024958905 -0.22740178 0.30313012 0.013505702
000330 f3 58 0f 3e 5a 6c 31 be b2 d6 93 3e e2 c3 42 bc
       0.13998775 -0.17326489 0.28874737 -0.011887522
000340 3e f4 1f 3e b1 58 a2 be 9d de 6c 3e 7b 12 44 3e
       0.15620515 -0.3170829 0.23131795 0.19147675
000350 60 45 5f 3e f0 4e 06 bd 73 c4 38 be 57 e0 ca 3d
       0.21803808 -0.032790124 -0.1804369 0.09906071
000360 f6 bd b8 be 23 c3 0f be 82 3a ca 3e f5 8a 2f 3e
       -0.3608243 -0.14039283 0.39497763 0.17142852
000370 b3 a7 96 be 63 e4 da 3d ea 42 89 3e 7f 22 ad 3e
       -0.2942482 0.106880926 0.26808864 0.3381538
000380 98 b0 e1 3d 4c 03 0a be e6 f0 99 bd a0 34 4f be
       0.11020011 -0.1347782 -0.07516651 -0.20234919
000390 48 84 e1 be 4e a9 9b be 61 0b 7e 3e 65 42 a0 3e
       -0.44046235 -0.30402607 0.24809028 0.31300655
0003a0 26 e3 b1 3e 36 fb ac be 5e 77 08 3e 9d 6c b2 3e
       0.34743613 -0.3378541 0.13326785 0.3484849
0003b0 98 d3 9f be 42 03 86 be 5e 81 5a 3d 65 f4 95 be
       -0.3121612 -0.2617436 0.05334603 -0.2928802
0003c0 76 0a 43 be 8a f4 52 be 7d 6e b0 3d 94 fa dc 3c
       -0.1904696 -0.20601097 0.08614824 0.026974954
0003d0 39 98 90 3d e0 ee 96 3e 2a cf d3 be 92 02 5d bd
       0.07060284 0.29479122 -0.4136899 -0.05395753
0003e0 27 74 80 be 19 36 6b 3d 46 79 b2 be 85 bd 9c bd
       -0.25088617 0.05742464 -0.3485815 -0.076533355
0003f0 3a a3 21 3e ad ec 82 3e 67 45 cf 3e b8 d8 6f be
       0.15784922 0.25571194 0.40482637 -0.23422515

gconv.1.lins.2.weight f4 [16, 16]
000000 ad fe 15 3e e9 88 13 be 61 eb 98 3d 0d 08 11 3e
       0.14647932 -0.14407696 0.0746677 0.14163227
000010 b8 84 3a 3e 0a ae c9 be 95 1b 3a bd 1c 18 f2 bd
       0.1821469 -0.39390594 -0.04543646 -0.11821005
000020 2d 38 f8 bd 58 71 f1 3d e2 1a 4b 3e 24 cd 76 3e
       -0.1212009 0.11789197 0.19834474 0.24101692
000030 33 1c 8c bd b0 bd d1 3b 46 c7 d5 bd b8 0c a2 bc
       -0.06841316 0.0064007863 -0.10438399 -0.019781455
000040 45 77 34 3e 4a d6 34 3d 2c e2 90 3c 33 3e aa 3d
       0.17623623 0.044149674 0.017685972 0.08312645
000050 93 d6 cc 3e 1e c3 db 3d 9d 9e c9 3e 7a aa 95 be
       0.40007457 0.10730575 0.39378825 -0.29231626
000060 47 8e 9d be 38 a6 60 be 66 3a a7 be 66 cf 62 bd
       -0.30772611 -0.21938407 -0.32661742 -0.05537357
000070 2d ee 44 3e 7d 63 27 3e 14 21 44 be ad 79 e6 bc
       0.19231482 0.16346546 -0.19153243 -0.028134191
000080 6c 26 c6 be d2 cb cd be c6 bb 83 bd 67 1a 65 be
       -0.3870119 -0.40194565 -0.06432299 -0.22373353
000090 57 95 66 3e a5 e4 f5 bc 71 9a 93 be a6 35 17 3e
       0.22517906 -0.030016253 -0.28828767 0.14766559
0000a0 34 8a 7b be 82 21 da bc 96 20 ed bd bd dc 8b be
       -0.24564439 -0.026627306 -0.11578481 -0.27316847
0000b0 ca 7b b9 be 87 2e a8 3e 70 44 88 be 9b 37 b1 3e
       -0.36227256 0.32847998 -0.26614714 0.34612736
0000c0 a4 2b bb 3e fb 5f af be e5 a0 4d be 80 0d b1 be
       0.36556733 -0.34252915 -0.20080908 -0.34580612
0000d0 36 03 87 3e 7c 13 cb be b2 aa 3a be 06 2a b0 be
       0.26369637 -0.39663303 -0.18229178 -0.3440706
0000e0 80 52 98 be 06 e8 ca be be 89 29 bd 0a be 1f 3e
       -0.29750443 -0.39630145 -0.041391127 0.15599838
0000f0 bf b9 52 be ab 8a d6 be 7a 45 eb 3d af 42 e2 bd
       -0.20578669 -0.4190267 0.11487861 -0.11047875
000100 10 04 a4 be 7b 3d 40 3e ea e6 79 be 41 8b 18 3e
       -0.3203435 0.18773453 -0.24404493 0.14896871
000110 d4 81 9c 3d 75 f5 d4 3d 23 12 65 3e f3 65 6c 3e
       0.0764195 0.1039838 0.223702 0.23085766
000120 b2 97 c4 be 08 92 44 be b8 69 c0 be a6 12 a1 3e
       -0.38396984 -0.19196332 -0.37580657 0.3145954
000130 34 6e 02 be 1a 4a 6f 3e f0 2d 13 3e 58 5e 86 be
       -0.12737352 0.23368111 0.14372993 -0.26243854
000140 20 4b 46 be 61 90 97 3e 84 90 04 3e 8d a6 ae 3e
       -0.19364595 0.2960234 0.12945753 0.34111443
000150 73 d8 9e be 79 dd c5 3e 6c 66 00 3d d6 2e 66 be
       -0.31024513 0.38645533 0.031347677 -0.22478804
000160 c0 88 b6 3e be 29 00 3e fc 56 b9 be 6d 11 5b 3e
       0.35651207 0.12515923 -0.36199176 0.21393366
000170 de dd a8 3e 9a 6a bd 3d df 46 bd 3e a5 7d 6c be
       0.3298177 0.09248848 0.36968133 -0.23094805
000180 30 35 88 3c ca 20 c1 bd d7 c5 9e 3e a3 95 94 3e
       0.016626924 -0.09430082 0.31010315 0.29020414
000190 19 c4 88 3e 50 50 c8 bd 3d ad 8d be 86 fe a4 bd
       0.2671211 -0.097809434 -0.27671233 -0.08056359
0001a0 97 b3 5c be fb a0 f5 bd 64 f0 71 bd e9 7b 42 be
       -0.21552883 -0.11993595 -0.059067145 -0.1899258
0001b0 8d aa 68 3e ea 3f 0c be 6c 4f 1f 3e bd fd 19 be
       0.2272131 -0.13696256 0.15557641 -0.150382
0001c0 c9 1a a5 3e 21 a5 93 3d ef 37 6b bc 4b cf 61 bd
       0.32246998 0.0720923 -0.014356597 -0.05512933
0001d0 2d d8 85 3e 32 b8 8d 3e 6a 89 b4 be 6d 71 ff 3d
       0.26141492 0.27679592 -0.3526109 0.12472806
0001e0 9a d6 2e 3e d1 25 d5 bd e5 f5 7a bc 37 a5 ac 3e
       0.17074051 -0.104076035 -0.015317415 0.337198
0001f0 c6 f8 ec 3d eb b7 d2 be 4b 78 e4 3d b9 9d dc bd
       0.11570887 -0.41155943 0.111557566 -0.10772271
000200 b9 13 80 3c 46 22 b6 be 22 f3 bb be 19 8c 86 be
       0.015634404 -0.35573024 -0.36708933 -0.2627876
000210 fb 49 51 be 08 16 3c be df ac 9f be 71 09 c3 be
       -0.20438378 -0.18367779 -0.31186578 -0.3809314
000220 71 a9 8c 3e 1c 9d c3 be 3b ef 2e 3e 47 27 41 3d
       0.27473024 -0.38205802 0.17083447 0.0471566
000230 c5 c1 8e 3e 71 dc a0 bd fa ed 5a 3e 6d c8 0d 3d
       0.2788221 -0.07854546 0.21379843 0.03461497
000240 9d a5 f5 bd 7d 4f 8d be 68 88 a0 3d 34 37 9a be
       -0.11994479 -0.27599707 0.078385174 -0.30120242
000250 9c 8e 82 3e b2 4c d6 be b5 8b a5 be ea c6 c1 3e
       0.25499427 -0.4185539 -0.3233315 0.37847072
000260 a3 53 1a be 4d 54 db 3d 55 01 2e bd ba 10 8e 3e
       -0.15070967 0.107094385 -0.04248174 0.27747136
000270 4c 47 fd bd 22 0e cd be 42 17 6a be 51 e0 be 3e
       -0.123671144 -0.40049845 -0.22860435 0.37280515
000280 bc a3 c7 3d 68 4d d2 be 54 52 12 3e 72 1b d0 be
       0.09748027 -0.4107468 0.14289218 -0.4064594
000290 a7 be 3e 3e f2 85 70 3b 69 4e ca 3d 6f 61 30 3e
       0.18627416 0.0036700931 0.09878237 0.17224668
0002a0 de 6e c1 be 00 84 71 be b0 af c7 be f3 44 3b bd
       -0.37779897 -0.2358551 -0.39001226 -0.045720052
0002b0 00 29 11 3d 53 1e 70 bd f8 f7 c1 3d 42 8b c4 bb
       0.03543949 -0.05862267 0.094711244 -0.005998046
0002c0 1b d2 cf be 6a 46 d5 be 24 b2 04 be 23 7a 3c be
       -0.40589985 -0.41655284 -0.1295858 -0.18405966
0002d0 6a 12 ff 3d df 6f 76 3d 8d 20 80 bd d8 bf 22 3e
       0.12454684 0.060165282 -0.062562086 0.15893495
0002e0 d9 32 c6 3e 7b e1 b9 3e 71 88 51 b9 87 ae f3 3d
       0.3871067 0.3630484 -0.00019982622 0.11898523
0002f0 b2 31 c2 3e 29 62 86 3e 2e 15 9e be 79 e8 64 3d
       0.3792854 0.26246765 -0.30875534 0.055885766
000300 a2 41 27 3e 55 70 cc 3e db 18 39 be 0a e0 40 be
       0.1633363 0.39929453 -0.18075888 -0.18835464
000310 8e 9f cb 3c 7d fb ab bc 3f f2 e3 3e eb a3 0c be
       0.024856355 -0.020993942 0.44520757 -0.13734405
000320 69 7b f0 bd 4f 93 c9 be 33 93 21 3e 76 0d 47 3e
       -0.117422886 -0.393702 0.15778808 0.19438729
000330 90 88 cb be 00 0c 93 3e 3c 99 1f be 17 5c 82 3e
       -0.39752626 0.28720093 -0.15585798 0.25460884
000340 1d 3a 20 3e a2 c2 ad be 0f 29 e7 bd 01 b4 9e 3e
       0.15647168 -0.33937556 -0.11287128 0.30996707
000350 fa dd 5e 3e 15 1a a6 be 3f 40 ae 3e 21 73 de 3e
       0.21764365 -0.32441774 0.3403339 0.4344721
000360 b5 f0 eb bd 23 fc 80 be f1 d4 37 be 52 5e 37 3e
       -0.115205206 -0.25192365 -0.17952324 0.17907074
000370 2a d0 a8 3d 55 5c 1d bc 28 fb c8 be ff 8c c6 bd
       0.08242829 -0.009604533 -0.39254117 -0.096948616
000380 e3 46 1d bd cf 70 85 3e a7 04 05 be 16 7f 9d 3c
       -0.03839768 0.2606263 -0.12990056 0.019225638
000390 56 60 c4 be 30 b4 7a 3e c4 19 d6 3d 44 1d f6 bd
       -0.38354748 0.24482799 0.10454133 -0.12017301
0003a0 49 ea 49 be 7b 8b 9a 3e 92 87 25 3e 07 0c 42 be
       -0.19718279 0.3018454 0.16164997 -0.189499
0003b0 a9 7e b9 3d 11 13 89 be d9 07 ab be 43 63 a9 be
       0.09057362 -0.2677236 -0.33404425 -0.33083543
0003c0 f0 ab 11 bd 77 1d b5 3e 4f d3 2f 3e eb 6d 1d be
       -0.035564363 0.35374042 0.17170452 -0.15373962
0003d0 d7 c8 96 3e b5 3f b0 be 95 8d 96 be 3c 41 91 be
       0.29450104 -0.34423605 -0.29404894 -0.28370082
0003e0 05 0f bb 3e 76 a7 8d be 37 0e 5e 3e eb af 3c be
       0.36534896 -0.27666825 0.2168511 -0.18426482
0003f0 83 f5 b8 bb 10 44 64 be ec 47 c0 be f1 57 a6 3e
       -0.0056445017 -0.22291589 -0.37554872 0.3248897

gconv.2.lins.0.weight f4 [16, 16]
000000 76 30 0d 3e 36 a7 91 3e d0 73 0b be 47 57 61 bd
       0.13788018 0.28447884 -0.13618398 -0.055014875
000010 44 7d a7 3e 4a 0f 37 3e 93 5f ae bd 21 e4 cd bd
       0.32712758 0.17876926 -0.08514323 -0.10053278
000020 fa b1 6a be 0d 99 a2 3e 73 bc 48 3e 14 03 b0 3e
       -0.22919455 0.31757393 0.19603138 0.34377348
000030 c9 af 42 3e 4c b1 54 3e 1b 54 ac 3e ec 71 84 3e
       0.19012369 0.20770758 0.33657917 0.25868165
000040 26 52 5b 3e 82 36 13 be 6f 0b 5d bd c7 27 4c 3e
       0.21418056 -0.14376262 -0.053965982 0.19937049
000050 58 94 f7 3d 47 19 80 3e f0 fa 9e 3e 4a 15 9e 3d
       0.12088841 0.25019285 0.31050825 0.07718904
000060 ab 30 2b 3d 70 88 75 3e 34 22 b3 be e7 96 b0 3d
       0.04179446 0.23977828 -0.34987032 0.08622532
000070 7e 52 26 3e 45 2c c7 be 9e af 71 be ee a9 8c bd
       0.16242406 -0.38900962 -0.23602149 -0.06868349
000080 1c 9b a0 be df 41 0f 3e d3 e9 3d bd 46 a3 ff 3c
       -0.3136834 0.13989972 -0.04636557 0.031205785
000090 92 8b ce 3e 58 f4 88 be ea dc 1a 3e 95 1f 8b 3d
       0.4034086 -0.2674892 0.15123335 0.06793133
0000a0 af 2e 85 3d b4 ce 19 be d1 81 56 be 5a 03 07 be
       0.06503045 -0.15020257 -0.20947959 -0.13184872
0000b0 2c e4 09 3e df 19 e4 3e 93 a1 2a 3d a1 a7 bc be
       0.13465947 0.44550988 0.041657995 -0.3684664
0000c0 6f 6d 69 3d 1d b4 ce be dd 97 b3 bc 03 b1 e9 3d
       0.05698913 -0.4037179 -0.021923 0.114107154
0000d0 1f 11 95 be 52 31 1e bd bb 60 49 bd a0 b4 c0 3e
       -0.29114625 -0.038621254 -0.049164515 0.37637806
0000e0 85 2b ee 3d 20 61 8a bd b0 cf e2 3c a1 5e 19 3e
       0.116293944 -0.067568064 0.027686924 0.14977504
0000f0 d6 45 d8 3e 2e 9b a8 be 75 0f dd be 50 bd b5 3d
       0.4224078 -0.32930893 -0.43175855 0.08873999
000100 3f ad 37 3e 96 0b c3 3d 80 b8 8e 3d 5f b2 00 3e
       0.17937182 0.09523694 0.06968784 0.12568043
000110 61 d0 43 be f6 ed 16 3d f1 29 f8 bc f5 8e 2e 3e
       -0.19122459 0.03684803 -0.030293437 0.17046721
000120 c8 e9 e7 3e 7e 9a d6 3e 20 aa 1b be da 86 56 be
       0.45295548 0.41914743 -0.15201616 -0.2094988
000130 8b 80 ca 3e 42 47 a6 be 5b dc f6 3e c3 c8 38 be
       0.39551196 -0.3247624 0.48214993 -0.18045335
000140 7d 26 9c bd 10 64 e3 bd 3f 39 c7 be c8 3d af bd
       -0.076245286 -0.1110307 -0.38910863 -0.08556706
000150 08 83 bd be 7c b6 4b be d6 d1 82 3e 31 cf 3b be
       -0.3701403 -0.19893831 0.25550717 -0.18340756
000160 2f fd 94 3d 5a df 8c 3e 31 d2 b1 be 6c e3 96 3e
       0.072748534 0.27514154 -0.34730676 0.29470384
000170 92 12 0a be 42 2e 11 3e b4 78 b4 3e ac 5e a0 3e
       -0.13483647 0.14177802 0.3524834 0.3132223
000180 c2 66 bb be 25 b7 a7 3e 70 9e 72 3e 4f 56 31 3e
       -0.36601835 0.32756916 0.23693252 0.1731808
000190 32 1e 9e 3e e3 e1 06 be 89 64 4b be 3a 8a 92 3e
       0.30882412 -0.13172106 -0.1986257 0.28621083
0001a0 9f 31 8e bd c8 4d a9 be 2e 6a 9d be df 0e 2d be
       -0.06943058 -0.33067155 -0.3074507 -0.16900204
0001b0 c5 28 65 be b6 5d 99 3e 8c 35 c6 be 1f 76 ad be
       -0.22378834 0.29954308 -0.38712728 -0.33879182
0001c0 fb 8f bb bd f8 4c cb 3e 1d 39 4c 3e ff e5 71 3d
       -0.091583215 0.3970716 0.19943662 0.059057232
0001d0 fa d0 02 3e ec 5c b0 3e 5a ad 75 3d a0 f3 42 be
       0.1277503 0.34445894 0.059979774 -0.19038248
0001e0 f3 d9 c5 3e 61 d6 b8 3d 32 f5 6e be b7 95 90 be
       0.38642845 0.090252645 -0.23335722 -0.28239223
0001f0 95 88 8d 3e 95 6e c0 bd ba 3b 51 bd 82 10 70 be
       0.27643266 -0.09396092 -0.05108235 -0.23443797
000200 c1 a2 8c 3c 84 a3 0a 3e 6d 11 b6 bd 4e d2 27 be
       0.01716745 0.13538939 -0.088900425 -0.16388819
000210 fd e6 a6 be 02 67 96 3e 69 81 8d be 0e 8d 83 3e
       -0.32598105 0.29375464 -0.27637795 0.25693554
000220 2d 7d 9c be 58 c6 79 3e a2 8e a8 3c 6d a6 bf bd
       -0.30564252 0.24392068 0.020575825 -0.09357915
000230 a5 22 d9 3d 46 1a 09 bd 5b 21 8d be d2 4c 07 be
       0.10602311 -0.033472322 -0.2756451 -0.13212898
000240 1d f8 87 3e fb eb b8 3e 04 1d 30 3e dd de ab bd
       0.26556483 0.3611754 0.17198569 -0.08392117
000250 d6 8e b1 bc 35 ce 80 3d 12 df 98 bd 47 c7 af be
       -0.021674555 0.06289331 -0.07464422 -0.34331724
000260 f7 db e6 be 88 81 ee 3d 4a 7d d1 bd ae 67 78 3e
       -0.45089695 0.116458 -0.10228975 0.242583
000270 2f 25 a5 be cb c0 7b bd 08 96 ae 3e 1c b4 51 be
       -0.3225493 -0.06146316 0.3409884 -0.20478863
000280 5d 0a 06 bd f7 07 2c 3e 04 66 2b be 66 2d 31 be
       -0.032724727 0.16799913 -0.16738135 -0.17302474
000290 7b 8f 1f be 62 c7 d3 be e4 50 e7 bd a4 f8 a9 3e
       -0.15582077 -0.41363055 -0.112947255 0.3319751
0002a0 e4 79 c4 3e 84 78 8b be ec bd e4 3d fd 99 5e 3e
       0.38374245 -0.27240384 0.11169037 0.2173843
0002b0 2c c7 9e be 13 f5 c0 bd 88 c8 40 be db 02 61 3e
       -0.3101133 -0.09421744 -0.18826497 0.21973746
0002c0 60 fc 88 be 33 cc dd 3e bf 95 09 bb 97 58 62 3e
       -0.26755047 0.43319854 -0.0020993797 0.22104107
0002d0 00 ef b5 be 9b 2d 33 3e f3 58 a0 be 73 82 7c be
       -0.35533905 0.17497866 -0.31317863 -0.24659137
0002e0 88 60 d4 bd 77 00 bd be 46 88 bb be 95 ef 09 bd
       -0.103699744 -0.36914417 -0.36627406 -0.03367575
0002f0 4e c6 84 3e 24 5f 92 be 66 6a 23 3e a4 9b 4b 3e
       0.25932544 -0.28588212 0.15958557 0.19883591
000300 14 8b 26 be d3 65 b9 be a0 26 c3 bd 9d cd 70 3e
       -0.16263992 -0.36210498 -0.095288515 0.23515935
000310 6e f9 95 3e 07 1b 08 bc a9 94 85 be 4c 4e 5a be
       0.29291862 -0.008307225 -0.2608998 -0.2131893
000320 59 ae b9 3e 5f 8f 81 3e 03 8f 0b 3e b3 86 59 be
       0.3626583 0.25304696 0.13628773 -0.2124279
000330 23 27 ec bd f6 d9 02 3d 8d 69 d9 3e a0 8e fd bc
       -0.11530902 0.031946145 0.4246334 -0.030951798
000340 36 bc 8a be ea 40 49 3d 02 f2 84 be 0b 63 bf 3e
       -0.2709672 0.049134172 -0.25965887 0.3738025
000350 a9 3c c5 bd a7 80 7a be d1 19 17 be 13 8a 78 be
       -0.09630711 -0.2446314 -0.14755942 -0.24271421
000360 ea a4 88 3d a8 5c bc 3b 74 07 d0 3e bc 20 17 3e
       0.0667208 0.00574835 0.40630686 0.14758581
000370 81 21 4c 3e 6f 8a 9e 3e d3 e2 c7 bd e9 c3 a5 3d
       0.19934656 0.3096499 -0.0976006 0.080940075
000380 7c 8c f3 bd e0 06 dd 3d fb 5f 6b be 45 8c a6 3d
       -0.1189203 0.10792327 -0.22985832 0.08132223
000390 65 66 ba 3d 67 5e 91 bd 05 16 86 be e6 44 2f bd
       0.091015615 -0.07098084 -0.26188675 -0.042790316
0003a0 a3 74 e9 bd b6 4d c0 be f3 2c c7 be 1f af 42 3d
       -0.113992 -0.3755929 -0.3890148 0.04753029
0003b0 af e0 98 be 5e 17 bb 3e 01 20 65 be f8 0d 7a 3e
       -0.2985892 0.36541265 -0.2237549 0.24419391
0003c0 ab 7b 89 3e 58 8c f8 bd 5c dd 6f be 17 ff ee bd
       0.26852164 -0.121361434 -0.23424286 -0.11669748
0003d0 df bc b2 3e 43 37 0d be 90 98 13 bc 51 4a d3 3e
       0.34909722 -0.13790612 -0.009008542 0.41267636
0003e0 2e 35 6a be 91 a4 1c 3e 9c bb 84 be 57 06 6a bd
       -0.22871849 0.15297152 -0.25924385 -0.057134952
0003f0 eb fa 62 be 4f ad a4 be d4 bc aa ba f6 bc 13 3c
       -0.2216603 -0.32163474 -0.0013026246 0.00901722
