pth/fold3.pth (torch, 639596 bytes, 46 tensors)

gconv.0.lins.0.weight f4 [16, 2000]
0	0x3d0be0d6	0.034149967
1	0x3d741327	0.059588578
2	0x3baf3666	0.005347061
3	0x3d111be4	0.03542699
4	0x3bc7e531	0.00610032
5	0x39162f57	0.0001432275
6	0x3d259f32	0.040435024
7	0x3d52dbff	0.051479336
8	0x3d965cf3	0.073419474
9	0x3c568c04	0.013094906
10	0x3cbb3f5e	0.022857364
11	0x3c57ac98	0.013163708
12	0xbd122dac	-0.035688087
13	0x3d160cc1	0.036633257
14	0x3cb51d8e	0.02210882
15	0x3bdf0dbf	0.0068070586
16	0x3d2275e4	0.03966321
17	0xbb0fa087	-0.002191575
18	0xbd242dcc	-0.040082738
19	0x3bda82ca	0.0066684233
20	0x3d88c68c	0.06678495
21	0x3d5739d3	0.05254538
22	0x3d3c028d	0.04590087
23	0xbc71d456	-0.0147600975
24	0x3ce9c527	0.028536392
25	0x3d4e220e	0.050325446
26	0xbd111b29	-0.035426293
27	0xbd4e70aa	-0.050400414
28	0xbc747aa0	-0.014921814
29	0x3ca6726a	0.020318229
30	0x3d25e62b	0.04050271
31	0x3d158133	0.036500167
32	0x3d0922df	0.03348052
33	0x3cf3970b	0.029735109
34	0x3be548cf	0.006997205
35	0x3cb4ef14	0.022086658
36	0xbcb24043	-0.021759158
37	0xbca180db	-0.019714763
38	0xbc7f5c41	-0.01558596
39	0x3c3991d4	0.011326272
40	0xbcfc9d5d	-0.030836755
41	0xbd13fee8	-0.03613177
42	0x3d066363	0.032809626
43	0x3d8e36f4	0.06944075
44	0xbd3346d1	-0.043768708
45	0x3cf51781	0.029918434
46	0xbc278ac2	-0.0102259535
47	0x3ccd74d5	0.025080124
48	0xbd3a8baf	-0.04554337
49	0x3d5acff3	0.053420972
50	0x3b630c38	0.0034644734
51	0xbd429ca8	-0.04751268
52	0x3c3d0ff9	0.011539453
53	0xbcb5edf2	-0.022208188
54	0x3cffdf77	0.031234486
55	0x3cca7ff7	0.024719222
56	0xbd5571a3	-0.052110326
57	0x3cbde9d9	0.023182796
58	0xbc65d2f6	-0.014027348
59	0xbd577f57	-0.052611675
60	0xbcba34b4	-0.022730209
61	0x3c359059	0.011081778
62	0xbc9672b8	-0.018365249
63	0xbcadf4fb	-0.02123498
64	0x3d0ec949	0.03485993
65	0x3bb62851	0.0055590053
66	0xbaae9df0	-0.0013322216
67	0x3cc96455	0.024583975
68	0xbd337b0a	-0.04381851
69	0x3d0f2048	0.034942895
70	0x3c4fbc7b	0.012679215
71	0xbce9736b	-0.028497418
72	0x3d362273	0.044466447
73	0x3c80ca26	0.015721392
74	0xbd61f791	-0.05516774
75	0x3d1735a9	0.03691641
76	0x3d2f7150	0.042832673
77	0xbce844c7	-0.028353108
78	0x3d269af3	0.040675115
79	0xbd2b89e9	-0.04187957
80	0xbd153550	-0.036427796
81	0x3c29cea8	0.010364212
82	0xbccd74b3	-0.02508006
83	0xbd7916f1	-0.060812894
84	0x3bfcc953	0.0077144294
85	0x3d5911e2	0.05299557
86	0xbc8aa8f4	-0.016926266
87	0x3c8f80e7	0.01751752
88	0x3d61f2fb	0.055163365
89	0xbcb1c64e	-0.021701004
90	0xbbe377f3	-0.0069417893
91	0x3c0e9762	0.008703085
92	0xbceb798e	-0.028744485
93	0xbcc55271	-0.024087163
94	0x3bfd44d7	0.0077291536
95	0xbbdabcce	-0.0066753393
96	0x3c9a9f79	0.01887487
97	0x3caa2f0c	0.020774387
98	0x3c792f07	0.015208966
99	0x3ca84b2c	0.020543657
100	0x3c2815f1	0.0102591375
101	0xbca8f09f	-0.02062255
102	0x3ced7415	0.028986016
103	0x3d657f36	0.05602952
104	0xbd74cd17	-0.0597659
105	0xbd47a54f	-0.048741635
106	0x3d1dd56f	0.038533624
107	0x3cd6e980	0.026234388
108	0x3d35d054	0.04438813
109	0x3cbcb774	0.023036696
110	0xbc44272b	-0.011972229
111	0x3bde365b	0.006781382
112	0x3ba1d1c7	0.0049383375
113	0x3d253c98	0.04034099
114	0xbc81e5dc	-0.015856676
115	0xbc405a54	-0.011740286
116	0xbcb33dc7	-0.021880044
117	0x398e50ab	0.00027144453
118	0x3ce9b05e	0.028526481
119	0x3d379d8f	0.044827994
120	0x3bc41512	0.005983957
121	0xbc901f3d	-0.01759302
122	0x3cefdd9d	0.029280478
123	0xbd159079	-0.036514733
124	0x3c37ea51	0.011225299
125	0x3d188501	0.037236217
126	0xbbce1f76	-0.0062903715
127	0x3d4bf28e	0.049791865
128	0x3c676d16	0.014125129
129	0x3c1d6a98	0.009607933
130	0x3d22e870	0.03977245
131	0x3d6e0c2e	0.058117084
132	0x3c971788	0.018443838
133	0x3d1b3c98	0.037899584
134	0xbcf59d6c	-0.029982291
135	0xbbb6b53f	-0.0055758054
136	0x3d494ebd	0.049147356
137	0xbd34a5bc	-0.04410337
138	0x3bdd27af	0.0067491154
139	0x3d1fa905	0.03897955
140	0xbd6f6a5c	-0.05845104
141	0x3ced062f	0.028933613
142	0xbc8a7069	-0.016899304
143	0x3c1f5237	0.009724191
144	0x3c9fd82e	0.019512262
145	0x3d2196e7	0.039450552
146	0x3c9fd21b	0.019509366
147	0xb9e27957	-0.00043196484
148	0x3cb7fcb7	0.022459371
149	0xbcc5f924	-0.024166651
150	0x38ec6441	0.00011272031
151	0x3d27e32b	0.04098813
152	0xbcc7ce3d	-0.024390334
153	0x3bb7ba94	0.0056069586
154	0x3d267f14	0.040648535
155	0x3c01650a	0.007897625
156	0x3c91e794	0.01781062
157	0x3d67f870	0.056633413
158	0xbc054329	-0.008133688
159	0xbd13b13a	-0.03605769
160	0x3c120bbb	0.00891393
161	0x3b8c9e57	0.0042913365
162	0x3d386435	0.04501744
163	0xbd4e5ef6	-0.05038353
164	0x3d281d82	0.041043766
165	0xbd20935c	-0.039203033
166	0xbc72cfab	-0.01482002
167	0xbc7c2d72	-0.015391694
168	0x3d466d92	0.04844434
169	0xbcd05667	-0.025431825
170	0x3bd8f3ab	0.0066208444
171	0xbca17bd5	-0.019712368
172	0xbd37e36c	-0.04489462
173	0x3ce9b9a1	0.028530898
174	0x3cff3b23	0.031156128
175	0xbd2311df	-0.039811965
176	0x3cb9e714	0.022693194
177	0x3d681473	0.056660127
178	0x3d815b38	0.06316227
179	0x3d3d9259	0.046282146
180	0x3ba2ce37	0.0049684304
181	0x3c97e9c9	0.018544095
182	0x3d4c591b	0.049889665
183	0x3c651a7e	0.013983367
184	0xbccd38b8	-0.02505146
185	0x3d312b41	0.04325414
186	0xbd61d7dd	-0.055137504
187	0xbd26fbd3	-0.040767502
188	0x3c8bea92	0.017079625
189	0xba0463da	-0.00050502794
190	0xbc07e42c	-0.0082941465
191	0xbd5e8656	-0.05432733
192	0x3ce99052	0.0285112
193	0xbca22e3b	-0.019797435
194	0x3d3e8e98	0.046522707
195	0x3d4fde2b	0.050748985
196	0x3c987162	0.018608753
197	0x3d5d736d	0.054065157
198	0xbce444dd	-0.027864868
199	0xbc695830	-0.014242217
200	0x3d3969e6	0.04526701
201	0x3ca61650	0.020274311
202	0x3d3cb3c4	0.046069875
203	0x3d3a7aa4	0.045527115
204	0x3c6bbb0e	0.014387859
205	0x3d3ff93e	0.046868555
206	0x3d4d043d	0.05005287
207	0x3d634246	0.055483125
208	0xbd2ddae2	-0.04244507
209	0x3d1998af	0.037499126
210	0x3c5b813c	0.013397511
211	0x3d0768d4	0.033058956
212	0x3d0ce3b9	0.03439686
213	0xbb91bdf5	-0.0044476935
214	0xbc69ec47	-0.014277524
215	0xbae7982e	-0.0017669254
216	0x3d2cf0bb	0.042221766
217	0x3d7c78e3	0.061638724
218	0xbd46a6fc	-0.048499092
219	0xbbbed63c	-0.0058238786
220	0xbd23ed46	-0.040021203
221	0xbc19eebc	-0.009395298
222	0x3ac5e2bb	0.0015097478
223	0x3d6052b1	0.05476636
224	0xbcae78cb	-0.021297833
225	0x3a902072	0.0010995998
226	0xbd499378	-0.049212903
227	0x3c94cb3a	0.018163312
228	0x3d600ac1	0.054697756
229	0xbd4700c0	-0.0485847
230	0xbd0138de	-0.031548373
231	0x3c9f4924	0.019444056
232	0x3d710661	0.058843974
233	0x3d2f50cd	0.042801667
234	0xbc1acca7	-0.009448207
235	0x3d569552	0.052388497
236	0x3cd20c10	0.025640517
237	0xbc3a99d6	-0.011389216
238	0x3cfd200d	0.030899072
239	0x3c923d2b	0.017851433
240	0x3d15305e	0.03642308
241	0xbd3dc467	-0.046329882
242	0x3cf55301	0.029946806
243	0x3d6dd066	0.058060072
244	0x3cbe61dd	0.023240024
245	0xbcc7a937	-0.02437268
246	0xbb072ff5	-0.002062795
247	0x3d85c979	0.065325685
248	0x3d212307	0.039340045
249	0xbc0560b7	-0.008140734
250	0x3d107999	0.035272215
251	0xbc805340	-0.015664697
252	0xbcc778ad	-0.024349535
253	0xbcb58fc8	-0.022163287
254	0xbc1eeb33	-0.009699631
255	0xbc159044	-0.009128634

gconv.0.lins.1.weight f4 [16, 2000]
0	0xbd5ed903	-0.054406177
1	0xbd486d5c	-0.04893242
2	0xbd91c235	-0.0711712
3	0xbb913192	-0.004430958
4	0x3c6f8db8	0.014621191
5	0x3d0826d4	0.033240154
6	0x3cafa404	0.021440513
7	0x3cd6f34a	0.026239056
8	0x3d03cd69	0.032178316
9	0xbd3e1a53	-0.046411823
10	0xbd0062f1	-0.031344358
11	0xbc586ef7	-0.01321005
12	0xbb8a12c3	-0.0042136624
13	0x3bcd8b10	0.006272681
14	0xbd622c4c	-0.055218026
15	0x3c65e942	0.014032664
16	0xbb70f5c1	-0.0036767574
17	0x3d30fb00	0.043208122
18	0x3d502ea3	0.050825726
19	0x3ccf150b	0.025278589
20	0xbd5f28d0	-0.05448228
21	0xbc82dd3e	-0.015974637
22	0x3cd55793	0.026042735
23	0x3c0011c3	0.007816735
24	0x3bc5fe05	0.0060422444
25	0xbc6f24ae	-0.014596147
26	0x3d087ddd	0.033323158
27	0x3c18817f	0.009308218
28	0xbd0fe113	-0.035126757
29	0xbbce2133	-0.0062905787
30	0xbc65fb16	-0.014036914
31	0xbce25bd7	-0.027631683
32	0x3c9b6ec3	0.018973714
33	0x3ce85b17	0.028363748
34	0x3d41892e	0.047249965
35	0x3c897694	0.016780175
36	0xba7eeec8	-0.0009724912
37	0x3c49077b	0.01226985
38	0x3d4959d1	0.04915792
39	0x3cb06439	0.021532165
40	0xbcc233cc	-0.02370634
41	0x3c2a4443	0.010392251
42	0xbd064911	-0.032784525
43	0xbc96f403	-0.0184269
44	0x3ad7d183	0.0016465638
45	0xbce6ebca	-0.028188605
46	0xbbd2583c	-0.0064192098
47	0xbd4e9ea9	-0.05044428
48	0xbd04f6b6	-0.032461844
49	0x3a8243dd	0.0009938438
50	0x3bd7e70a	0.0065888213
51	0xbd161550	-0.03664142
52	0x3ce200b6	0.02758823
53	0x3d3777e2	0.044792064
54	0x3d223bc2	0.03960777
55	0xbd07eaa4	-0.033182755
56	0xbcf4dc78	-0.029890284
57	0x3d29aab2	0.041422553
58	0x3af97913	0.0019033275
59	0x3cfccb2d	0.0308586
60	0x3cafee25	0.02147586
61	0x3c97cbf7	0.018529875
62	0x3cf67890	0.030086786
63	0xbd294b34	-0.041331485
64	0xbc572fe9	-0.013133981
65	0x3cde9431	0.027170273
66	0xbcee5f76	-0.029098254
67	0x3bcee422	0.0063138166
68	0xbd2dc2c9	-0.04242209
69	0xbd2df0df	-0.04246604
70	0x3c26c2a3	0.010178241
71	0x3cc541e9	0.02407928
72	0xbc4cc70a	-0.0124986265
73	0xbcc45a6b	-0.023968896
74	0xbcb60ebd	-0.022223825
75	0xbd176e76	-0.036970578
76	0x3b85403b	0.0040664948
77	0xbd3b98f0	-0.04580015
78	0x3cb94f4f	0.022620825
79	0xbd44fff9	-0.048095677
80	0xbcf6e8ca	-0.0301403
81	0x3d559a9b	0.052149396
82	0x3c59cf6e	0.013294084
83	0x3d55e960	0.052224517
84	0xbd0f70db	-0.035019737
85	0x3c21d622	0.009877713
86	0xbc300f66	-0.010745859
87	0x3ccc8e46	0.024970185
88	0xbc93d7c1	-0.018047215
89	0x3ceb1e51	0.02870098
90	0xbc62da4c	-0.013845991
91	0x3ccc3492	0.024927411
92	0x3cd24256	0.025666397
93	0xbd5ff18a	-0.05467371
94	0xbb16dc6f	-0.0023019572
95	0xbc293ff1	-0.010330186
96	0xbd0db23d	-0.03459381
97	0x3d1ef613	0.038808893
98	0xbbc0bd16	-0.005881916
99	0x3c115007	0.008869178
100	0xbd27e8fe	-0.040993683
101	0xbd251fe2	-0.04031361
102	0xbd14f789	-0.03636888
103	0x3d361421	0.04445279
104	0x3c64a5db	0.013955559
105	0x3d1d8cba	0.038464285
106	0x3d0dd53c	0.034627184
107	0xbc46784c	-0.012113642
108	0xbbc791a8	-0.0060903616
109	0xbcabce0f	-0.02097228
110	0xbcec1315	-0.028817693
111	0xbd1619e0	-0.03664577
112	0xbd266d7d	-0.04063176
113	0x3cdbaf5e	0.02681702
114	0x3d2e4807	0.04254916
115	0xbcdaf6ee	-0.026729073
116	0x3aaad43b	0.001303322
117	0xbc2904e7	-0.01031611
118	0xbd1b15ed	-0.037862707
119	0x3cae312c	0.021263681
120	0x3d2987bd	0.041389216
121	0xbc9602c3	-0.018311864
122	0xbca35b1e	-0.019940909
123	0x3cc467e9	0.02397533
124	0xba38afe1	-0.0007045251
125	0xbd34ec53	-0.04417069
126	0xbd3a0344	-0.04541327
127	0x3cfb72e2	0.030694429
128	0x3d32d747	0.043662336
129	0xbd54f048	-0.051986963
130	0xbcf72ab5	-0.030171731
131	0xbad37a27	-0.0016134427
132	0xbd56298a	-0.05228571
133	0x3d408734	0.04700394
134	0x3d7588e5	0.059945006
135	0xbc6f1065	-0.014591311
136	0x3d2feac5	0.042948503
137	0xbc79630a	-0.015221367
138	0xbd741026	-0.059585713
139	0xbc146fa8	-0.009059824
140	0xbd0e80ba	-0.034790732
141	0xbb51e9e3	-0.0032030276
142	0xbbfc44aa	-0.007698615
143	0x3cf8afb0	0.030357212
144	0xbcd64259	-0.026154684
145	0xbc817e70	-0.01580736
146	0xbbe06f77	-0.006849225
147	0xbc87c19e	-0.016571816
148	0xbd0b83ee	-0.034061365
149	0x3cb549d4	0.02212993
150	0x3ab5dbfa	0.0013874762
151	0xbc958fe8	-0.018257096
152	0x3cb48db9	0.022040235
153	0xbd0e5210	-0.03474623
154	0x3d448607	0.04797938
155	0x3d0e947c	0.034809574
156	0xbccf1062	-0.025276367
157	0x3a84df10	0.0010137279
158	0xbc86ce34	-0.016455747
159	0x3c8a68a5	0.016895602
160	0x3badd95e	0.005305453
161	0x3cb501f6	0.022095662
162	0xbd08e25b	-0.033418994
163	0xbccabaf0	-0.024747342
164	0x3c965444	0.018350728
165	0x3c2fa584	0.010720614
166	0xbd36d40f	-0.04463583
167	0x3d7fe64f	0.0624755
168	0xbcd5801a	-0.02606206
169	0xbb1317f7	-0.0022444704
170	0xbcd6fdfe	-0.02624416
171	0xbc738d93	-0.014865297
172	0xbcf36c19	-0.02971463
173	0xbb0c6a32	-0.0021425602
174	0xbc970ac5	-0.018437753
175	0x3b4f6303	0.003164471
176	0x3d4664d7	0.048436012
177	0xbc131ca6	-0.008978998
178	0xbd3ff353	-0.04686291
179	0x3d456154	0.048188522
180	0xbb37f406	-0.0028069033
181	0xbd324e02	-0.043531425
182	0x3cb7b4b9	0.022425042
183	0x3bb3d582	0.0054880986
184	0xbd3f09c0	-0.046640158
185	0x3cb757b1	0.022380682
186	0xbc629823	-0.0138302175
187	0xbd48eb73	-0.049052667
188	0xbd2ba89b	-0.04190884
189	0x3cee6bd9	0.02910416
190	0xbd3f315b	-0.04667793
191	0xbd00679d	-0.031348813
192	0x3c54c018	0.012985252
193	0x3d39b2ea	0.04533664
194	0x3c1076a7	0.008817351
195	0x3b8e7e1d	0.00434853
196	0xbcfaa164	-0.030594535
197	0xbcdf4924	-0.027256556
198	0xbc80d9a1	-0.015728774
199	0x3d0c2b3f	0.03422093
200	0xbc3fd7ba	-0.011709148
201	0x3d25ff39	0.040526602
202	0x3d456357	0.04819044
203	0xbca5a444	-0.02021993
204	0xbbff6494	-0.0077939723
205	0x3cfeb7e7	0.03109355
206	0xbcd0c86b	-0.025486192
207	0xbcde53d1	-0.027139576
208	0xbcf81e86	-0.030287992
209	0x3c9e8cb4	0.019354202
210	0x3c9e804a	0.019348282
211	0xbcf0ccb6	-0.029394489
212	0x3cbacc0d	0.022802377
213	0xbd031e8e	-0.03201156
214	0xbd23c150	-0.03997928
215	0xbccb14c3	-0.024790173
216	0x3d3a144f	0.045429524
217	0xbce37e77	-0.027770264
218	0xbd27ca9a	-0.0409647
219	0xbd2b0b05	-0.041758556
220	0xbd652f75	-0.05595346
221	0x3cf020a9	0.029312449
222	0x3b3db5ad	0.0028947399
223	0x3c6cc530	0.01445131
224	0x3ca94443	0.020662433
225	0x3d2a9111	0.041642252
226	0xbc9ad9e3	-0.018902725
227	0x3d00547a	0.031330563
228	0xbcc580a4	-0.024109192
229	0xbd5f1950	-0.0544675
230	0x3cbf46ca	0.023349185
231	0xbba6a065	-0.0050850385
232	0xbb66b413	-0.0035202547
233	0xbbebe31a	-0.0071987035
234	0xbce2fdd3	-0.027708923
235	0xbd5b6508	-0.053563148
236	0x3c36294c	0.011118244
237	0x3d400fc3	0.04689003
238	0xbbc22ce8	-0.0059257634
239	0xbd33777f	-0.043815132
240	0x3ce55997	0.027996821
241	0xbd2a2ed0	-0.04154855
242	0xbd48d005	-0.049026508
243	0xbccd05b6	-0.025027137
244	0xbd4bb2b0	-0.049730957
245	0x3caf8fe2	0.021430913
246	0x3d1988a9	0.037483845
247	0x3d3f8c54	0.046764687
248	0x3cb9f2fb	0.02269887
249	0xbc6f2f76	-0.014598718
250	0xbd42462a	-0.047430195
251	0x3d012e86	0.03153851
252	0x3d132a48	0.035928994
253	0x3cf38b76	0.029729586
254	0x3cc39d7d	0.023878807
255	0xbd786d40	-0.060651064

gconv.0.lins.2.weight f4 [16, 2000]
0	0xbd222663	-0.03958739
1	0xbb9f5e2d	-0.0048635215
2	0xbd8779fd	-0.06615064
3	0xbd2afb1d	-0.041743387
4	0x3d0bb87f	0.034111496
5	0xbb18fcd9	-0.0023344068
6	0xbd0567e2	-0.032569773
7	0x3c30b5be	0.010785518
8	0xbc0f2094	-0.008735795
9	0xbc4276f9	-0.011869186
10	0xbc548d5d	-0.012973157
11	0xbd0d6922	-0.03452409
12	0x3c54f081	0.012996794
13	0xbd86ed8d	-0.06588278
14	0x3c64baac	0.013960522
15	0x3d0812b7	0.033220973
16	0xbd514154	-0.051087692
17	0x3cbc6922	0.02299935
18	0x3c40ac01	0.011759759
19	0xbd5cf485	-0.05394413
20	0x3b3a3989	0.0028415641
21	0xbc1b14aa	-0.009465376
22	0x3c162e4e	0.009166313
23	0xbd456700	-0.04819393
24	0x3d009822	0.031395085
25	0xbd936a20	-0.07197976
26	0xbd6245b8	-0.05524227
27	0xbd3d7891	-0.04625756
28	0x3bdb9372	0.0067009265
29	0xbaf70873	-0.0018847123
30	0x3b654599	0.003498411
31	0xbd44963c	-0.047994837
32	0xbd72cc67	-0.059276965
33	0xbd5316ea	-0.051535524
34	0xbc590b3c	-0.013247307
35	0xbbfdccf0	-0.0077453777
36	0xbd2c04da	-0.041996814
37	0x3b828e2b	0.003984233
38	0x3c9d3483	0.019190079
39	0x3cbd843c	0.023134343
40	0x3c880470	0.016603678
41	0xbd5c818c	-0.053834483
42	0xbd89a58b	-0.06721028
43	0x3cc51a14	0.024060287
44	0x3c55bfc3	0.013046208
45	0xbc8507b8	-0.016239032
46	0x3d12adef	0.035810407
47	0xbd759e26	-0.059965275
48	0x3d62f0ff	0.055405613
49	0x3c5a26c0	0.013314903
50	0xbd6131f5	-0.054979283
51	0xbd2ea06c	-0.04263346
52	0xbc7a064d	-0.015260291
53	0x3c025326	0.007954394
54	0xbce69151	-0.028145464
55	0x3cd43732	0.025905225
56	0x3c8fcd39	0.017553912
57	0x3d244d1f	0.04011261
58	0xbc01aeb0	-0.007915184
59	0xbc68d222	-0.014210256
60	0xbc1bc4f2	-0.009507405
61	0x3d178045	0.03698756
62	0xbd4ca2dc	-0.049960002
63	0xbb9443d5	-0.004524688
64	0x3d57b521	0.052662972
65	0x3c94d6b1	0.01816878
66	0x3b178bc5	0.002312408
67	0xbc19455c	-0.0093549155
68	0x3d99d4c6	0.075112864
69	0xbd02924d	-0.031877805
70	0x3c833739	0.016017543
71	0xbd301203	-0.042985927
72	0x3ce3cc1d	0.02780729
73	0x3b757273	0.003745225
74	0x3d346de9	0.04405013
75	0xbc824804	-0.01590348
76	0xbd060c85	-0.032726783
77	0x3a9458f1	0.001131801
78	0x3c3f8f66	0.011691904
79	0x3d31a28e	0.043367915
80	0xbbb1f8e4	-0.0054312814
81	0xbd174d35	-0.036938865
82	0x3d2b64bb	0.04184411
83	0x3a143cd9	0.0005654819
84	0x3ca2b7dd	0.019863063
85	0xbccd40e0	-0.025055349
86	0xbcf433a3	-0.029809779
87	0x39e9d64d	0.0004460089
88	0x3be64678	0.0070274435
89	0xbd421eb9	-0.04739258
90	0xbccc47a8	-0.024936512
91	0xbb751dd9	-0.0037401824
92	0xba5412c9	-0.00080899574
93	0xbba195bb	-0.0049311793
94	0x3d6fc6f8	0.05853936
95	0x3d29d3ad	0.041461635
96	0xbc7580e6	-0.014984345
97	0xbd5375d3	-0.051626038
98	0x3b974cfd	0.004617332
99	0xbd2fa70d	-0.04288392
100	0x3c64676f	0.013940676
101	0xbd768a81	-0.06019068
102	0xbcfd444a	-0.030916352
103	0x3b9596df	0.0045651044
104	0xbd037aaf	-0.032099422
105	0x3d3cf165	0.04612865
106	0xbd85d420	-0.065346
107	0x3c02d534	0.007985402
108	0xbd5f81e3	-0.05456723
109	0xbca7c027	-0.020477368
110	0x3afac825	0.0019133134
111	0x3cae3c21	0.021268906
112	0x3cd3cad2	0.025853548
113	0x3ce2be13	0.027678525
114	0x3c8a5aa4	0.016888924
115	0xbd3c4b75	-0.0459704
116	0xbc89defb	-0.016829958
117	0x3c55bb19	0.013045096
118	0x3cfa1824	0.03052909
119	0x3d14ba41	0.036310438
120	0x3d381921	0.04494584
121	0xbd26e514	-0.04074581
122	0xbc3f856f	-0.011689528
123	0xbd081058	-0.03321871
124	0x3d471e2c	0.04861276
125	0xbd4b57f2	-0.049644418
126	0x3d3ce78c	0.046119258
127	0x3d29f807	0.041496303
128	0x3c92d613	0.017924344
129	0x3b2298c4	0.0024810294
130	0xbcb70d7c	-0.022345297
131	0xbc415eb0	-0.01180236
132	0x3d24eadc	0.04026304
133	0xbd5d2bd9	-0.053996895
134	0x3d294be2	0.041332133
135	0xbce7e57e	-0.028307673
136	0xbd00bada	-0.031428196
137	0x3d0a69d3	0.033792328
138	0xbbefacf3	-0.0073143183
139	0xbc01c130	-0.007919595
140	0x3c8b8977	0.017033322
141	0xbd09f060	-0.033676505
142	0x3d5533b5	0.052051265
143	0xbd58814a	-0.052857675
144	0x3ca0a902	0.01961184
145	0x3c837374	0.016046263
146	0xbd6dc300	-0.058047295
147	0xbd467eee	-0.048460893
148	0xbc4154d0	-0.011800006
149	0x3d06e5e1	0.032934073
150	0x3ccf7a49	0.025326865
151	0x3d373ccf	0.044735726
152	0xbcd8b1a5	-0.026451895
153	0x3d384c78	0.0449948
154	0xba01b38e	-0.0004947715
155	0x3d295031	0.041336242
156	0x3cb2d1a1	0.021828474
157	0xbc883b57	-0.016629858
158	0xbd15f7a5	-0.036613125
159	0xbd0eb283	-0.03483821
160	0x3c937300	0.017999172
161	0x3d32d620	0.043661237
162	0x3ce25f23	0.027633255
163	0x3d0bbf86	0.034118198
164	0xbd23e32b	-0.040011566
165	0xbca86ed0	-0.020560652
166	0x3c89b399	0.016809272
167	0xbcfdf573	-0.031000828
168	0xbb978bdb	-0.0046248264
169	0xbc2e0372	-0.010620939
170	0x3d1b6ef3	0.037947606
171	0x3cb46052	0.022018585
172	0xbd073331	-0.033007804
173	0xbd2ace50	-0.04170066
174	0xbd44c015	-0.048034746
175	0xbd2fa65f	-0.042883273
176	0xbb2f84e2	-0.0026782085
177	0x3d3dea3d	0.046365965
178	0x3d0c10c3	0.034195673
179	0xbd0fd533	-0.035115432
180	0xbd30b894	-0.043144777
181	0xbc73356e	-0.014844282
182	0x3cec140f	0.028818158
183	0x3ceec6f8	0.02914761
184	0xbbac5626	-0.005259293
185	0xbcca04bb	-0.024660459
186	0x3cbcbab8	0.023038253
187	0xbcb0eea7	-0.021598173
188	0x3d076c04	0.033061996
189	0x3bcd9d31	0.006274842
190	0xbcb275c6	-0.021784674
191	0xbd2bafeb	-0.041915815
192	0x3cd4afa6	0.025962662
193	0xbc41b5b1	-0.011823104
194	0x3d040f38	0.032241076
195	0x3cdf90fa	0.02729081
196	0x3cf176fa	0.029475678
197	0xbd668d96	-0.05628737
198	0xbcebf698	-0.028804109
199	0x3cce6f68	0.025199607
200	0xbd6bd04b	-0.05757169
201	0x3cd5dc48	0.026106015
202	0xbd468cbb	-0.048474055
203	0x3d31b006	0.04338076
204	0x3ca6c891	0.02035931
205	0x3d0011c9	0.03126696
206	0xbd78cd79	-0.06074283
207	0xbb778f1e	-0.0037774513
208	0x3d3ab343	0.045581114
209	0x3c47c3a2	0.012192639
210	0xbb0d7c76	-0.0021589077
211	0xbcc49f39	-0.024001705
212	0xbce9f560	-0.028559387
213	0xbd2e5a8e	-0.04256683
214	0xbd035707	-0.032065418
215	0x3ce30143	0.027710563
216	0xbcb524d8	-0.022112295
217	0xbd378314	-0.04480274
218	0x3d306204	0.043062225
219	0x3d049254	0.032366112
220	0x3c4dec46	0.012568539
221	0x3c45d08c	0.012073647
222	0xbc109621	-0.008824856
223	0xbcfe43e0	-0.031038225
224	0xbd484a5e	-0.048899047
225	0xbd0871a0	-0.033311486
226	0x3d3ef76c	0.04662268
227	0xbc4218d6	-0.011846742
228	0x3bf9641f	0.0076108123
229	0x3caf85dc	0.021426134
230	0x3cad1a9d	0.021130854
231	0xbd3dc194	-0.04632719
232	0xbd40c59a	-0.047063448
233	0x3c31724d	0.010830474
234	0x3cbfd81b	0.023418477
235	0xbd166ee6	-0.036726855
236	0xbc1dddc7	-0.009635395
237	0xbd69bf07	-0.057066943
238	0xbd49006b	-0.049072664
239	0xbccedf7b	-0.025253048
240	0x3bd469eb	0.006482353
241	0xbcb7d9a4	-0.022442646
242	0xbcc07a92	-0.023495946
243	0xbca34893	-0.019932067
244	0xbc905ecb	-0.017623326
245	0xbcefaa74	-0.029256083
246	0xbd4ea86e	-0.050453596
247	0x3bf16c0f	0.007367618
248	0xbc4de559	-0.012566888
249	0x3c224111	0.009903208
250	0xbcfbcdb0	-0.030737728
251	0x3cb09a55	0.021557966
252	0xbd419e61	-0.047270183
253	0xbd2b8a05	-0.041879673
254	0xbd53467d	-0.051580895
255	0xbc6c83cb	-0.014435719

gconv.1.lins.0.weight f4 [16, 16]
0	0x3ed55bec	0.41671693
1	0xbed9ba83	-0.4252511
2	0x3d8b2240	0.06793642
3	0xbea7ea32	-0.32795864
4	0xbec17038	-0.3778093
5	0xbe7b8ac7	-0.24564658
6	0xbdbf416e	-0.093386516
7	0x3e0c4b24	0.13700539
8	0x3ebb54cf	0.3658814
9	0xbeb67541	-0.35636333
10	0x3e2d3d6a	0.16917959
11	0xbc5a725c	-0.013332929
12	0x3e6c7a93	0.23093633
13	0x3e81e6c4	0.25371373
14	0x3ec13b7b	0.37740692
15	0xbe7be554	-0.245992
16	0x3e9f3185	0.31092468
17	0x3e73fa64	0.23825985
18	0x3e863e8e	0.262196
19	0x3e8d9d4f	0.2765908
20	0x3e8f7b66	0.28023833
21	0xbea0490e	-0.31305736
22	0x3ecb8672	0.3975101
23	0xbecbb23f	-0.39784428
24	0x3ec5f6f9	0.38664988
25	0x3e932271	0.28737214
26	0x3d64a321	0.055819634
27	0xbe5f9c94	-0.21837074
28	0xbe9d96b0	-0.30779028
29	0xbe48d3d9	-0.19612063
30	0xbe99530f	-0.2994618
31	0x3d8d3fdf	0.06896948
32	0x3ebad321	0.36489204
33	0x3e6b6279	0.22986783
34	0x3e540b39	0.20707406
35	0xbd0bcc5b	-0.034130435
36	0xbe5f3dec	-0.21800965
37	0xbe9d49a9	-0.3072026
38	0xbeb6de04	-0.3571626
39	0xbd27f0b3	-0.041001033
40	0x3db3537e	0.08756159
41	0xbea064a9	-0.31326798
42	0x3d867001	0.06564332
43	0xbe088f11	-0.13335826
44	0xbd667b50	-0.056269944
45	0x3de24a8d	0.11049376
46	0xbe8b49f4	-0.2720486
47	0xbd69b4af	-0.05705708
48	0xbe6b1c25	-0.22959955
49	0xbd45c8b5	-0.048287112
50	0xbe93d7e4	-0.2887565
51	0xbeccfc4c	-0.40036237
52	0x3e598b4a	0.21244541
53	0x3e3eb85b	0.18625014
54	0x3d8ace78	0.06777662
55	0x3ec1b205	0.3783113
56	0xbe76ba7e	-0.24094579
57	0xbe17397a	-0.1476802
58	0xbe3aa2dc	-0.18226188
59	0xbeafbb50	-0.34322596
60	0x3e76b4a8	0.24092352
61	0x3e745a9e	0.23862693
62	0x3eb621da	0.35572702
63	0x3de5d81d	0.11222861
64	0xbdcea0c4	-0.10089257
65	0x3e23cde4	0.1599651
66	0xbe0f0008	-0.13964856
67	0x3c91f950	0.017819077
68	0x3eb0d5c8	0.34538102
69	0x3dc04b04	0.09389308
70	0x3eae8c29	0.3409131
71	0xbdcd19d2	-0.100146905
72	0xbe0ebb7d	-0.13938709
73	0x3e11078a	0.14163032
74	0xbeaca113	-0.3371664
75	0x3e796be1	0.24357559
76	0xbe4bf1dc	-0.19916481
77	0x3d50a148	0.05093506
78	0xbe959360	-0.29214
79	0x3eaf1c98	0.34201503
80	0xbebb1bd4	-0.3654467
81	0x3e476d70	0.19475341
82	0x3eadf159	0.33973196
83	0xbe21d6f5	-0.15804656
84	0x3ed63c20	0.41842747
85	0x3ec0e8c7	0.37677595
86	0xbec2d30c	-0.3805164
87	0xbd2af605	-0.04173853
88	0xbe785757	-0.24252068
89	0x3e9ecae4	0.31014168
90	0x3e18bc4d	0.14915581
91	0xbe59ad18	-0.21257436
92	0x3ebb8dfc	0.36631763
93	0x3e3ccb28	0.18436873
94	0xbea85cb2	-0.3288322
95	0xbd212b53	-0.039347958
96	0xbec1cc21	-0.3785105
97	0xbe935ca5	-0.2878162
98	0x3e99b65b	0.3002194
99	0x3e821f4c	0.25414503
100	0x3e62cf44	0.22149378
101	0x3e21065f	0.15725087
102	0xbe79fe73	-0.24413471
103	0xbe66f382	-0.22553828
104	0x3eb8561f	0.36003205
105	0xbeb82a19	-0.35969618
106	0x3c95352c	0.01821383
107	0xbe384df8	-0.17998493
108	0x3d0d6925	0.0345241
109	0x3e41fc21	0.18943836
110	0xbdf2eef9	-0.11861987
111	0x3e142e80	0.14470863
112	0xbeafc8ed	-0.34332982
113	0x3da295eb	0.07938751
114	0xbe371796	-0.17880091
115	0xbd0675e8	-0.032827288
116	0x3e6b9946	0.23007688
117	0xbe3ff45e	-0.18745562
118	0x3e00c8be	0.12576577
119	0xbcd57ecf	-0.026061444
120	0xbecc4308	-0.3989489
121	0x3e87f969	0.26557472
122	0xbed02a17	-0.40657112
123	0x3ed22b6f	0.41048762
124	0x3e2a7662	0.16646722
125	0xbcf1578d	-0.029460693
126	0x3e593f94	0.2121566
127	0xbead7a94	-0.33882582
128	0x3e175fc3	0.14782624
129	0xbea01f05	-0.31273666
130	0xbcf1baa0	-0.029507935
131	0x3d30fc04	0.04320909
132	0x3e1cf8c2	0.15329269
133	0x3e6f0d0b	0.23344819
134	0x3e35fc64	0.1777206
135	0x3edadfd6	0.42748898
136	0x3d940076	0.072266504
137	0x3dc63a1a	0.09679051
138	0x3ebbf15c	0.3670758
139	0x3eb89c31	0.36056665
140	0x3e6d2e3f	0.23162173
141	0x3d3662d1	0.044527832
142	0x3eb12621	0.34599403
143	0x3d87bebd	0.06628177
144	0xbee11abb	-0.43965706
145	0x3dd6803f	0.1047368
146	0xbe0e174e	-0.13876078
147	0x3c6eaaa0	0.014567047
148	0xbe80f75c	-0.2518872
149	0xbea3244f	-0.3186364
150	0x3e211ff2	0.15734842
151	0xbeb5d5bf	-0.35514638
152	0xbeabb69d	-0.3353776
153	0x3e875266	0.26430053
154	0x3e1b3173	0.15155582
155	0x3ea3d24e	0.31996387
156	0xbe16bf74	-0.14721471
157	0xbd1fa01b	-0.038971048
158	0x3e2fdd28	0.17174208
159	0xbe7a910a	-0.2446939
160	0xbea01503	-0.3126603
161	0x3c8b5cc1	0.017012002
162	0x3dd26902	0.10273935
163	0xbe7ae21d	-0.24500318
164	0xbedc2ee4	-0.43004525
165	0xbe0e8569	-0.1391808
166	0xbbeddd1f	-0.0072590257
167	0xbe3f8085	-0.1870137
168	0xbecc8280	-0.39943314
169	0x3d84c41b	0.06482717
170	0x3c7d7be9	0.015471437
171	0x3eb47d16	0.35251683
172	0x3ecfa4ce	0.40555423
173	0xbde95f79	-0.11395163
174	0xbdf14630	-0.11780965
175	0x3e90c250	0.2827325
176	0xbdf486bb	-0.1193976
177	0xbe572469	-0.21009983
178	0xbe8197c6	-0.25311106
179	0xbe9515e0	-0.29118252
180	0x3df0ed5e	0.11764024
181	0xbeb54a1d	-0.35408106
182	0xbda392a3	-0.07986953
183	0x3e5beebb	0.21477787
184	0x3e5910d2	0.21197823
185	0xbd8e7098	-0.06955069
186	0x3edb8b65	0.42879787
187	0x3e463e88	0.19359791
188	0x3e1d80f0	0.15381217
189	0xbe9dfb79	-0.3085592
190	0xbd3b6425	-0.045749802
191	0x3e2845a7	0.1643282
192	0x3ebad831	0.36493066
193	0x3ea72cfb	0.32651505
194	0x3e2c507f	0.16827582
195	0xbe50f26d	-0.20404978
196	0xbeb4e587	-0.35331365
197	0x3d3359e3	0.043786895
198	0x3e902a09	0.2815707
199	0x3e9089eb	0.28230223
200	0x3d54be05	0.05193903
201	0xbd883748	-0.06651169
202	0x3e8f012a	0.27930576
203	0xbed4dc0d	-0.41574135
204	0xbd9501bc	-0.072757214
205	0xbeb477e9	-0.35247734
206	0xbd375d97	-0.04476699
207	0xbeaf726c	-0.34266984
208	0xbc6c6f06	-0.014430767
209	0xbe7ce8fe	-0.24698254
210	0xbe811383	-0.252102
211	0x3e7418ca	0.23837581
212	0xbb993d49	-0.004676495
213	0x3e01c891	0.12674166
214	0xbd9535b9	-0.072856374
215	0x3e42f09a	0.19037095
216	0xbe63ccc3	-0.22246079
217	0xbe035250	-0.12824368
218	0x3ec0d2e7	0.37660906
219	0xbe310cbe	-0.17290017
220	0xbdbf1525	-0.09330205
221	0x3d13d819	0.03609476
222	0x3e8d77df	0.27630517
223	0x3e631bf2	0.22178629
224	0xbec765e7	-0.38944933
225	0x3ecef84f	0.4042382
226	0x3e97f59c	0.29679573
227	0xbeac5aa2	-0.33662897
228	0xbe3ab2ad	-0.18232222
229	0x3e854698	0.2603042
230	0x3e2adc09	0.16685499
231	0xbe0ce82f	-0.13760446
232	0x3e9a49c9	0.3013442
233	0xbe740366	-0.23829421
234	0xbd2eb86f	-0.04265636
235	0xbed4a016	-0.41528386
236	0xbe1887bf	-0.14895533
237	0xbe821064	-0.2540313
238	0xbe92bc77	-0.28659412
239	0xbe85d34d	-0.26137772
240	0xbd349d69	-0.04409543
241	0x3e5bbd25	0.21458872
242	0x3d28f5fc	0.041250214
243	0x3ea8142b	0.32827887
244	0x3eb0e9e0	0.34553432
245	0x3ec228b8	0.3792169
246	0xbea86d88	-0.32896066
247	0x3e9ec2e6	0.3100807
248	0xbc88be78	-0.016692385
249	0x3ec43068	0.3831818
250	0xbea43c7b	-0.32077393
251	0x3c9206e1	0.017825546
252	0xbe4e3436	-0.20137104
253	0x3e978490	0.29593325
254	0xbed308a8	-0.41217542
255	0xbea28abf	-0.3174648

gconv.1.lins.1.weight f4 [16, 16]
0	0xbe69fadb	-0.228496
1	0x3eb80ae7	0.35945818
2	0xbec3da9b	-0.3825272
3	0xbe6b073d	-0.2295198
4	0xbeb33c48	-0.35006928
5	0x3ec4a032	0.3840347
6	0xbe04b3db	-0.12959234
7	0x3e5bbfbe	0.21459863
8	0xbe9ca422	-0.30593973
9	0xbe89be32	-0.2690292
10	0x3ed28b78	0.4112203
11	0x3e4a56b7	0.19759642
12	0xbdf86836	-0.12129252
13	0x3b7ab479	0.0038254543
14	0xbdf5a860	-0.119950056
15	0xbe96e43e	-0.2947101
16	0xbe32fd68	-0.1747948
17	0x3d8868e0	0.06660628
18	0x3dde6eef	0.10861003
19	0x3e75cdf7	0.2400435
20	0xbeb63301	-0.35585788
21	0x3d85fd89	0.065424986
22	0xbe955270	-0.29164457
23	0xba94eb2f	-0.0011361594
24	0xbd919438	-0.071083486
25	0x3d45974c	0.04823999
26	0xbd5a8b8f	-0.05335575
27	0x3e6986ee	0.22805378
28	0x3ea04a1c	0.3130654
29	0x3ed9ea7c	0.4256171
30	0xbe719a4d	-0.23594017
31	0x3c1873e3	0.009304973
32	0xbecc78e4	-0.39935982
33	0xbe954971	-0.29157594
34	0x3e28ea1e	0.16495559
35	0xbd0cb9f5	-0.03435703
36	0x3e0fbb4d	0.14036293
37	0x3e7b6320	0.24549532
38	0x3d2ea6a2	0.042639382
39	0xbeb4cbb8	-0.35311675
40	0xbe7aa037	-0.2447518
41	0xbecdeb22	-0.40218455
42	0xbe5e5c77	-0.2171496
43	0x3de67410	0.11252606
44	0x3c89cb5e	0.016820606
45	0x3e4d3a00	0.20041656
46	0xbe0e6bc0	-0.13908291
47	0x3e0b49f6	0.13602433
48	0x3ed6eae2	0.41976076
49	0xbd24a239	-0.04019377
50	0xbe92fd82	-0.28709036
51	0x3d8d4f12	0.06899847
52	0xbe39a57b	-0.18129532
53	0xbbbc6269	-0.005749036
54	0x3d09e0d0	0.033661664
55	0xbe8189d1	-0.25300458
56	0xbd822206	-0.06354146
57	0xbe352959	-0.17691554
58	0xbe6b06b4	-0.22951776
59	0x3ec276d0	0.37981272
60	0xbe92261b	-0.28544697
61	0xbdab6e26	-0.083706185
62	0xbecf54f8	-0.40494514
63	0xbeda81eb	-0.42677245
64	0x3e7efb1f	0.24900483
65	0x3e98569f	0.29753587
66	0x3cf75c7d	0.030195469
67	0xbe9b9d00	-0.3039322
68	0x3e4e0a96	0.20121226
69	0x3e9f8ca9	0.31162003
70	0x3ec95cf2	0.39328724
71	0xbe555fd3	-0.20837335
72	0x3e22016f	0.1582086
73	0xbeb3121b	-0.3497475
74	0xbdde47ef	-0.10853564
75	0xbd0f6d34	-0.035016254
76	0xbe5a2122	-0.21301702
77	0x3ecc6b1e	0.39925474
78	0xbdaad8ab	-0.083421074
79	0x3ea04dc8	0.31309342
80	0x3eb01c08	0.34396386
81	0xbebb8f56	-0.36632794
82	0x3c95bd8f	0.018278865
83	0xbdfe9dd9	-0.12432451
84	0xbe4c383f	-0.19943331
85	0x3d5a9956	0.05336889
86	0xbde71069	-0.11282427
87	0xbec166bd	-0.37773696
88	0xbe9818ef	-0.29706523
89	0xbe4be13a	-0.19910136
90	0xbea9d11e	-0.33167356
91	0xbe870388	-0.26369882
92	0xbd2c7349	-0.042102132
93	0x3e202d90	0.1564238
94	0x3e606e92	0.21917179
95	0xbe82459d	-0.25443736
96	0xbecb1fac	-0.396726
97	0x3e818217	0.25294563
98	0x3da57f46	0.08080916
99	0x3e9343aa	0.2876256
100	0x3e26d811	0.1629336
101	0x3e6e3a3c	0.23264402
102	0x3d6bf721	0.057608727
103	0x3de865a0	0.113475084
104	0xbcfdc85f	-0.030979333
105	0x3ecaec3e	0.39633363
106	0x3e0c1fdb	0.13684027
107	0x3d090ede	0.033461444
108	0x3d5cc371	0.053897325
109	0xbde7bd39	-0.11315388
110	0xbec1feb3	-0.37889633
111	0x3e2841d9	0.16431369
112	0x3e509f30	0.20373225
113	0xbe6db42a	-0.23213258
114	0x3d2b61cb	0.04184131
115	0x3dfc961a	0.12333317
116	0xbe9504b8	-0.29105163
117	0xbeb01f27	-0.34398767
118	0xbe8c4fad	-0.27404538
119	0xbe7e0432	-0.24806288
120	0xbebbdb5b	-0.36690792
121	0x3eba55a3	0.3639346
122	0xbc0af252	-0.008480625
123	0x3ea788c4	0.3272153
124	0x3de97107	0.113985114
125	0xbe211589	-0.15730871
126	0x3ea09fac	0.3137182
127	0xbebb2f5c	-0.3655957
128	0x3ececfac	0.40392816
129	0xbeb54cb0	-0.3541007
130	0x3cf69f28	0.030105188
131	0xbe7cec28	-0.24699461
132	0x3eaa0561	0.3320723
133	0xbe90ad2c	-0.2825712
134	0x3e8225ca	0.25419456
135	0x3ea93404	0.33047497
136	0x3ebf0945	0.3731176
137	0xbebc3994	-0.3676268
138	0xbe5b33e5	-0.21406515
139	0xbebae969	-0.36506203
140	0x3e3e19e9	0.18564571
141	0x3e9d4f4c	0.3072456
142	0xbd2c9036	-0.042129718
143	0x3e618568	0.22023547
144	0xbe1085d0	-0.14113545
145	0xbe980409	-0.2969058
146	0x3d0d2d0c	0.03446679
147	0xbe8bffd3	-0.27343616
148	0xbe8fc867	-0.28082582
149	0xbec4e6a8	-0.38457227
150	0x3e6f750e	0.23384497
151	0x3de6ff82	0.11279203
152	0xbea4b160	-0.32166576
153	0x3d58c797	0.05292472
154	0xbe860f8f	-0.26183745
155	0xbe4e9506	-0.20174035
156	0xbded66bd	-0.115918614
157	0x3e17f38a	0.14838997
158	0xbe563c28	-0.20921385
159	0xbecd1922	-0.40058237
160	0xbe8c95ca	-0.2745803
161	0x3e59657c	0.2123012
162	0x3e647671	0.22310807
163	0xbec49fa6	-0.38403052
164	0x3e978613	0.29594478
165	0x3ea6a143	0.32544908
166	0xbeacedcc	-0.33775175
167	0x3e33a478	0.17543209
168	0xbebd1ac6	-0.3693449
169	0xbd1b4a22	-0.037912495
170	0x3e19ecf7	0.15031801
171	0x3e529bd6	0.20567259
172	0xbe971161	-0.29505447
173	0x3d0ee864	0.034889594
174	0xbcd9d458	-0.026590511
175	0x3e001ed4	0.1251176
176	0xbedbffcf	-0.42968604
177	0xbe6eaae1	-0.23307373
178	0xbbf63a47	-0.0075142714
179	0xbeaf6d4c	-0.34263074
180	0x3d1e2bff	0.038616177
181	0x3e9af78e	0.30266994
182	0xbdf47efb	-0.11938282
183	0x3e2f8d08	0.17143643
184	0x3ec7d097	0.3902633
185	0xbec0ff8e	-0.37694973
186	0x3e346877	0.17617975
187	0x3ec605f0	0.38676405
188	0x3e3f7f5f	0.18700932
189	0xbcf273c1	-0.029596211
190	0xbd95fb84	-0.073233634
191	0x3dce4f3c	0.100737065
192	0x3ebe5404	0.37173474
193	0x3e1ecd89	0.15508093
194	0xbe1102bb	-0.14161198
195	0xbdc29b7f	-0.09502315
196	0xbeafa14a	-0.3430274
197	0xbe87b3a6	-0.26504248
198	0x3de96f63	0.113981985
199	0xbe853954	-0.260203
200	0x3e1336f4	0.14376432
201	0x3e35e8ad	0.1776454
202	0x3e96ef1b	0.29479298
203	0xbe54cd76	-0.20781502
204	0xbe58086f	-0.21096967
205	0x3eb6011d	0.35547724
206	0x3ec6c466	0.38821715
207	0xbec4abd4	-0.38412344
208	0xbd925692	-0.07145418
209	0x3eb806c7	0.3594267
210	0xbc137347	-0.008999652
211	0xbd212f8b	-0.03935198
212	0xbea7965a	-0.32731897
213	0x3ec11ab5	0.37715688
214	0xbead9f42	-0.33910567
215	0x3e9b97b0	0.30389166
216	0xbe3b918e	-0.18317243
217	0x3ec24796	0.3794524
218	0xbe00f44a	-0.12593189
219	0x3ea954f9	0.33072641
220	0x3debefb0	0.11520326
221	0xbc1b9bd6	-0.009497603
222	0x3ecc6a02	0.39924628
223	0x3dadbf9d	0.08483813
224	0x3e7fff67	0.24999772
225	0x3e86fee8	0.26366353
226	0x3c62594c	0.013815235
227	0x3d68a0f0	0.056794107
228	0xbe802a49	-0.2503226
229	0x3ca440ee	0.020050492
230	0xbeb93872	-0.36175877
231	0xbe87adef	-0.26499888
232	0xbec5a70f	-0.38604018
233	0x3e82f2a2	0.2557574
234	0x3ea26452	0.31717163
235	0x3cf2597c	0.029583685
236	0xbea1957f	-0.3155937
237	0xbce934cd	-0.02846756
238	0xbe41f358	-0.18940485
239	0xbe4109a8	-0.1885134
240	0x3e534aaf	0.20633958
241	0xbe9f8f2e	-0.31163925
242	0xbe44608d	-0.19177456
243	0x3e77dbdf	0.24204968
244	0xbdbcb89c	-0.09214899
245	0xbea0307b	-0.31286988
246	0x3ed25e2e	0.41087478
247	0x3e215c19	0.15757789
248	0xbd068c8d	-0.032848883
249	0x3ebb5ace	0.36592716
250	0xbb5382f2	-0.0032274094
251	0xbe90284a	-0.28155738
252	0x3ea54514	0.32279265
253	0x3ebd2f0f	0.36949965
254	0x3dc89e4b	0.09795817
255	0x3e9fe623	0.31230268

gconv.1.lins.2.weight f4 [16, 16]
0	0x3ec32a7f	0.3811836
1	0xbe3a8599	-0.18215026
2	0xbe17fd3b	-0.14842694
3	0x3e9d06a2	0.30669123
4	0x3d926abd	0.07149265
5	0x3ebc0029	0.36718872
6	0x3da5edc2	0.08101989
7	0x3dad7b00	0.08470726
8	0x3d78fe1a	0.060789205
9	0xbe188946	-0.14896116
10	0xbe8ab81a	-0.27093583
11	0x3c869c64	0.016431995
12	0xbead4643	-0.33842668
13	0xbed4eb7b	-0.41585907
14	0xbd3db35d	-0.046313632
15	0x3e4ff0c4	0.20306689
16	0x3d15f615	0.036611635
17	0x3cd89115	0.026436368
18	0x3d9e6074	0.07733241
19	0x3e87c917	0.26520607
20	0xbec524c7	-0.3850462
21	0xbe68a9c9	-0.22721018
22	0xbedf3962	-0.43598467
23	0x3bced5c5	0.0063121044
24	0x3e617b7c	0.22019762
25	0x3ec0fe75	0.37694135
26	0xbe463043	-0.19354348
27	0xbe719281	-0.23591043
28	0xbed2eac7	-0.41194746
29	0xbd51ce24	-0.05122198
30	0xbe8ab3c8	-0.27090287
31	0x3ea09e48	0.3137076
32	0x3d60363f	0.054739233
33	0xbe903f98	-0.28173518
34	0xbe9bcaaf	-0.30428073
35	0xbea3d010	-0.31994677
36	0xbda395a5	-0.07987527
37	0xbec88980	-0.39167404
38	0xbdb17d0e	-0.086664304
39	0xbc5c5e7c	-0.013450261
40	0xbeaa7fc9	-0.33300617
41	0xbdeff7e1	-0.11717201
42	0x3cd6d8a8	0.026226357
43	0xbec2f828	-0.38079953
44	0xbe206f10	-0.15667367
45	0x3e25ff09	0.1621057
46	0x3ed1900d	0.40930215
47	0x3d10f55d	0.035390247
48	0xbeb3c90f	-0.35114333
49	0xbd041db7	-0.0322549
50	0xbe4378dd	-0.19089074
51	0xbddcbf33	-0.10778656
52	0x3ebf2965	0.3733627
53	0xbe089b29	-0.13340439
54	0x3e069a56	0.13144812
55	0xbe43f76e	-0.19137356
56	0xbe3969af	-0.18106721
57	0xbea24198	-0.3169067
58	0x3ecf1311	0.40444234
59	0x3e9323f7	0.28738376
60	0x3e9247bb	0.2857035
61	0x3dcc27ad	0.09968505
62	0x3cff727d	0.031182522
63	0x3e4335fd	0.19063564
64	0x3e8d2a28	0.27571225
65	0xbe146f37	-0.1449555
66	0xbeb4abc9	-0.35287312
67	0x3e675ea9	0.22594704
68	0xbe2162b7	-0.15760313
69	0xbe8f5d64	-0.2800094
70	0xbdd81a7b	-0.10551926
71	0x3e9580b3	0.29199752
72	0x3ea47d74	0.32126963
73	0x3dc47402	0.09592439
74	0xbe76e3dc	-0.24110359
75	0x3eb8ac07	0.36068746
76	0xbdb05802	-0.08610536
77	0x3eba338c	0.36367452
78	0x3c19a1d1	0.009376959
79	0xbe208a41	-0.1567774
80	0xbec8d3d6	-0.39224118
81	0xbd448c65	-0.047985453
82	0xbe7ec339	-0.24879159
83	0x3eb12a0a	0.34602386
84	0xbcb9773c	-0.022639863
85	0xbc2af429	-0.010434189
86	0x3e907108	0.28211236
87	0x3e5c719d	0.21527715
88	0x3dc0e7f3	0.09419241
89	0xbea3f6a3	-0.32024106
90	0xbea3a73b	-0.31963524
91	0x3ecc656e	0.39921135
92	0xbed05619	-0.40690687
93	0xbbed91cd	-0.007250047
94	0xbe8044cb	-0.25052485
95	0x3e9b0007	0.30273458
96	0xbe726fbb	-0.23675434
97	0xbd00bb92	-0.03142888
98	0x3e7fc8d2	0.2497895
99	0xbc105420	-0.008809119
100	0x3e9f5f56	0.31127423
101	0x3e62cf85	0.22149475
102	0x3eb9cef7	0.36290714
103	0xbe2b96c9	-0.16756739
104	0x3d5e7f43	0.054320585
105	0xbe7432f4	-0.23847562
106	0xbe9cca1c	-0.30622947
107	0xbd2f61dd	-0.04281794
108	0x3dc78b3a	0.09743352
109	0x3c07ea9d	0.008295682
110	0xbe614516	-0.2199901
111	0x3ebebac2	0.3725186
112	0xbe8a0ca9	-0.26962784
113	0x3e8a4a76	0.27009934
114	0x3da981ca	0.082767084
115	0x3d55c6e1	0.05219162
116	0x3e01d76c	0.12679833
117	0x3d5fead1	0.054667298
118	0xbed2cc02	-0.4117127
119	0x3ecbe56c	0.39823472
120	0xbe93e4cd	-0.288855
121	0xbd5321d2	-0.051545925
122	0x3d9108a9	0.0708173
123	0x3ca65898	0.020305917
124	0xbe03644b	-0.12831227
125	0x3df94766	0.12171821
126	0xbdf816af	-0.121137016
127	0xbb187bf3	-0.002326724
128	0x3ec78383	0.38967523
129	0x3db21899	0.08696098
130	0x3e3a4dd8	0.18193758
131	0xbdcb1f2b	-0.09918054
132	0xbd8816c8	-0.0664497
133	0xbd0bb198	-0.034104913
134	0x3e803166	0.25037688
135	0x3ddb85c8	0.10718876
136	0xbc80cd40	-0.01572287
137	0xbde652d5	-0.11246268
138	0xbe0fea3a	-0.14054194
139	0x3eaf7a5e	0.34273046
140	0xbe17577d	-0.14779468
141	0x3e632f37	0.2218598
142	0x3d247286	0.04014828
143	0x3ed5f7b6	0.4179055
144	0xbeb7944e	-0.35855335
145	0xbed067e3	-0.4070426
146	0xbd637e0e	-0.055540137
147	0xbd4d179c	-0.050071344
148	0xbded49fc	-0.11586377
149	0x3e9c6679	0.3054693
150	0xbed4fa35	-0.41597143
151	0xbe5a54f9	-0.21321477
152	0xbdabbcc0	-0.083856106
153	0xbe84963e	-0.25895876
154	0xbdd3ad4b	-0.103357874
155	0xbe8b2d92	-0.27183205
156	0x3d8963d8	0.06708497
157	0x3e9c7cbd	0.30563918
158	0x3eca3737	0.3949525
159	0xbe6f3cc1	-0.2336302
160	0xbed30702	-0.41216284
161	0xbdb9f44f	-0.09079801
162	0x3e05e873	0.13076954
163	0x3e4f78a7	0.20260869
164	0xbe147af5	-0.1450003
165	0xbe2e369a	-0.17013016
166	0x3e6dc3c0	0.23219204
167	0xbde3261f	-0.110912554
168	0x3dad3302	0.084569946
169	0x3e8ac208	0.2710116
170	0xbe9bda76	-0.3044011
171	0x3ec56ec3	0.38561067
172	0xbbda18d2	-0.006655791
173	0xbed418b7	-0.41425106
174	0x3edece62	0.43516833
175	0x3cd379bb	0.025814882
176	0xbedb83c5	-0.4287397
177	0xbe0d181a	-0.13778725
178	0x3ea6973b	0.32537255
179	0x3ed868cf	0.42267463
180	0xbeb89856	-0.36053723
181	0x3e0f3159	0.13983668
182	0xbecde8cc	-0.40216672
183	0x3d9b1bca	0.0757366
184	0x3dec16ac	0.11527762
185	0x3dce37b2	0.10069217
186	0xbc9acbb1	-0.018895956
187	0xbe9c5c4e	-0.30539173
188	0x3e6d2cad	0.23161574
189	0x3eab3b0d	0.3344349
190	0xbe6a8a4d	-0.2290432
191	0x3ed29dc8	0.41136003
192	0x3e75f198	0.24017942
193	0x3e8da06b	0.27661452
194	0x3e87b10a	0.26502258
195	0x3ddf8ab1	0.10915125
196	0xbe994220	-0.29933262
197	0xbe4e90f1	-0.20172478
198	0x3e1ccf5b	0.15313475
199	0x3ea6ec64	0.32602227
200	0xbe42a76e	-0.19009182
201	0x3e1f7197	0.15570675
202	0x3e3b609a	0.1829857
203	0xbe2330d4	-0.15936595
204	0x3e6bd291	0.23029543
205	0x3ecf03f3	0.404327
206	0x3c586e77	0.013209931
207	0x3e104242	0.14087775
208	0xbe8dd0ca	-0.27698356
209	0x3d9b1233	0.075718306
210	0xbd9f721d	-0.07785437
211	0xbd3fecfb	-0.04685686
212	0xbe914c1c	-0.2837838
213	0xbe1d328d	-0.15351315
214	0x3e38b606	0.18038186
215	0xbde8c7cc	-0.11366233
216	0xbe757b2e	-0.2397277
217	0x3e4b916e	0.19879696
218	0xbd88d218	-0.06680697
219	0x3db452d7	0.08804863
220	0xbea753f9	-0.32681254
221	0xbe85b295	-0.2611281
222	0x3e4267db	0.1898493
223	0x3e5e8910	0.21731973
224	0x3e94fdde	0.29099935
225	0xbe750d65	-0.23930891
226	0x3e0452e1	0.12922241
227	0x3e080eac	0.13286847
228	0xbe8caf5b	-0.27477536
229	0x3db5595a	0.08854933
230	0x3e253185	0.16132171
231	0x3d8679f0	0.065662265
232	0x3dcbd46c	0.09952626
233	0xbe025b75	-0.127302
234	0xbe9af980	-0.30268478
235	0x3daf3a85	0.085560836
236	0x3eaf0ca5	0.34189335
237	0x3eb61a30	0.35566854
238	0xbca53a7e	-0.020169493
239	0x3e705079	0.23468198
240	0xbe3b9da9	-0.18321861
241	0x3eb8ce86	0.36095065
242	0xbcafcc90	-0.021459848
243	0x3e013dec	0.12621278
244	0xbe19a91b	-0.15005915
245	0xbeb6083c	-0.35553157
246	0xbcd00deb	-0.025397262
247	0x3dc4298f	0.09578239
248	0xbdf994cc	-0.12186584
249	0xbed2176c	-0.41033494
250	0x3e8aa96e	0.2708239
251	0xbe4d5ccb	-0.20054929
252	0xbd3dceb0	-0.04633969
253	0x3ea2fb5d	0.318324
254	0x3e31feec	0.17382401
255	0x3ecc348a	0.39883834

gconv.2.lins.0.weight f4 [16, 16]
0	0x3e4a5be6	0.19761619
1	0x3e268d1e	0.1626477
2	0xbe442e0f	-0.19158195
3	0x3e517e94	0.20458442
4	0x3d804915	0.06263939
5	0xbeadd2f8	-0.3395002
6	0x3df74e21	0.12075449
7	0x3d5910f3	0.05299468
8	0xbd97e648	-0.074169695
9	0x3ec268be	0.37970537
10	0xbe084e69	-0.13311161
11	0xbec254c7	-0.37955305
12	0xbddefed2	-0.10888447
13	0x3ea22b18	0.31673503
14	0x3cb5a591	0.022173675
15	0x3e93a871	0.28839448
16	0xbe8a6b6b	-0.27035078
17	0x3d605eae	0.054777794
18	0xbe83ab59	-0.25716665
19	0x3dd159f3	0.102222346
20	0xbe1b0388	-0.15138066
21	0x3e77c716	0.24197039
22	0xbdef7ddf	-0.1169393
23	0x3ccc22d1	0.024918946
24	0x3e24a185	0.1607724
25	0xbebc423e	-0.3676929
26	0xbe82176b	-0.25408491
27	0x3e9fe414	0.31228697
28	0x3ebc1566	0.36735076
29	0x3e9a85da	0.30180246
30	0x3ea89011	0.32922414
31	0x3e5a2520	0.21303225
32	0xbe7efee9	-0.24901928
33	0x3edd8892	0.43268257
34	0x3ecc1590	0.398602
35	0x3e9bfd8f	0.30466887
36	0xbe37aa62	-0.1793609
37	0x3ee50462	0.44729906
38	0xbed4b618	-0.41545177
39	0x3ea61758	0.32439685
40	0xbe4c9f3c	-0.19982618
41	0xbe43f6e3	-0.19137149
42	0xbdcad9cd	-0.099048235
43	0x3e2baedf	0.16765927
44	0x3eb03240	0.34413338
45	0xbeab5f43	-0.33471116
46	0xbe3c3c85	-0.18382461
47	0x3e0acac3	0.1355391
48	0x3d876c02	0.06612398
49	0x3ea57751	0.32317594
50	0xbe985a6c	-0.29756486
51	0xbc9d8726	-0.019229483
52	0xbdb84b07	-0.08998685
53	0x3d593ec3	0.05303837
54	0x3e964a5d	0.2935361
55	0xbe808f60	-0.25109386
56	0x3e71c5bc	0.23610586
57	0xbebdbb70	-0.37057066
58	0x3e0d0685	0.13772018
59	0xbe9aebbd	-0.3025798
60	0xbe5651be	-0.2092962
61	0xbc291194	-0.010319132
62	0xbe9f822b	-0.31153998
63	0xbe3dd31d	-0.18537565
64	0x3d87c097	0.066285305
65	0x3e72b8c4	0.23703295
66	0x3e8b6a26	0.27229422
67	0x3ebfc54e	0.3745522
68	0x3e25baed	0.16184588
69	0xbbf5bf05	-0.007499578
70	0x3e986842	0.29767042
71	0xbe090d2a	-0.13383928
72	0xbe73f01e	-0.23822066
73	0x3c925737	0.017863853
74	0x3ebbc6f1	0.36675218
75	0x3e16b68c	0.14718074
76	0xbed7514d	-0.42054215
77	0xbe4faec6	-0.20281515
78	0x3e63733a	0.22211924
79	0xbc65bf57	-0.01402267
80	0xbeb0a0f9	-0.34497812
81	0xbe8c5a1e	-0.27412504
82	0x3ebdb4c0	0.37051964
83	0x3dab3f9a	0.083617404
84	0xbed3e65b	-0.41386685
85	0x3ea9648e	0.3308453
86	0x3eac1566	0.33610076
87	0xbd73779d	-0.059440244
88	0x3e5fa034	0.21838456
89	0xbe0669fe	-0.1312637
90	0x3d682746	0.05667808
91	0xbc4b6145	-0.012413328
92	0x3ce3c9b4	0.02780614
93	0xbec09f26	-0.3762142
94	0x3d4f5df3	0.050626706
95	0x3ca1ec17	0.019765897
96	0x3eb35337	0.35024425
97	0xbce1047a	-0.027467955
98	0x3e555f82	0.20837215
99	0x3ea9fef7	0.33202335
100	0xbde1b818	-0.11021441
101	0xbecde1ed	-0.4021143
102	0xbecb11df	-0.39662072
103	0xbe2d8f4b	-0.16949193
104	0x3eb73922	0.35785776
105	0xbed095a2	-0.4073916
106	0xbd92a1f8	-0.07159799
107	0xbe45752b	-0.19282977
108	0x3d9eaf12	0.07748236
109	0x3e4f5a11	0.20249201
110	0xbe8be139	-0.2732027
111	0xbebf041a	-0.37307817
112	0xbe34958f	-0.17635177
113	0xbeb9f8e2	-0.36322695
114	0xbe8538b0	-0.26019812
115	0x3d841dc9	0.064509936
116	0x3d9f3938	0.077745855
117	0xbd8817f6	-0.06645195
118	0xbde8f27b	-0.113743745
119	0xbed9bd17	-0.42527077
120	0x3e934edc	0.28771102
121	0x3db4e6b3	0.08833065
122	0xbeb46ee8	-0.35240865
123	0x3e14e8fd	0.14542003
124	0xbe5b4b95	-0.21415551
125	0x3eac531c	0.33657157
126	0xbe7488d6	-0.23880324
127	0x3d4bee5c	0.049787864
128	0x3e47ba72	0.19504717
129	0x3d556bf1	0.052104894
130	0x3eae9fd3	0.3410631
131	0xbeab9ced	-0.33518162
132	0xbccecb1a	-0.02524333
133	0x3e1e8a8a	0.15482536
134	0xbeb57c88	-0.35446572
135	0x3c791ee6	0.015205121
136	0x3bd18352	0.0063938284
137	0xbd748e5f	-0.05970609
138	0x3dc3b02f	0.09555089
139	0x3e9f9b72	0.31173283
140	0xbea3100c	-0.3184818
141	0x3e9a9277	0.3018987
142	0xbe289df6	-0.16466507
143	0xbe304af4	-0.17216092
144	0xbe5269f1	-0.20548226
145	0x3e04d6d2	0.12972572
146	0xbddd3319	-0.10800762
147	0x3ee0e898	0.43927455
148	0x3d900571	0.07032288
149	0xbe2f96da	-0.17147389
150	0x3c9fc121	0.01950127
151	0xbd8fdba7	-0.07024317
152	0x3e7c752d	0.24654074
153	0x3e83d004	0.2574464
154	0x3ece8cad	0.40341702
155	0x3dfd334b	0.12363299
156	0x3e064962	0.13113931
157	0xbe3c31ae	-0.18378326
158	0x3ec2c322	0.380395
159	0xbcc244c0	-0.023714423
160	0x3e4235a6	0.18965778
161	0xbea68898	-0.32526088
162	0xbe52b88d	-0.20578213
163	0x3e8e604f	0.27807853
164	0x3eb7e64e	0.35917896
165	0x3ec73817	0.3890998
166	0xbe5c298d	-0.21500225
167	0xbd598704	-0.053107277
168	0x3ecfdcab	0.40598044
169	0x3e465d35	0.19371493
170	0xbe99b3b0	-0.30019903
171	0xbe8b84d7	-0.27249786
172	0xbe9699be	-0.2941417
173	0x3ea4aaba	0.32161504
174	0x3d4ae05b	0.04953037
175	0xbb38d845	-0.0028205079
176	0x3dc5b0c8	0.09652859
177	0x3d380545	0.0449269
178	0x3ec44609	0.38334683
179	0x3e169bff	0.14707945
180	0xbe8cc334	-0.27492678
181	0x3ec6d371	0.38833192
182	0x3e6499ac	0.22324246
183	0x3e896e52	0.2684198
184	0xbcab8c28	-0.020940855
185	0x3d032652	0.032018967
186	0x3e710fee	0.23541233
187	0x3ed898f9	0.4230421
188	0x3e4f69bb	0.20255177
189	0x3edfc3aa	0.43703967
190	0x3eb8812e	0.36036056
191	0x3edae2c0	0.42751122
192	0xbe02d2f5	-0.12775786
193	0x3e130545	0.14357479
194	0x3cf43a98	0.029813096
195	0x3e6563b7	0.2240132
196	0x3e847c70	0.25876188
197	0x3e4b669f	0.19863366
198	0xbe2105cf	-0.15724872
199	0x3edd5f89	0.4323695
200	0xbd0b5592	-0.034017153
201	0xbe603c43	-0.21897988
202	0x3d92b211	0.0716287
203	0xbed06102	-0.4069901
204	0x3e66120f	0.22467826
205	0x3dfe2918	0.12410182
206	0x3dbe5ab0	0.09294641
207	0x3ecf1578	0.40446067
208	0x3e34129a	0.17585221
209	0xbe841201	-0.25794986
210	0x3e8bb915	0.27289644
211	0x3e8ee459	0.2790859
212	0xbe84c39a	-0.25930482
213	0xbe4d0446	-0.20021161
214	0xbed65c96	-0.41867512
215	0x3d059163	0.032609355
216	0xbe33f6b6	-0.17574582
217	0x3dac2839	0.08406109
218	0xbe2a45ee	-0.16628239
219	0xbddb1825	-0.106979646
220	0xbea65dfe	-0.32493585
221	0x3e9557d6	0.29168576
222	0x3eadaeed	0.3392252
223	0xbe19ba90	-0.15012574
224	0xbdefe13a	-0.117128804
225	0x3eb06df0	0.34458876
226	0x3ea7bcc6	0.3276121
227	0xbe9c2a2d	-0.30500928
228	0x3e3f4812	0.18679836
229	0xbdba12b9	-0.09085602
230	0xbebe6b1c	-0.37191093
231	0x3eacb539	0.33732012
232	0x3e97e332	0.29665524
233	0xbe538e76	-0.20659813
234	0x3ec7604f	0.38940665
235	0xbba23872	-0.0049505765
236	0xbe7b1562	-0.24519876
237	0xbe2e96d1	-0.1704972
238	0xbed0755c	-0.40714538
239	0x3ea9ae14	0.33140624
240	0x3d92e197	0.07171934
241	0x3dfa8ed8	0.122342765
242	0x3e3fe0cc	0.18738097
243	0x3e0cd35e	0.13752505
244	0x3ed27494	0.41104567
245	0xbd95b86e	-0.07310568
246	0x3ded58c7	0.115891986
247	0xbea34863	-0.31891164
248	0x3e3fbcdb	0.18724386
249	0xbdd6cdb8	-0.104884565
250	0x3ccc6eb8	0.024955139
251	0xbece9281	-0.4034615
252	0x3e08f18e	0.13373396
253	0xbd5bd270	-0.053667486
254	0xbee1534f	-0.44008872
255	0x3e8efdc1	0.27927974
