pth/fold7.pth (torch, 639596 bytes, 46 tensors)

gconv.0.lins.0.weight f4 [16, 2000]
0.020124862 0.04007252 0.043443467 0.010756869 -0.017220944 -0.02072648 -0.015197935 0.008878501
0.049851958 0.043037884 0.06004937 0.046735972 0.047906756 0.04073769 -0.0016214487 0.02952206
0.027137816 -0.016269065 0.006618942 -0.025114175 0.0068159737 -0.016235594 -0.011426385 0.027491737
-0.032956257 -0.016376322 0.015333755 0.041499794 0.0012063758 0.049180955 0.021857517 -0.016772006
0.02958067 -0.034292053 0.019187337 -0.024153145 -0.030235942 -0.012873162 -0.016667752 -0.0021570493
0.071784735 0.0071149757 0.0061820126 0.019848688 0.0289542 -0.012795114 0.05392794 0.0064300266
0.06494529 0.020395016 0.0032261312 0.056644063 -0.024765845 0.0010291153 0.018122956 0.019674165
-0.04300726 -0.04074372 0.06668706 0.07071372 0.041818354 -0.0016087767 -0.0018628107 0.011229013
-0.029941969 0.056865674 -0.03476523 -0.029758906 0.02190979 0.02115772 -0.0050628423 0.002530795
0.012221401 -0.011323795 -0.01965038 -0.003924941 -0.036953807 -0.0025573953 -0.040684517 0.031822864
0.051070902 0.018682603 0.036310587 0.027693775 -0.009752525 -0.009886921 -0.008474295 -0.043660335
0.019523466 -0.026129618 0.0676466 0.045914825 -0.01913364 0.0016088443 0.034038067 0.056878407
0.07164635 -0.050540827 0.013361142 -0.0027706285 -0.022706866 -0.009896456 0.031573463 0.057340205
-0.015491284 -0.0062828558 0.005971246 0.050140597 -0.0036444615 0.018011386 0.026261684 -0.03448057
-0.014067677 0.054560274 -0.009196999 0.037090164 0.0010063301 0.024613654 0.056419265 0.0745576
0.013252025 -0.02046892 -0.012350587 0.015817856 0.024841916 0.03288805 0.042821433 0.054865092
0.0014360856 -0.051021267 0.06342416 0.00038065086 -0.022426568 -0.025010603 0.059685174 0.0071115457
-0.0018724635 0.023109633 0.03084575 -0.0113624865 0.052730076 0.008606899 0.00052416726 -0.04610928
0.03740467 -0.00087490154 0.008769288 -0.015652135 0.03402772 -0.040439777 0.05594129 0.058533296
-0.05085018 0.06494859 0.020591898 -0.02311489 0.06648007 -0.016692452 -0.00940292 -0.042214464
-0.03883088 -0.0054484364 -0.025755608 -0.045865566 -0.006991984 -0.031378128 -0.036647264 0.022089753
-0.006945435 0.024456741 0.06491359 0.033787176 0.058604863 -0.025536105 -0.020576194 -0.03171936
0.015393058 0.006845142 -0.017328532 0.039454836 0.037278507 -0.014944696 0.05031185 0.026347835
0.04661551 0.05257751 0.039868586 0.067171365 0.004114565 0.05149906 -0.009976724 -0.018527279
-0.0068195444 -0.038855378 0.02793512 0.025462251 0.033998042 0.027446786 0.014865837 -0.044676688
0.019532315 0.030403648 0.0074234717 0.047783203 -0.004091032 -0.017033372 0.05771023 0.059173606
0.041119006 0.028480887 0.03162322 -0.038562022 -0.0153811015 0.022065435 0.008837901 -0.0113186315
-0.036564544 -0.002376761 -0.048321664 0.06071208 -0.010763881 0.008735414 0.046016473 0.011554429
-0.031158214 0.05006732 0.06037137 -0.012946673 0.03557972 -0.02494964 0.009325605 -0.046138186
0.03322286 0.013827954 0.015248569 -0.024826344 0.019038782 -0.020167751 0.07131141 -0.0067526754
0.071486905 0.06092978 0.041376103 0.023822775 0.05182895 0.035721205 -0.012258524 -0.005999736
0.0062720478 -0.013149018 0.023580557 0.05068199 -0.023130424 -0.013894273 -0.025445638 0.040401265
00000000: e5dc a43c 1523 243d c7f1 313d 943d 303c
00000010: f012 8dbc 94ca a9bc c200 79bc 2277 113c
00000020: 9131 4c3d 7e48 303d 54f6 753d 386e 3f3d
00000030: e039 443d 90dc 263d ca86 d4ba 3fd8 f13c
00000040: 2050 de3c b446 85bc b6e3 d83b 3ebc cdbc
00000050: 8858 df3b 8200 85bc bb35 3bbc 5a36 e13c
00000060: 24fd 06bd a327 86bc 6e3a 7b3c b0fb 293d
00000070: 411f 9e3a f871 493d 890e b33c 7265 89bc
00000080: 2953 f23c d375 0cbd c32e 9d3c d1dc c5bc
00000090: 5eb1 f7bc f4e9 52bc cf8a 88bc 485d 0dbb
000000a0: e003 933d be24 e93b 7b92 ca3b b799 a23c
000000b0: 5c31 ed3c 99a2 51bc 8be3 5c3d f9b2 d23b
000000c0: 0902 853d 7313 a73c 806d 533b 9b03 683d
000000d0: bee1 cabc 61e3 863a 9876 943c b72b a13c
000000e0: 6128 30bd e3e2 26bd 3a93 883d 5bd2 903d
000000f0: b949 2b3d 97dd d2ba 8e29 f4ba e5f9 373c
00000100: dc48 f5bc fbeb 683d fc65 0ebd f3c8 f3bc
00000110: 297c b33c f452 ad3c 33e6 a5bb b2db 253b
00000120: 453c 483c 7087 39bc d5f9 a0bc cb9c 80bb
00000130: e05c 17bd f999 27bb cfa4 26bd b158 023d
00000140: b92f 513d 420c 993c 69ba 143d 0ede e23c
00000150: 0ec9 1fbc c1fc 21bc c5d7 0abc 2ed5 32bd
00000160: adef 9f3c c80d d6bc 4d8a 8a3d 2f11 3c3d
00000170: 27be 9cbc dbdf d23a 806b 0b3d 55f9 683d
00000180: 52bb 923d e603 4fbd b1e8 5a3c 6f93 35bb
00000190: c003 babc bf24 22bc 2d53 013d 90dd 6a3d
000001a0: 28cf 7dbc 6ae0 cdbb 71aa c33b 3a60 4d3d
000001b0: ebd7 6ebb 9d8c 933c be22 d73c 803b 0dbd
000001c0: 1d7c 66bc 987a 5f3d 02af 16bc dbeb 173d
000001d0: d6e6 833a 93a2 c93c e317 673d a8b1 983d
000001e0: 051f 593c 70ae a7bc 1e5a 4abc 7394 813c
000001f0: 4681 cb3c 9fb5 063d 8765 2f3d 38ba 603d
00000200: 093b bc3a adfb 50bd 87e4 813d 1892 c739
00000210: ecb7 b7bc 09e3 ccbc 7178 743d f807 e93b
00000220: 736d f5ba 6a50 bd3c 3ab0 fc3c b929 3abc
00000230: 7efb 573d f303 0d3c 4568 093a 16dd 3cbd
00000240: a435 193d a659 65ba 0fad 0f3c e838 80bc
00000250: a760 0b3d 2ea4 25bd b222 653d 9cc0 6f3d
00000260: 4748 50bd c403 853d 57b0 a83c 705b bdbc
00000270: b426 883d 9cbe 88bc b40e 1abc 13e9 2cbd
00000280: 210d 1fbd cc88 b2bb 6dfd d2bc 88dd 3bbd
00000290: 031d e5bb 5a86 00bd 711b 16bd 92f5 b43c
000002a0: 8896 e3bb 8159 c83c 6bf1 843d 6c64 0a3d
000002b0: a70b 703d 1831 d1bc 688f a8bc 29ec 01bd
000002c0: 2a33 7c3c 374d e03b 91f4 8dbc 659b 213d
000002d0: 59b1 183d 99da 74bc cc13 4e3d 6ad7 d73c
000002e0: e8ef 3e3d 845b 573d 3e4d 233d 2491 893d
000002f0: 79d3 863b aef0 523d 6a75 23bc 85c6 97bc
00000300: 7c76 dfbb d126 1fbd 31d8 e43c 3696 d03c
00000310: 8841 0b3d 15d8 e03c d78f 733c e7fe 36bd
00000320: 3c02 a03c 1211 f93c 9840 f33b 52b8 433d
00000330: 100e 86bb 9289 8bbc 9061 6c3d 0660 723d
00000340: 676c 283d c050 e93c 5987 013d 36f3 1dbd
00000350: 0401 7cbc 92c2 b43c d8cc 103c c871 39bc
00000360: b4c4 15bd 6fc3 1bbb f0ec 45bd 3bad 783d
00000370: fd5a 30bc fb1e 0f3c c57b 3c3d ca4e 3d3c
00000380: 833f ffbc 6413 4d3d f847 773d 481e 54bc
00000390: 0abc 113d 3063 ccbc 6cca 183c 65fb 3cbd
000003a0: b214 083d a58e 623c 22d5 793c 9e60 cbbc
000003b0: 38f7 9b3c d736 a5bc b70b 923d 8c45 ddbb
000003c0: ba67 923d 8191 793d fd79 293d fb27 c33c
000003d0: 984a 543d 6650 123d fad7 48bc 6f99 c4bb
000003e0: c085 cd3b fb6e 57bc 032c c13c eb97 4f3d
000003f0: 047c bdbc cea4 63bc 5f73 d0bc cc7b 253d

gconv.0.lins.1.weight f4 [16, 2000]
-0.062218543 -0.04805163 0.024313677 0.026239235 0.013620826 0.03534694 0.0073521626 -0.041261435
-0.06793254 -0.060975168 -0.030723082 0.021981552 0.015755525 -0.027463647 -0.00588457 0.015497821
-0.025572848 0.030829327 0.0030367365 -0.033255156 -0.02303326 -0.015629884 0.009456172 -0.011724862
0.009696849 -0.04112244 0.039412357 0.0087382095 0.03556937 0.0050658286 -0.037670393 -0.029144239
-0.016920572 -0.06833233 0.020375472 -0.0057552597 -0.03783227 -0.04141427 -0.030946182 -0.038702775
0.040765956 0.02437895 -0.020848695 -0.044759236 0.033153106 -0.04833111 0.026242815 0.032115918
0.0056375307 -0.015651004 0.040409327 -0.021351056 0.04205422 -0.057798453 -0.0041057696 -0.008004619
0.014303496 0.03898561 -0.040085588 0.034162093 0.00021024395 0.016964493 0.015748965 -0.05298064
0.038181093 -0.04217328 0.019763684 -0.012602754 -0.031652544 -0.042486902 0.0070344876 -0.035255026
0.020004401 -0.043721803 -0.03657386 -0.002938813 -0.019922877 0.03767156 0.032600857 -0.020415213
-0.02917918 4.7126137e-05 0.02150625 0.012427902 -0.0149091575 0.04686244 0.04078248 0.029786391
-0.040304076 -0.0015945957 -0.027725227 -0.061299626 -0.05404492 -0.060798492 -0.055154085 0.024544716
-0.020560581 0.047490217 -0.02363431 -0.045413 0.0052261804 0.00038467083 0.05402206 0.020141562
0.027421884 0.019976756 0.0140309045 -4.477163e-06 0.0030635162 -0.05002262 -0.03652851 -0.037069153
-0.030354356 -0.033785377 0.017138489 -0.045031473 -0.042187117 -0.05444841 -0.05815506 -0.0138121955
-0.030577904 0.017756555 0.010256296 -0.06429367 0.036506422 0.007080556 -0.0348738 0.013462844
0.04007579 0.040280405 -0.060421754 -0.017248519 0.030961623 0.027215194 0.050865743 -0.03210409
0.0055458774 -0.053934887 -0.014857367 -0.028354743 -0.021366272 0.010555281 0.032102656 0.042227685
0.03704479 0.018256953 -0.0221405 0.01318244 0.0037943074 0.0069649084 0.010504719 -0.021365043
0.026547989 -0.06382691 -0.014242524 -0.033888265 -0.054610923 -0.04096531 0.0029013832 -0.050711084
-0.017446227 -0.048174754 0.040635973 -0.024521243 -0.004617619 0.033502787 -0.0041321423 -0.005181185
0.024374267 0.018764665 -0.017573308 0.04119256 -0.023401229 -0.021555174 -0.041439667 -0.04201534
-0.01730077 0.021137128 0.011649726 -0.013499715 -0.0057957177 -0.002293427 -0.0012598882 -0.012000792
-0.0032110387 0.037146654 -0.003739135 0.024549978 0.012510624 0.033260398 -0.037025623 0.04344231
-0.005029226 -0.039773 -0.04055821 -0.04305402 -0.023237176 0.014201699 -0.024669653 -0.03038986
0.02959351 -0.0034702006 -0.04194622 -0.039179184 0.010015712 -0.01933397 -0.058848754 0.038769327
0.02420372 0.011141405 -0.058788754 0.026191728 0.0465095 -0.020672059 -0.028486596 0.045926984
0.032103658 0.058508564 -0.059140075 0.03387733 0.042668186 0.0075788465 0.011142805 -0.039839614
-0.00021262297 -0.0512645 0.040620577 -0.015837483 -0.03796457 -0.04407972 0.02200181 0.036588058
0.028525924 0.014230654 -0.0018833899 -0.059159067 -0.015629483 -0.056854855 -0.026681324 -0.057383493
-0.06488493 -0.0408111 -0.029532636 -0.014763372 -0.030238463 -0.04170683 0.008588835 -0.03969301
0.021039624 -0.06660839 -0.040249303 0.022033699 0.037641343 -0.018977303 -0.022047358 -0.019682886
00000000: dfd8 7ebd c9d1 44bd 7a2d c73c aaf3 d63c
00000010: e329 5f3c f4c7 103d 69ea f03b c001 29bd
00000020: 3720 8bbd 19c1 79bd f9ae fbbc a812 b43c
00000030: bb11 813c 71fb e0bc 5ad3 c0bb 93ea 7d3c
00000040: 267e d1bc c98d fc3c fc03 473b 8f36 08bd
00000050: 3fb0 bcbc 3e0a 80bc 0fee 1a3c a319 40bc
00000060: 88df 1e3c 0170 28bd da6e 213d b52a 0f3c
00000070: 30b1 113d 40ff a53b 454c 1abd e6bf eebc
00000080: 039d 8abc d2f1 8bbd 76ea a63c 9e96 bcbb
00000090: 03f6 1abd 02a2 29bd d982 fdbc cd86 1ebd
000000a0: 34fa 263d 5db6 c73c e2ca aabc 7655 37bd
000000b0: 8dcb 073d d8f6 45bd 2cfb d63c fb8b 033d
000000c0: 09bb b83b 8936 80bc 4084 253d 69e8 aebc
000000d0: 0c41 2c3d 12be 6cbd b189 86bb ce25 03bc
000000e0: 3659 6a3c 60af 1f3d c930 24bd 8ded 0b3d
000000f0: ee74 5c39 1ff9 8a3c f903 813c 3a02 59bd
00000100: c763 1c3d e4bd 2cbd 73e7 a13c c87b 4ebc
00000110: 19a6 01bd bf06 2ebd 8f81 e63b 9367 10bd
00000120: 45e0 a33c a215 33bd 79ce 15bd 1a99 40bb
00000130: 4d35 a3bc 7e4d 1a3d 7a88 053d ce3d a7bc
00000140: 2d09 efbc 4ea9 4538 e02d b03c 669e 4b3c
00000150: 8a45 74bc d4f2 3f3d 880b 273d 9702 f43c
00000160: e315 25bd c101 d1ba 0420 e3bc 5115 7bbd
00000170: 355e 5dbd d707 79bd 40e9 61bd 0012 c93c
00000180: aa6e a8bc 1a85 423d be9c c1bc fb02 3abd
00000190: 6140 ab3b a5ad c939 3c46 5d3d ebff a43c
000001a0: dca3 e03c 4ba6 a33c e1e1 653c 8a3a 96b6
000001b0: 46c5 483b 85e4 4cbd eb9e 15bd d3d5 17bd
000001c0: b3a9 f8bc 8962 0abd 0466 8c3c ec72 38bd
000001d0: 66cc 2cbd 4c05 5fbd 0034 6ebd 8c4c 62bc
000001e0: 837e fabc 3276 913c 060a 283c 66ac 83bd
000001f0: c287 153d 0204 e83b d4d7 0ebd 4393 5c3c
00000200: 8326 243d 11fd 243d cd7c 77bd c44c 8dbc
00000210: 3ba3 fd3c 66f2 de3c 9958 503d 947f 03bd
00000220: 31ba b53b d4ea 5cbd 506c 73bc 3548 e8bc
00000230: 5208 afbc 0ff0 2c3c 137e 033d f0f6 2c3d
00000240: 47bc 173d 9b8f 953c fe5f b5bc 29fb 573c
00000250: eaa9 783b e339 e43b fc1b 2c3c be05 afbc
00000260: 2b7b d93c afb7 82bd 7a59 69bc 6cce 0abd
00000270: b4af 5fbd 3ecb 27bd 2225 3e3b 6db6 4fbd
00000280: 64eb 8ebc e452 45bd e871 263d c6e0 c8bc
00000290: 654f 97bb 383a 093d ec66 87bb eec6 a9bb
000002a0: 8bac c73c 5bb8 993c e6f5 8fbc 88b9 283d
000002b0: efb3 bfbc 7a94 b0bc a4bc 29bd 4718 2cbd
000002c0: 58ba 8dbc c527 ad3c 7ede 3e3c e92d 5dbc
000002d0: 01ea bdbb 524d 16bb d522 a5ba f89e 44bc
000002e0: 4a70 52bb 1727 183d 470c 75bb 091d c93c
000002f0: 5cf9 4c3c 0e3c 083d 2ea8 17bd 90f0 313d
00000300: 35cc a4bb 03e9 22bd 5e20 26bd 6959 30bd
00000310: e45b bebc 3eae 683c 0318 cabc 28f4 f8bc
00000320: 176e f23c 4e6c 63bb cdcf 2bbd 5a7a 20bd
00000330: f118 243c 4662 9ebc 640b 71bd 96cc 1e3d
00000340: e146 c63c 718a 363c 7acc 70bd 0990 d63c
00000350: bf80 3e3d 7358 a9bc b95c e9bc ef1d 3c3d
00000360: 207f 033d ada6 6f3d dd3c 72bd f5c2 0a3d
00000370: d6c4 2e3d f957 f83b 5090 363c dd2e 23bd
00000380: 8bf3 5eb9 b9fa 51bd c361 263d 9cbd 81bc
00000390: bd80 1bbd f08c 34bd 243d b43c 5cdd 153d
000003a0: 33af e93c b027 693c 14dc f6ba c750 72bd
000003b0: 6709 80bc a3e0 68bd cb92 dabc f40a 6bbd
000003c0: 64e2 84bd 8a29 27bd 6dee f1bc 12e2 71bc
000003d0: a7b6 f7bc c8d4 2abd 2fb8 0c3c 2395 22bd
000003e0: 4a5b ac3c fb69 88bd 74dc 24bd 0480 b43c
000003f0: cf2d 1a3d 4a76 9bbc a99c b4bc 013e a1bc

gconv.0.lins.2.weight f4 [16, 2000]
0.049424924 0.022998435 -0.023426946 -0.0025032626 -0.03209008 0.015485437 -0.0015676161 -0.035942376
-0.029390423 -0.053668804 -0.026543368 0.041974004 -0.007249066 0.033747703 -0.04306388 -0.034216326
0.014980965 0.0064401557 -0.055054624 -0.031194402 0.056073144 0.008184044 -0.014318252 0.026003677
0.014372704 -0.03193032 -0.007819947 0.034475587 -0.009669456 0.006687188 0.0039735036 -0.01645188
-0.0067963237 0.009695954 0.033960033 -0.013306721 0.0072333156 0.009592192 -0.016328976 -0.05570655
-0.051319964 -0.044465527 -0.052035697 -0.0024136258 -0.0069278586 0.019045347 0.025840182 -0.010288315
-0.035878096 0.03788246 -0.0092187915 0.016522221 -0.06168885 -0.016135808 0.022600504 0.011706685
0.04803394 -0.040124215 0.0003801333 0.040351577 -0.041002132 -0.00639719 0.0042214324 0.026454685
-0.021287575 -0.0009445188 -0.0006748681 -0.02458658 0.04848926 -0.033025935 0.0154785635 0.015009801
0.014343448 0.019777793 -0.037313204 0.041421417 -0.0045451685 0.043072287 -0.026365444 -0.033082414
0.019590884 0.029433157 0.016473321 -0.048259094 0.04238816 -0.04530773 0.04736452 0.05146172
-0.0057587395 0.04237987 0.020959124 0.021269957 0.042189237 -0.049409315 -0.04259665 -0.0117801195
-0.0591879 0.0037032743 -0.017877607 0.016579544 -0.010571765 0.04038144 -0.0009812193 -0.0332228
-0.03046846 -0.03876932 0.0431518 0.025031153 -0.031561308 0.0058436594 0.014212317 0.0483558
-0.030417267 0.005975972 -0.010903167 -0.026632056 0.033042062 -0.002128993 0.030282835 0.02639612
0.007745415 -0.048576538 -0.062151358 -0.04658745 0.04838339 0.044384364 0.017910039 0.039142553
0.038741097 -0.022247422 -0.031897467 0.0067802216 0.013440295 -0.01984434 -0.050858542 -0.039298207
0.041610476 -0.045156322 0.030771242 0.0017784472 0.04891402 0.03613777 0.05091443 -0.026176779
0.050667025 -0.043815605 0.020610904 -0.021448053 -0.016492128 -0.0030362036 0.042280868 0.056239363
-0.021985797 0.023819584 -0.008322154 -0.007921917 -0.0146672195 0.01559961 -0.011203221 -0.006674695
-0.01506601 0.02835756 0.04005962 -0.01095613 -0.051893014 0.020719446 -0.02403236 -0.018538903
0.0031722717 0.028581895 -0.003360664 0.037060365 0.04067968 0.011938543 0.0495318 -0.048055414
-0.04709687 0.013278156 -0.011953594 -0.05337094 -0.055698853 -0.04455121 0.014183513 0.019399105
0.013778704 -0.054246143 0.037672512 0.023129381 -0.009615727 0.0033315415 0.04950213 0.054791745
-0.043392748 -0.0039452845 -0.039396312 -0.012934965 -0.043220453 0.038899027 -0.043122362 -0.033714708
-0.02147129 0.034219414 -0.023645228 0.009718174 -0.051758494 0.043134816 -0.0261425 0.030119525
0.05188565 0.024933452 0.03185953 0.04190976 -0.03330751 0.031471256 0.012689152 -0.021003384
0.0073179547 0.01918813 0.0020461108 0.0022319253 0.014345828 0.013329139 -0.022465317 0.03227486
0.04015704 0.052595243 0.008303591 -0.029533861 0.0332847 -0.054300703 0.042066794 -0.014024511
0.013230069 0.04601267 -0.013416139 -0.014713844 0.0034245285 0.0027699769 -0.023804799 0.04836728
-0.035451192 -0.040457528 -0.05328939 0.015988925 0.019964535 -0.029778818 -0.011485633 -0.002118365
-0.01049598 -0.035716727 -0.049946602 -0.0045805974 -0.027074983 -0.04469995 0.014768092 -0.039493278
00000000: ca71 4a3d 3767 bc3c dee9 bfbc c70d 24bb
00000010: e370 03bd a1b6 7d3c 7878 cdba 5038 13bd
00000020: 2fc4 f0bc d2d3 5bbd 7a71 d9bc efec 2b3d
00000030: 9389 edbb 083b 0a3d c063 30bd 6b26 0cbd
00000040: b972 753c f107 d33b f580 61bd 678b ffbc
00000050: f4ac 653d 5e16 063c 1a97 6abc aa05 d53c
00000060: 7d7b 6b3c 5ec9 02bd 3c1f 00bc 4636 0d3d
00000070: a36c 1ebc 3320 db3b 2a34 823b 18c6 86bc
00000080: b2b3 debb c7db 1e3c ad19 0b3d 6f04 5abc
00000090: 7305 ed3b 9228 1d3c 58c4 85bc 8d2c 64bd
000000a0: e234 52bd 7c21 36bd 6223 55bd ec2d 1ebb
000000b0: 1703 e3bb fd04 9c3c caae d33c 5290 28bc
000000c0: e9f4 12bd a32a 1b3d 6a0a 17bc 9c59 873c
000000d0: 73ad 7cbd 3e2f 84bc b124 b93c 65cd 3f3c
000000e0: 3dbf 443d 4a59 24bd a14c c739 b247 253d
000000f0: daf1 27bd 859f d1bb f153 8a3b 7fb7 d83c
00000100: 4863 aebc 9599 77ba a2e9 30ba cc69 c9bc
00000110: ad9c 463d 3446 07bd cd99 7d3c abeb 753c
00000120: c800 6b3c 0a05 a23c bbd5 18bd 81a9 293d
00000130: a3ef 94bb 916c 303d 58fc d7bc 6d81 07bd
00000140: 107d a03c ce1d f13c 0ff3 863c 54ab 45bd
00000150: 359f 2d3d 9994 39bd 4d01 423d 86c9 523d
00000160: cfb3 bcbb 8496 2d3d 78b2 ab3c 553e ae3c
00000170: 9fce 2c3d 6c61 4abd d379 2ebd 6701 41bc
00000180: 036f 72bd a2b2 723b 0f74 92bc d3d1 873c
00000190: 3235 2dbc 0267 253d 429c 80ba a114 08bd
000001a0: fe98 f9bc 94cc 1ebd f1bf 303d 220e cd3c
000001b0: 6e46 01bd 2b7c bf3b c7da 683c bb10 463d
000001c0: a22d f9bc 16d2 c33b 32a3 32bc 782b dabc
000001d0: 1d57 073d 9386 0bbb b513 f83c ad3c d83c
000001e0: 40cd fd3b 31f8 46bd 6c92 7ebd 7bd2 3ebd
000001f0: a92d 463d 61cc 353d 13b8 923c f153 203d
00000200: fcae 1e3d 3a40 b6bc eba6 02bd 9f2c de3b
00000210: af34 5c3c 9990 a2bc 0c51 50bd 28f7 20bd
00000220: bf6f 2a3d d6f5 38bd f913 fc3c c91a e93a
00000230: 115a 483d 3305 143d a68b 503d af70 d6bc
00000240: 3a88 4f3d fe77 33bd 33d8 a83c d4b3 afbc
00000250: 801a 87bc 0bfb 46bb b42e 2d3d 3f5b 663d
00000260: 8f1b b4bc 4a21 c33c a559 08bc eeca 01bc
00000270: c74e 70bc 8295 7f3c b78d 37bc 66b7 dabb
00000280: 6dd7 76bc 1d4e e83c 8e15 243d 5781 33bc
00000290: c58d 54bd d4bb a93c 83df c4bc e6de 97bc
000002a0: e3e5 4f3b 9424 ea3c 963e 5cbb 9ccc 173d
000002b0: bc9f 263d e199 433c dbe1 4a3d c1d5 44bd
000002c0: a6e8 40bd 9f8c 593c 02d9 43bc 7d9b 5abd
000002d0: 7b24 64bd 547b 36bd f761 683c dfea 9e3c
000002e0: 13c0 613c 3431 5ebd 7e4e 1a3d d479 bd3c
000002f0: 488b 1dbc fe55 5a3b bfc2 4a3d 4f6d 603d
00000300: 98bc 31bd 7247 81bb 075e 21bd 2ded 53bc
00000310: ee07 31bd 9654 1f3d 13a1 30bd 6f18 0abd
00000320: 8fe4 afbc a829 0c3d a3b3 c1bc fa38 1f3c
00000330: b700 54bd 22ae 303d cc28 d6bc 39bd f63c
00000340: 0c86 543d 3d41 cc3c 237f 023d 92a9 2b3d
00000350: 756d 08bd 01e8 003d 29e6 4f3c 4a0f acbc
00000360: 74cb ef3b 6d30 9d3c 0b18 063b 7e45 123b
00000370: c40a 6b3c 7662 5a3c 2f09 b8bc a532 043d
00000380: b57b 243d 1c6e 573d c90b 083c fff0 f1bc
00000390: 8a55 083d 6a6a 5ebd 3b4e 2c3d 10c7 65bc
000003a0: eec2 583c c877 3c3d 5ecf 5bbc 5612 71bc
000003b0: 0e6e 603b 8088 353b 4802 c3bc c51c 463d
000003c0: 4535 11bd cbb6 25bd fa45 5abd 35fb 823c
000003d0: aa8c a33c b5f2 f3bc 3d2e 3cbc 44d4 0abb
000003e0: 55f7 2bbc b44b 12bd cf94 4cbd d618 96bb
000003f0: 5bcc ddbc 4b17 37bd def5 713c b4c3 21bd

gconv.1.lins.0.weight f4 [16, 16]
0.26123604 0.30766988 -0.2868687 -0.115790546 -0.4321447 0.25300673 -0.263386 -0.10941434
0.40406734 0.14418311 -0.0996196 0.010412123 -0.028046453 -0.17745768 0.406445 -0.023655225
-0.3959699 -0.21646604 -0.0231453 -0.35650694 0.080807135 0.29225603 0.15944521 0.19036293
0.060230076 0.047730453 0.3072954 0.25247508 -0.16920981 -0.3017381 0.06509298 -0.38418978
0.2852399 0.31931302 0.21424878 -0.15474032 0.13116698 0.31673533 -0.27909273 -0.006049436
0.22248705 -0.0742688 0.26010072 0.081945814 -0.38233417 0.39087978 -0.229158 0.0012695824
-0.43021095 -0.26471445 -0.09915328 0.40296897 -0.18718216 -0.34472045 0.2117174 0.25252393
0.41441363 -0.094536915 0.040441368 -0.27683607 0.093293145 0.17027372 0.10564918 -0.24694453
0.123457044 -0.4116576 -0.14826654 -0.031106068 -0.0943959 -0.053918023 0.23732771 -0.23845008
-0.35564607 0.15652001 -0.36552742 0.07696806 -0.06607376 -0.1426977 0.12670714 -0.24690162
0.306886 -0.39630833 0.034533523 -0.16422538 -0.25320038 -0.2847613 -0.28234804 0.051440153
-0.39579448 0.38033712 -0.30116922 0.22675365 0.19969244 0.29849672 0.09951852 -0.023495536
0.37099963 0.31332326 -0.13197772 -0.37458792 -0.032312285 0.26351517 0.31803492 0.25629744
-0.15767904 0.21037057 -0.4185074 0.079059646 -0.09578287 -0.33396065 0.12597062 -0.3464836
-0.060064558 -0.10088857 -0.13652068 0.00089134957 -0.3151661 -0.15515955 0.19720991 -0.06434095
-0.22030748 -0.17512852 0.41502675 0.089571744 -0.012025141 -0.22934034 -0.04667633 -0.06799599
0.43568856 -0.056224868 0.29647237 -0.28389263 0.38608032 0.42286864 -0.19220158 0.42553425
0.3542494 0.2881436 -0.0014572811 0.26312017 -0.016270502 -0.25982615 -0.34841228 0.042158872
-0.4159144 -0.39267468 0.1679454 -0.26841992 -0.3815641 0.12938932 0.15970148 0.011270471
-0.12569644 0.08252568 0.21966796 -0.34322047 -0.21790253 -0.06737651 0.10358653 0.107618354
-0.17299932 0.14476195 -0.30428147 0.3129023 -0.08767175 0.09496008 -0.075562574 0.0638593
0.36964235 -0.26560158 -0.013190915 -0.101984665 0.14193706 -0.10712454 0.10081404 -0.28600657
-0.3430446 -0.09613004 0.047672983 -0.17784123 -0.01027505 0.42100817 0.01510246 -0.17430498
-0.21515211 -0.3532922 -0.34275034 -0.36971253 0.1438386 0.258353 -0.0014803312 -0.41619456
0.20404546 -0.22719036 0.2683558 0.3055613 -0.03672254 0.2282401 0.17041422 -0.3205301
-0.18970044 0.27860466 -0.17847404 -0.052148454 0.05468834 -0.09422823 -0.2756257 0.16323912
-0.04144071 -0.019626431 -0.19523787 0.34475955 -0.18011905 0.053026535 0.3845872 -5.5157132e-05
-0.22040048 0.33941188 -0.33980966 -0.26241168 -0.0033310736 -0.3202296 -0.027148021 -0.040527314
-0.053367756 0.37094155 0.06710332 0.33892074 -0.3047283 -0.26579955 0.3134277 -0.11838468
-0.33421186 0.08821468 0.037891705 -0.10511419 0.032904003 0.38890368 0.33905384 0.12502806
0.3210394 -0.3590521 -0.12707034 -0.26498142 -0.20186332 0.05671449 -0.14758947 0.1776066
0.2799915 0.14513244 0.37179276 0.34550864 -0.3001925 -0.21429184 -0.032309137 0.4041327
00000000: bbc0 853e e886 9d3e 74e0 92be 9823 edbd
00000010: 1242 ddbe 198a 813e 88da 86be a014 e0bd
00000020: eae1 ce3e bda4 133e 5c05 ccbd 9c97 2a3c
00000030: adc1 e5bc 77b7 35be 8f19 d03e 9ac8 c1bc
00000040: 91bc cabe 46a9 5dbe 369b bdbc 1488 b6be
00000050: 367e a53d 95a2 953e 9b45 233e 80ee 423e
00000060: d0b3 763d 0281 433d d355 9d3e 6a44 813e
00000070: 5645 2dbe 6b7d 9abe 784f 853d 86b4 c4be
00000080: f70a 923e ff7c a33e 0864 5b3e 3f74 1ebe
00000090: a350 063e 222b a23e 3ee5 8ebe 593a c6bb
000000a0: a5d3 633e 3e1a 98bd ec2b 853e 35d3 a73d
000000b0: 4ec1 c3be 6521 c83e 65a8 6abe 1e68 a63a
000000c0: 9c44 dcbe a788 87be e010 cbbd f351 ce3e
000000d0: aeac 3fbe 337f b0be 72cc 583e d14a 813e
000000e0: 062e d43e 929c c1bd d9a5 253d 75bd 8dbe
000000f0: 7a10 bf3d 3c5c 2e3e 995e d83d 07df 7cbe
00000100: 0cd7 fc3d c9c4 d2be 2fd3 17be 27d2 febc
00000110: a352 c1bd 25d9 5cbd 0906 733e 422c 74be
00000120: 3e17 b6be c846 203e 6926 bbbe 6ea1 9d3d
00000130: ae51 87bd 591f 12be 84bf 013e c7d3 7cbe
00000140: 2920 9d3e ede8 cabe 0673 0d3d b32a 28be
00000150: 7ba3 81be 3ccc 91be ec8f 90be e9b2 523d
00000160: 93a5 cabe 8cbb c23e da32 9abe 1c32 683e
00000170: 2d7c 4c3e 90d4 983e 5ed0 cb3d b679 c0bc
00000180: aaf3 bd3e e86b a03e 2b25 07be fdc9 bfbe
00000190: e359 04bd 76eb 863e 79d5 a23e 6b39 833e
000001a0: 9d76 21be 626b 573e 9a46 d6be 06ea a13d
000001b0: cf29 c4bd e4fc aabe 71fe 003e 4c66 b1be
000001c0: 4106 76bd ab9e cebd 14cc 0bbe 75a9 693a
000001d0: 735d a1be 25e2 1ebe 65f1 493e 30c5 83bd
000001e0: 4998 61be e454 33be 637e d43e 6471 b73d
000001f0: 1905 45bc 32d8 6abe ae2f 3fbd 7b41 8bbd
00000200: 9212 df3e 0c4c 66bd 3acb 973e 605a 91be
00000210: 52ac c53e 3d82 d83e 7ed0 44be a0df d93e
00000220: 2d60 b53e 8f87 933e 3d02 bfba b0b7 863e
00000230: b749 85bc ef07 85be 1863 b2be c8ae 2c3d
00000240: bbf2 d4be a80c c9be e1f9 2b3e 566e 89be
00000250: 5f5c c3be a27e 043e c988 233e c8a7 383c
00000260: 91b6 00be 3903 a93d a3f0 603e 98ba afbe
00000270: d721 5fbe b2fc 89bd 2d25 d43d 0367 dc3d
00000280: bc26 31be 7a3c 143e c8ca 9bbe bb34 a03e
00000290: 3f8d b3bd 6e7a c23d 8dc0 9abd aac8 823d
000002a0: c341 bd3e eefc 87be b51e 58bc 56dd d0bd
000002b0: f357 113e 1c64 dbbd 9777 ce3d 746f 92be
000002c0: 8ba3 afbe d4df c4bd bf44 433d 031c 36be
000002d0: af58 28bc 628e d73e 4f70 773c 017d 32be
000002e0: d650 5cbe b7e2 b4be f97c afbe f64a bdbe
000002f0: 6d4a 133e d846 843e ac07 c2ba 7417 d5be
00000300: 4bf1 503e 97a4 68be ee65 893e 8872 9c3e
00000310: 606a 16bd c6b7 693e 1181 2e3e 851c a4be
00000320: d540 42be 45a5 8e3e e6c1 36be 9e99 55bd
00000330: e100 603d bbfa c0bd d01e 8dbe 2828 273e
00000340: bcbd 29bd 9cc7 a0bc 70ec 47be 5384 b03e
00000350: 2171 38be 5a32 593d 9de8 c43e 8558 67b8
00000360: aab0 61be 65c7 ad3e 88fb adbe d35a 86be
00000370: 244e 5abb 22f5 a3be 8765 debc f8ff 25bd
00000380: 2698 5abd 0dec bd3e 776d 893d 0587 ad3e
00000390: 5905 9cbe e116 88be 9879 a03e ab73 f2bd
000003a0: d11d abbe e6a9 b43d 5534 1b3d 1c46 d7bd
000003b0: 59c6 063d 621e c73e 7798 ad3e 5b07 003e
000003c0: 475f a43e add5 b7be ba1e 02be a5ab 87be
000003d0: 42b5 4ebe 744d 683d b221 17be 81de 353e
000003e0: 0c5b 8f3e 999d 143e 9f5b be3e 82e6 b03e
000003f0: d5b2 99be 526f 5bbe 9656 04bd 7bea ce3e

gconv.1.lins.1.weight f4 [16, 16]
-0.13666296 0.035276014 0.13110596 -0.33052322 -0.10694717 -0.19957727 0.2927392 -0.1581899
0.2839587 -0.24325264 -0.10276433 -0.275603 0.1804021 -0.15364397 -0.03900364 0.4119253
0.08914564 -0.19152923 0.36477605 0.11590017 0.2962993 -0.2840897 -0.14915079 0.4362269
-0.19729619 -0.33838153 0.37181243 0.41136733 -0.27255082 -0.13235229 0.11610617 0.08452702
0.03648698 -0.30130085 0.18786697 0.104199216 0.29603592 0.16279331 -0.40012413 0.37740797
-0.20177567 0.21033566 -0.0689971 0.36895883 -0.42308894 -0.32317978 -0.25579143 0.011386722
-0.21747507 -0.27536795 0.07831985 -0.3658114 0.2135583 0.36742184 -0.26626965 0.32507774
0.13155623 0.25371805 0.26467025 0.23837331 0.3417806 -0.26542622 0.29024845 0.16774908
-0.25624362 0.39481395 0.18603197 -0.32511923 -0.200944 -0.014511849 0.19684365 0.37596288
0.193301 -0.2517942 -0.15077697 0.12739529 -0.16315457 0.06307736 -0.32232007 0.2421611
0.14070915 0.32421055 -0.21493216 0.32539445 0.255999 -0.43118003 0.3514796 -0.15986694
0.3345298 0.23278283 0.10848376 -0.41087267 0.057645217 -0.041054405 0.29059714 0.17289965
-0.29551405 -0.2455666 0.3680159 0.39450756 0.13419342 -0.41721168 -0.08292996 0.052050617
-0.39571851 -0.43274292 -0.33613038 0.14060998 -0.00089684397 -0.12186823 0.15862909 0.080770254
0.078096345 -0.20847909 0.18315974 0.39441055 -0.23188251 -0.24298503 0.12345655 -0.26645115
0.30091348 -0.41977525 -0.11626132 -0.28227776 0.22325525 0.3464306 0.022122035 -0.10088886
0.33526498 -0.36856169 0.12625599 -0.19899076 0.004236626 0.39543313 0.25186196 0.052996032
0.052724697 0.26428893 0.38617876 0.24539295 0.10279031 -0.29291534 0.23886263 -0.09715748
0.34229788 -0.17033757 0.22969718 -0.37068537 0.30846867 0.35924426 -0.025543015 -0.32691106
-0.057526883 0.27626976 -0.34840935 -0.2078178 -0.13079993 0.05372432 -0.22008966 -0.040699553
0.34962645 -0.23804848 -0.044776894 -0.26089907 0.32121316 0.2541637 0.302357 0.067393325
-0.01362551 0.22717932 0.18187818 0.10397293 0.25549838 -0.30339217 0.029463742 -0.0060258075
0.21732448 0.116526805 0.20904583 0.009500959 -0.21510538 0.018469602 -0.077999264 -0.23580454
-0.3440734 0.14280057 -0.1963973 -0.22513837 0.35513505 0.03143974 -0.30035427 -0.2907155
0.22426158 0.10356131 -0.3784678 -0.25153482 0.13494912 -0.0940375 -0.15688899 -0.080724224
-0.005328542 0.08302375 -0.033728134 -0.31710887 0.025960747 -0.23388393 -0.12522669 -0.29580587
-0.31400347 0.03571756 0.3445514 0.28437856 -0.3315976 0.07732543 0.3170623 -0.36999935
-0.2348052 -0.38983822 0.16612457 -0.20224747 0.31198466 -0.14321023 0.23643579 0.11976068
-0.033944316 -0.2888556 -0.1731713 0.00090874877 -0.39534262 0.2841778 -0.35095006 0.2704145
-0.25564992 0.17560747 0.29379585 0.20058043 -0.33031425 -0.15845631 0.2455361 0.19733249
-0.1994878 0.13079138 0.19602394 0.0056781964 0.38624772 0.29339156 -0.26973328 -0.30696556
0.23624156 0.3635115 -0.21774305 -0.14368735 -0.32601455 0.028082225 -0.3983999 -0.3117885
00000000: 60f1 0bbe 957d 103d a440 063e 573a a9be
00000010: 1e07 dbbd fc5d 4cbe eae1 953e 88fc 21be
00000020: 0963 913e 3817 79be 1b76 d2bd d61b 8dbe
00000030: 54bb 383e d854 1dbe 48c2 1fbd dfe7 d23e
00000040: fd91 b63d 3d20 44be edc3 ba3e 115d ed3d
00000050: 8bb4 973e 3574 91be fcba 18be 2259 df3e
00000060: 0308 4abe 5840 adbe 335e be3e bd9e d23e
00000070: c88b 8bbe 5c87 07be 12c9 ed3d 811c ad3d
00000080: 5f73 153d 1b44 9abe 3360 403e 6666 d53d
00000090: 0592 973e 4ab3 263e 12dd ccbe 9e3b c13e
000000a0: 489e 4ebe 3b62 573e 5a4e 8dbd 2ce8 bc3e
000000b0: 1d9f d8be d277 a5be 18f7 82be 608f 3a3c
000000c0: c9b1 5ebe 07fd 8cbe 2866 a03d a24b bbbe
000000d0: 07af 5a3e b71e bc3e 7f54 88be 9770 a63e
000000e0: adb6 063e 55e7 813e dc82 873e 2218 743e
000000f0: defd ae3e f2e5 87be 729b 943e 6ac6 2b3e
00000100: 5d32 83be 0e25 ca3e 2a7f 3e3e 0776 a6be
00000110: 44c4 4dbe 1bc3 6dbc 6291 493e 357e c03e
00000120: b3f0 453e 2beb 80be 4765 1abe e973 023e
00000130: fe11 27be b42e 813d 2307 a5be 14f9 773e
00000140: 0f16 103e edfe a53e 2d17 5cbe 1a9a a63e
00000150: 4d12 833e a1c3 dcbe 22f5 b33e 29b4 23be
00000160: 7d47 ab3e 9f5e 6e3e bc2c de3d e75d d2be
00000170: 641d 6c3d aa28 28bd 26c9 943e 9b0c 313e
00000180: 9e4d 97be d075 7bbe 946c bc3e e5fc c93e
00000190: 006a 093e c59c d5be 2fd7 a9bd 0733 553d
000001a0: 9e9b cabe 7b90 ddbe 4819 acbe 10fc 0f3e
000001b0: 2e1a 6bba 0d96 f9bd aa6f 223e e06a a53d
000001c0: faf0 9f3d 8b7b 55be 3a8e 3b3e 2ef0 c93e
000001d0: 9c72 6dbe 11d1 78be cad6 fc3d 496c 88be
000001e0: 5511 9a3e c8ec d6be 6a1a eebd b686 90be
000001f0: 069d 643e 5a5f b13e 4539 b53c d29e cebd
00000200: daa7 ab3e 1eb4 bcbe 4049 013e 3cc4 4bbe
00000210: 65d3 8a3b 3676 ca3e 0df4 803e 5e12 593d
00000220: daf5 573d e150 873e 39b9 c53e 4a48 7b3e
00000230: ba83 d23d 00f9 95be 6898 743e 80fa c6bd
00000240: ab41 af3e f96c 2ebe bd35 6b3e 79ca bdbe
00000250: 9bef 9d3e ddee b73e 963f d1bc e360 a7be
00000260: 4fa1 6bbd 3b73 8d3e b662 b2be 30ce 54be
00000270: 6bf0 05be 080e 5c3d 2f5f 61be 93b4 26bd
00000280: 3d02 b33e fbc2 73be fa67 37bd 9094 85be
00000290: 0d76 a43e bf21 823e 89ce 9a3e 8305 8a3d
000002a0: 883d 5fbc b2a1 683e 463e 3a3e c2ef d43d
000002b0: afd0 823e 3856 9bbe f25d f13c 2374 c5bb
000002c0: 4f8a 5e3e 9ba5 ee3d 1c10 563e e9a9 1b3c
000002d0: 9644 5cbe 904d 973c 14be 9fbd bf76 71be
000002e0: 642a b0be 503a 123e 601c 49be ac8a 66be
000002f0: 43d4 b53e f5c6 003d 09c8 99be a9d8 94be
00000300: d4a4 653e f417 d43d 88c6 c1be 2cc9 80be
00000310: 1a30 0a3e bc96 c0bd 82a7 20be be52 a5bd
00000320: 0d9b aebb 5b08 aa3d 8326 0abd 185c a2be
00000330: a2ab d43c 457f 6fbe 6d3b 00be de73 97be
00000340: 10c5 a0be 944c 123d 0b69 b03e 119a 913e
00000350: 29c7 a9be cc5c 9e3d fd55 a23e 8e70 bdbe
00000360: c670 70be e098 c7be 8f1c 2a3e f619 4fbe
00000370: 74bc 9f3e b4a5 12be 391c 723e 1645 f53d
00000380: 3209 0bbd e2e4 93be d153 31be 1939 6e3a
00000390: 596a cabe c17f 913e baaf b3be c573 8a3e
000003a0: 8ce4 82be 72d2 333e 696c 963e f564 4d3e
000003b0: f31e a9be 5f42 22be d16d 7b3e 8711 4a3e
000003c0: 8846 4cbe 2dee 053e 80ba 483e 2a10 ba3b
000003d0: 43c2 c53e 6b37 963e 7b1a 8abe 972a 9dbe
000003e0: 4fe9 713e 2e1e ba3e 09f8 5ebe c722 13be
000003f0: 61eb a6be b20c e63c 12fb cbbe bea2 9fbe

gconv.1.lins.2.weight f4 [16, 16]
-0.024772162 0.13206826 0.3419445 -0.19365792 -0.08295433 0.16555916 -0.1382902 0.16318922
0.04435506 0.35143736 -0.3611867 -0.035449985 0.060042888 -0.28296673 0.032154948 0.19308174
0.18024968 0.4124481 -0.2112784 -0.40115842 -0.1504362 0.32349363 -0.33933356 0.221256
0.11350951 -0.1617945 0.17604868 -0.05345503 0.11119221 -0.085030496 -0.19278963 -0.37736282
0.22014578 0.19384058 0.11824568 0.3889483 0.25678298 0.35186642 -0.3871641 0.29012904
-0.035738196 -0.35984486 -0.014134163 0.4122466 0.030948605 0.0017932975 -0.15520038 0.4354879
0.022661822 -0.34599918 -0.11963023 -0.37889734 -0.14461732 0.36290747 -0.32566518 -0.29200268
0.16116662 -0.0720594 0.3299692 0.035720024 0.25501555 0.22314636 -0.38859946 -0.174552
-0.2907803 -0.35401702 -0.36905336 0.07538644 -0.3084347 -0.14076512 -0.24341011 0.029646073
0.072190315 0.30205593 0.033938248 0.27096748 0.069422066 0.39999583 -0.1817455 -0.2931508
-0.18454391 0.4165921 -0.23202461 0.43017077 0.34090495 -0.0679852 0.11187053 -0.010740412
-0.38497278 0.38173783 0.15626968 0.23186237 0.09143355 -0.028408093 0.11970915 -0.15073466
0.40484017 -0.2450072 -0.42275816 -0.014550942 0.31925678 0.199915 0.41162133 0.00618319
-0.15791425 -0.31877524 -0.18931058 0.11588438 0.29729438 -0.23606223 0.29276884 0.09051118
-0.38530546 0.08289219 0.35424614 -0.118604355 -0.19755682 -0.05202408 -0.1094652 -0.20194076
0.04011862 0.11489593 0.24149749 -0.232468 -0.062045444 -0.22843252 0.2654833 0.12111817
0.34419405 0.20162389 -0.20992896 0.41018224 -0.32749072 -0.07545245 -0.36968014 -0.10413071
-0.031031638 -0.40398833 0.32028255 0.13891307 0.07476717 0.38295332 0.23632956 0.014566775
-0.24858357 0.062035754 -0.23103876 -0.2135853 -0.3278875 0.27367166 0.13750283 -0.034405466
-0.37408057 0.24147871 0.120002285 -0.04580324 -0.09360884 -0.16354896 0.30990988 0.37309143
0.15854912 -0.37763882 0.06672416 0.06025902 -0.1243676 0.19337237 0.32034752 0.34487203
-0.3215018 0.4333862 0.2806136 -0.38303626 -0.40429646 -0.21833032 -0.26187214 0.13061324
0.24207349 0.35570088 -0.17050977 -0.08228689 -0.029376894 0.23725098 0.2673987 0.195941
-0.05796677 -0.2979363 -0.30126587 -0.25899863 0.36904275 0.044695992 -0.0795007 0.38744536
0.37057054 0.1711243 -0.055383727 -0.28259796 -0.3367007 -0.37241536 0.32234213 0.23446368
0.13473575 -0.11029949 -0.37474933 0.07898877 -0.29422182 0.2816669 -0.011145032 -0.007845872
-0.108110204 0.029041693 0.30554458 0.42224738 -0.37503263 0.098995864 -0.0131435925 0.21054257
-0.35641888 0.41596624 0.11031991 0.42751437 -0.16771488 0.114650734 -0.009872376 -0.043244295
-0.12089042 -0.11361684 0.21615744 -0.006608327 -0.1364029 -0.036409747 0.14546618 0.18830642
-0.43269798 -0.38936293 -0.38885778 0.08674659 -0.39770716 0.2118508 -0.15085728 0.04854701
0.17798305 -0.019466018 -0.1566991 -0.3018453 0.28951296 -0.051664095 -0.16289818 -0.3405533
0.32962447 -0.22170325 -0.13153781 -0.3486239 -0.12637468 -0.25026757 0.24079217 -0.10160699
00000000: fdee cabc e73c 073e 5913 af3e 434e 46be
00000010: f6e3 a9bd 5788 293e f29b 0dbe 131b 273e
00000020: a7ad 353d 99ef b33e 77ed b8be 0134 11bd
00000030: 88ef 753d 04e1 90be e8b4 033d 38b7 453e
00000040: 5f93 383e 662c d33e 5d59 58be a364 cdbe
00000050: f20b 1abe f5a0 a53e 21bd adbe ef90 623e
00000060: ad77 e83d 75ad 25be 1b46 343e a9f3 5abd
00000070: beb8 e33d 7824 aebd a56a 45be b335 c1be
00000080: e56d 613e 257e 463e cb2a f23d 3b24 c73e
00000090: 0f79 833e d627 b43e 5f3a c6be cb8b 943e
000000a0: 3762 12bd 963d b8be fa92 67bc fd11 d33e
000000b0: ee87 fd3c 140d eb3a d9ec 1ebe 45f8 de3e
000000c0: 49a5 b93c ce26 b1be b200 f5bd d5fe c1be
000000d0: 9016 14be 02cf b93e 96bd a6be 6081 95be
000000e0: dd08 253e e193 93bd b9f1 a83e 294f 123d
000000f0: 6691 823e 7b80 643e 82f6 c6be c2bd 32be
00000100: 28e1 94be b841 b5be 90f4 bcbe 3564 9a3d
00000110: 27eb 9dbe bb24 10be 8040 79be 52dc f23c
00000120: 84d8 933d 13a7 9a3e d502 0b3d 40bc 8a3e
00000130: 282d 8e3d 41cc cc3e 7e1b 3abe dd17 96be
00000140: 14f9 3cbe 8f4b d53e dc97 6dbe 583f dc3e
00000150: 188b ae3e d33b 8bbd 601c e53d 8ef8 2fbc
00000160: 271b c5be 2473 c33e 2905 203e 546d 6d3e
00000170: 8341 bb3d 17b8 e8bc 122a f53d 305a 1abe
00000180: 3647 cf3e 2be3 7abe c273 d8be 1367 6ebc
00000190: a075 a33e 85b6 4c3e 08c0 d23e 5b9c ca3b
000001a0: 46b4 21be 8236 a3be a2da 41be ca54 ed3d
000001b0: f836 983e 4cba 71be cce5 953e ed5d b93d
000001c0: c246 c5be 61c3 a93d c05f b53e d7e6 f2bd
000001d0: 564c 4abe 3417 55bd 4a2f e0bd 8fc9 4ebe
000001e0: 6c53 243d 8f4e eb3d 1e4b 773e 170c 6ebe
000001f0: 5d23 7ebd 37ea 69be 6ded 873e ce0c f83d
00000200: 343a b03e 7e76 4e3e 9ef7 56be 6803 d23e
00000210: ddac a7be d086 9abd b746 bdbe 7b42 d5bd
00000220: 1036 febc 8fd7 cebe 13fc a33e 3a3f 0e3e
00000230: 881f 993d 7512 c43e 6000 723e 7ca9 6e3c
00000240: b18c 7ebe 3419 7e3d 6d95 6cbe 1bb6 5abe
00000250: dfe0 a7be b11e 8c3e 8bcd 0c3e bfec 0cbd
00000260: 7d87 bfbe 3246 773e c2c3 f53d 2e9c 3bbd
00000270: feb5 bfbd 6179 27be 82ac 9e3e d705 bf3e
00000280: b35a 223e e059 c1be ada6 883d 2ad2 763d
00000290: 71b4 febd 6803 463e 9704 a43e 1193 b03e
000002a0: e29b a4be cce4 dd3e 96ac 8f3e 541d c4be
000002b0: f2ff cebe fc91 5fbe 1b14 86be 7abf 053e
000002c0: 1de2 773e 6d1e b63e 1d9a 2ebe 0786 a8bd
000002d0: d0a7 f0bc ecf1 723e 7be8 883e c2a4 483e
000002e0: 906e 6dbd 1b8b 98be 853f 9abe 789b 84be
000002f0: 2cf3 bc3e 2513 373d 43d1 a2bd 3d5f c63e
00000300: 6cbb bd3e 353b 2f3e 0cda 62bd aeb0 90be
00000310: 0964 acbe 3aad bebe 070a a53e 3f17 703e
00000320: 2bf8 093e b3e4 e1bd 25df bfbe ddc4 a13d
00000330: 3ea4 96be a536 903e a799 36bc f98b 00bc
00000340: e268 ddbd d8e8 ed3c 5770 9c3e cf30 d83e
00000350: 4704 c0be 58be ca3d 3958 57bc 7998 573e
00000360: 897c b6be 87f9 d43e 68ef e13d 2ae3 da3e
00000370: 73bd 2bbe 01ce ea3d bfbf 21bc ee20 31bd
00000380: 6695 f7bd f2af e8bd 6058 5d3e aa8a d8bb
00000390: 34ad 0bbe 6322 15bd 16f5 143e 66d3 403e
000003a0: 978a ddbe 945a c7be 5e18 c7be 32a8 b13d
000003b0: 46a0 cbbe 6bef 583e 557a 1abe 3bd9 463d
000003c0: 3041 363e 3377 9fbc bb75 20be 788b 9abe
000003d0: 0b3b 943e bb9d 53bd c8ce 26be 015d aebe
000003e0: 8ac4 a83e 2d06 63be d9b1 06be d57e b2be
000003f0: 5d68 01be 1223 80be 3992 763e 5317 d0bd

gconv.2.lins.0.weight f4 [16, 16]
-0.3760747 -0.3113107 0.124392875 0.2533321 0.030925227 -0.010848179 -0.02051299 0.37807065
-0.010746151 -0.22329351 0.38376662 -0.40117997 0.35992986 0.4068036 -0.12471976 0.109816246
0.32071903 0.22716145 -0.25804588 -0.29531503 0.29314616 0.23611347 0.30543157 -0.10828975
-0.06346254 0.32781237 0.13285708 0.19345962 -0.34652317 0.0018360224 -0.32857978 0.22099125
0.2714962 0.321975 0.26638556 0.33262235 -0.057138044 -0.15385227 -0.3244334 0.11755919
0.38115337 0.28669298 -0.29173598 -0.36122912 0.10485711 -0.33208516 0.2559535 -0.15735272
0.050841287 -0.15460397 -0.24494325 -0.025575569 -0.18786213 0.35897785 0.12955001 -0.25131822
-0.07562729 -0.044125866 -0.045688108 -0.39421242 -0.32202712 -0.37117332 -0.2236236 0.35221276
0.36684242 -0.30306897 -0.38368005 0.3723166 -0.41378465 -0.23061822 -0.27669656 -0.22318266
0.37889597 0.37428328 0.04301908 -0.2609075 -0.073236115 0.22844993 -0.021653354 -0.27694818
-0.37824234 0.067693815 0.078026585 -0.060046993 -0.2949212 -0.41421238 -0.4202078 0.37333098
0.24945925 -0.24025142 0.32930496 0.16748297 -0.2620685 0.379371 0.08299269 -0.37988406
-0.16143474 0.35753256 0.27453688 0.038831245 -0.37665337 0.14090516 0.3971172 -0.38001233
-0.3944117 0.18923362 0.33341506 -0.28084058 0.1364432 -0.038481716 -0.3614211 0.31385994
-0.18302204 0.29515877 0.11012482 -0.43080875 0.35190284 0.28965086 -0.058747027 -0.18351051
0.19068484 -0.024119765 -0.23439391 -0.004978998 0.02699896 -0.14321642 -0.2978749 -0.2252778
0.33966333 -0.2096167 -0.39015928 -0.39496145 -0.22644521 -0.24281237 0.09444143 -0.385132
0.37871352 0.26835072 0.023287361 0.3680638 0.20498493 -0.26227865 -0.05204077 -0.19103159
-0.28681776 -0.12250231 -0.025087481 0.32666487 -0.34630647 -0.36746827 0.08974543 -0.3285413
-0.061882973 0.13468428 -0.30287966 -0.38858107 -0.35084963 0.36565796 0.07589296 -0.22162016
0.23902442 0.24960177 -0.3233697 -0.15470228 -0.21200833 -0.31078836 0.17886727 -0.1798412
-0.15292077 0.13129382 -0.16768214 -0.22287199 -0.014163649 -0.063072406 0.19013798 0.24735728
0.11966675 0.110235654 0.09380292 -0.028252907 0.39737096 -0.05245526 -0.04366481 -0.00753659
0.319718 -0.3836169 -0.054665834 0.14910989 -0.06285216 -0.32181633 -0.2623266 -0.069811374
0.00950521 0.36666676 0.15655473 -0.11568818 0.33228937 -0.41982344 0.2537617 -0.19710377
-0.28516322 -0.43318647 -0.20400465 -0.29371232 0.14269601 -0.085310526 -0.29446024 -0.060971815
0.27746633 0.26357943 -0.079450436 -0.2950589 -0.33613542 -0.022274204 -0.077334836 -0.21401602
-0.040248916 -0.3374041 -0.14342892 -0.18005206 0.032458592 -0.233389 0.32405314 0.37632397
-0.038898464 0.13025872 0.1758089 -0.039553694 0.28550985 0.41499037 -0.21075734 -0.07091485
0.31445378 0.36330387 0.32562375 -0.078562 0.059006594 -0.42893413 -0.3989485 -0.3832815
-0.35249135 0.22123513 0.29042873 0.38709822 0.27149248 0.07844776 -0.32774127 0.21678995
-0.08483963 0.167259 -0.2833765 -0.2085684 -0.10110042 0.22615346 0.062270768 0.05321687
00000000: dd8c c0be 1e64 9fbe b1c1 fe3d bfb4 813e
00000010: e756 fd3c 90bc 31bc dc0a a8bc 7a92 c13e
00000020: a010 30bc 0ea7 64be 0f7d c43e 7667 cdbe
00000030: ba48 b83e 9048 d03e 136d ffbd 57e7 e03d
00000040: 4935 a43e 039d 683e 971e 84be 8833 97be
00000050: 4117 963e bbc7 713e 8761 9c3e 04c7 ddbd
00000060: a6f8 81bd 06d7 a73e b00b 083e 471a 463e
00000070: 7c6b b1be b0a6 f03a 9c3b a8be 884b 623e
00000080: 8d01 8b3e e8d9 a43e b063 883e 7a4d aa3e
00000090: 9509 6abd 738b 1dbe 221c a6be dfc2 f03d
000000a0: 8926 c33e 6cc9 923e 6b5e 95be 06f3 b8be
000000b0: 53bf d63d 1107 aabe 560c 833e 1221 21be
000000c0: f43e 503d 8150 1ebe 67d2 7abe db83 d1bc
000000d0: ee5e 40be f2cb b73e c2a8 043e c8ac 80be
000000e0: 7be2 9abd 53bd 34bd 7423 3bbd 36d6 c9be
000000f0: bde0 a4be 6e0a bebe 96fd 64be 3b55 b43e
00000100: c5d2 bb3e db2b 9bbe b671 c4be 48a0 be3e
00000110: 95db d3be 2f27 6cbe 2cab 8dbe ff89 64be
00000120: a7fe c13e 0fa2 bf3e c634 303d ab95 85be
00000130: d1fc 95bd c7ee 693e 6062 b1bc 27cc 8dbe
00000140: fba8 c1be 0ea3 8a3d 67cc 9f3d d6f3 75bd
00000150: e9ff 96be a513 d4be 7a25 d7be 3d25 bf3e
00000160: 3f72 7f3e 7804 76be a99a a83e a880 2b3e
00000170: d82d 86be ea3c c23e 12f8 a93d 2a80 c2be
00000180: 264f 25be 820e b73e 1990 8c3e 830d 1f3d
00000190: b6d8 c0be 7149 103e f252 cb3e fa90 c2be
000001a0: 55f0 c9be 75c6 413e 61b5 aa3e 56ca 8fbe
000001b0: c4b7 0b3e 019f 1dbd 300c b9be 40b2 a03e
000001c0: 216a 3bbe 0d1f 973e 1f89 e13d f792 dcbe
000001d0: 9c2c b43e 1e4d 943e b9a0 70bd 2eea 3bbe
000001e0: e342 433e d096 c5bc f504 70be dd26 a3bb
000001f0: ec2c dd3c 53a7 12be 0f83 98be 39af 66be
00000200: 5ae8 ad3e c3a5 56be f5c2 c7be 6338 cabe
00000210: 41e1 67be cea3 78be 826a c13d 0630 c5be
00000220: bde6 c13e 4465 893e 23c5 be3c dc72 bc3e
00000230: 92e7 513e 6349 86be b428 55bd c99d 43be
00000240: c7d9 92be 7ee2 fabd 4384 cdbc 9e40 a73e
00000250: 154f b1be cd24 bcbe 74cc b73d 9136 a8be
00000260: 0079 7dbd adea 093e 0b13 9bbe 19f4 c6be
00000270: 90a2 b3be 8537 bb3e c56d 9b3d 65f0 62be
00000280: d1c2 743e 9b97 7f3e b790 a5be 466a 1ebe
00000290: b618 59be a71f 9fbe fb28 373e 4b28 38be
000002a0: 4397 1cbe e371 063e deb4 2bbe 8e38 64be
000002b0: a60e 68bc 1b2c 81bd 88b3 423e 3a4b 7d3e
000002c0: d713 f53d 3bc3 e13d bf1b c03d a472 e7bc
000002d0: 3574 cb3e 54db 56bd dfd9 32bd 80f5 f6bb
000002e0: 14b2 a33e 6f69 c4be 48e9 5fbd 43b0 183e
000002f0: a2b8 80bd 1cc5 a4be ac4f 86be 44f9 8ebd
00000300: bebb 1b3c bfbb bb3e e24f 203e eded ecbd
00000310: d521 aa3e 19f3 d6be 0eed 813e 92d5 49be
00000320: ea00 92be 9eca ddbe 98e6 50be 7661 96be
00000330: e71e 123e 49b7 aebd 7ec3 96be 95bd 79bd
00000340: 1110 8e3e e2f3 863e e9b6 a2bd f611 97be
00000350: f119 acbe 6478 b6bc ba61 9ebd 0427 5bbe
00000360: 0cdc 24bd 3bc0 acbe 08df 12be 915f 38be
00000370: 4df3 043d 87fd 6ebe 4bea a53e 89ad c03e
00000380: ff53 1fbd 8b62 053e 4007 343e 0e03 22bd
00000390: 592e 923e 9e79 d43e c6d0 57be ce3b 91bd
000003a0: 1600 a13e f702 ba3e 28b8 a63e 1de5 a0bd
000003b0: e6b0 713d 419d dbbe fa42 ccbe 793d c4be
000003c0: bf79 b4be 768b 623e 13b3 943e bd31 c63e
000003d0: 1001 8b3e 38a9 a03d b4cd a7be 2ffe 5d3e
000003e0: 66c0 adbd f145 2b3e b916 91be f492 55be
000003f0: bd0d cfbd c694 673e a20f 7f3d eff9 593d

gconv.2.lins.1.weight f4 [16, 16]
0.21210079 0.114072464 0.103016764 -0.41322333 0.28199026 0.023629066 0.31838652 0.14746341
0.40442303 0.21295953 0.31981805 0.19354296 -0.29724777 -0.41743818 -0.24060538 -0.26581857
0.4329347 -0.19306977 0.0009842055 -0.26996619 -0.20725955 -0.42623025 0.29362074 -0.3606891
-0.34918964 0.17008983 -0.022546057 0.42001596 0.34419394 -0.037979864 -0.11217271 -0.045963056
0.35128412 -0.22878227 0.24100657 -0.3361389 -0.42967203 0.0792309 0.2183481 -0.20320247
0.39621475 0.41443357 -0.055626962 -0.027308203 0.20722067 0.06124844 -0.3182728 -0.37996942
-0.14705126 0.16764575 0.22474262 0.092936456 -0.053093024 0.2735727 0.06954105 -0.37547737
-0.029173872 -0.0074048573 -0.13959129 -0.0006770252 -0.3749726 0.17488766 -0.013540871 0.017968124
0.40171042 0.29052627 -0.23054512 -0.053397764 -0.36206508 0.38922954 -0.3575554 -0.27679586
0.14712654 0.41006982 0.013549765 0.12813465 -0.15975733 -0.25254017 0.15672144 0.20722072
0.27845493 0.034470618 -0.4111242 -0.40853202 0.26275322 0.00010963746 -0.008854032 -0.2668767
0.35009518 -0.10393438 -0.40835574 -0.11467401 -0.1665264 -0.18715067 -0.41388744 -0.20631714
0.41482735 0.23306611 0.08713798 0.28679234 -0.041209873 0.039545607 -0.43211597 -0.083844356
-0.21867684 -0.2156065 -5.2119183e-05 -0.2704173 -0.16124722 0.048516713 0.03075823 0.26742104
-0.035858825 0.35370007 -0.23605475 -0.21403973 0.08268763 0.059891246 -0.36856127 0.023585547
-0.15100808 -0.22102779 -0.29324183 0.053618237 0.11590931 0.17098853 -0.03867723 0.034095187
0.16317205 -0.15499964 0.0741163 0.34574363 0.19052579 -0.35758507 0.03558798 -0.29779688
0.39037895 0.041903716 0.28380513 0.30701324 0.36874142 0.28609532 0.31650585 0.37869987
-0.15588233 -0.36610273 -0.3000535 0.16148235 -0.02427934 -0.09506016 -0.12090786 0.38202605
-0.028395604 -0.118897155 -0.21217279 -0.13598807 0.3143861 -0.012010525 -0.20907943 -0.19454178
-0.16190164 -0.3500884 -0.40923542 -0.018713517 -0.02529444 0.30285156 0.23902452 -0.14810775
-0.17930165 -0.33304113 -0.3286857 0.11416328 -0.044812094 0.29991516 0.25934374 0.052927356
-0.32446843 0.3883515 -0.16679817 0.035867933 -0.0844162 0.09453317 -0.33106688 0.10816954
-0.051116206 0.34445372 -0.0101966765 -0.0025066321 -0.15642923 -0.060741063 0.30891335 -0.24110998
-0.09131453 -0.21394649 0.16766083 0.21797952 -0.1977237 -0.10485318 0.1415771 -0.38182965
0.18853474 -0.3741714 -0.14699322 0.3071412 -0.095576026 0.027011469 -0.2595465 -0.3969906
0.25007376 0.22126494 0.3748034 0.29244345 0.02377615 -0.24161883 -0.066965245 0.22047554
-0.32961175 0.35714406 -0.37874183 0.032358576 -0.39841437 -0.20654735 0.21753445 0.06764967
-0.01014074 0.14320463 0.22803329 -0.045804497 -0.40636635 -0.346144 0.105376594 -0.05230584
-0.41393837 0.31329206 0.31330588 -0.020023094 0.2564004 -0.3057269 -0.37426916 -0.40636715
-0.38870168 -0.122602016 0.3150773 -0.1894876 0.015794734 -0.2773275 0.3785024 -0.08879721
-0.0111337695 0.24834406 -0.2681918 0.23177624 -0.3547945 0.19605638 -0.027567664 -0.11203782
00000000: f330 593e d39e e93d 74fa d23d 0292 d3be
00000010: 0761 903e be91 c13c 8f03 a33e a600 173e
00000020: 8910 cf3e 1012 5a3e 31bf a33e 2030 463e
00000030: dc30 98be 75ba d5be 4261 76be 5f19 88be
00000040: 9ea9 dd3e 15b4 45be 7500 813a 0239 8abe
00000050: d93b 54be da3a dabe 7555 963e 3eac b8be
00000060: fcc8 b2be 072c 2e3e 82b2 b8bc 550c d73e
00000070: 303a b03e c690 1bbd ceba e5bd c243 3cbd
00000080: 83db b33e e645 6abe 6dca 763e 661a acbe
00000090: f9fd dbbe cf43 a23d a596 5f3e 4f14 50be
000000a0: a9dc ca3e a330 d43e 19d9 63bd 74b5 dfbc
000000b0: a831 543e a5df 7a3d a7f4 a2be 5a8b c2be
000000c0: 9b94 16be 54ab 2b3e ee22 663e 7855 be3d
000000d0: 1278 59bd b911 8c3e 8a6b 8e3d 923e c0be
000000e0: 0bfe eebc 72a4 f2bb 05f1 0ebe 647a 31ba
000000f0: 69fc bfbe c015 333e 88da 5dbc e331 933c
00000100: fdac cd3e dcbf 943e 0514 6cbe 9db7 5abd
00000110: 9860 b9be 1849 c73e 8011 b7be 30b8 8dbe
00000120: 57a8 163e acf4 d13e d5ff 5d3c bb35 033e
00000130: 6d97 23be f24c 81be 967b 203e ab31 543e
00000140: a591 8e3e 1031 0d3d df7e d2be 1c2b d1be
00000150: 9787 863e 2aed e538 8010 11bc 10a4 88be
00000160: ad3f b33e 8cdb d4bd 0114 d1be 35da eabd
00000170: e685 2abe 6da4 3fbe 0ee9 d3be cd44 53be
00000180: 4064 d43e e2a8 6e3e 6675 b23d 72d6 923e
00000190: afcb 28bd 93fa 213d 4e3e ddbe 97b6 abbd
000001a0: d2ec 5fbe f3c7 5cbe 8c9a 5ab8 2374 8abe
000001b0: fe1d 25be 76b9 463d aff8 fb3c 69eb 883e
000001c0: b4e0 12bd 2d18 b53e 56b8 71be 3b2d 5bbe
000001d0: 2258 a93d 8650 753d 10b4 bcbe 7a36 c13c
000001e0: dda1 1abe 1c55 62be cb23 96be cc9e 5b3d
000001f0: dc61 ed3d 9e17 2f3e 046c 1ebd 65a7 0b3d
00000200: 9316 273e 3ab8 1ebe 49ca 973d 4f05 b13e
00000210: 3119 433e 6415 b7be b4c4 113d d578 98be
00000220: c0df c73e 3ba3 2b3d e84e 913e d730 9d3e
00000230: adcb bc3e 167b 923e 0e0d a23e f3e4 c13e
00000240: 9e9f 1fbe d171 bbbe 9da0 99be a15b 253e
00000250: 77e5 c6bc e7ae c2bd 8a9e f7bd eb98 c33e
00000260: e69d e8bc 5a80 f3bd d343 59be 7540 0bbe
00000270: 37f7 a03e cbc7 44bc eb18 56be f635 47be
00000280: 8bc9 25be c93e b3be 4e87 d1be 174d 99bc
00000290: 4936 cfbc 5c0f 9b3e d8c2 743e 8fa9 17be
000002a0: da9a 37be 5e84 aabe 7e49 a8be 70ce e93d
000002b0: e38c 37bd 7b8e 993e b4c8 843e 5bca 583d
000002c0: ba20 a6be 02d6 c63e 24cd 2abe 41ea 123d
000002d0: 67e2 acbd 9b9a c13d 9981 a9be fe87 dd3d
000002e0: 3a5f 51bd 3d5c b03e f60f 27bc 4f46 24bb
000002f0: fc2e 20be 9fcb 78bd e429 9e3e 89e5 76be
00000300: 1d03 bbbd ca14 5bbe 48af 2b3e 0636 5f3e
00000310: 1578 4abe 44bd d6bd 96f9 103e 2d7f c3be
00000320: 400f 413e 6593 bfbe 6485 16be 9d41 9d3e
00000330: 5dbd c3bd 2847 dd3c 47e3 84be 5a42 cbbe
00000340: ab09 803e 4793 623e 3be6 bf3e 26bb 953e
00000350: 33c6 c23c ed6a 77be 1325 89bd 57c4 613e
00000360: dfc2 a8be 96db b63e 73ea c1be 6d8a 043d
00000370: f8fc cbbe 2681 53be 5ac1 5e3e e98b 8a3d
00000380: 5925 26bc 3ca4 123e 8f81 693e 7f9d 3bbd
00000390: 400f d0be c939 b1be afcf d73d a63e 56bd
000003a0: bbef d3be d167 a03e a169 a03e 7907 a4bc
000003b0: ea46 833e 3c88 9cbe 35a0 bfbe 5b0f d0be
000003c0: e803 c7be c416 fbbd d051 a13e 0a09 42be
000003d0: f563 813c dffd 8dbe 11cb c13e 50db b5bd
000003e0: 6a6a 36bc e84d 7e3e 7050 89be c056 6d3e
000003f0: a0a7 b5be 01c3 483e 95d5 e1bc 1674 e5bd
