pth/fold6.pth (torch, 639596 bytes, 46 tensors)

gconv.0.lins.0.weight f4 [16, 2000]
000000 2e 2e 67 3c 7c 93 8d 3c ea 75 3b bd 65 49 c1 3c
       0.014110131 0.01728224 -0.04576675 0.023594568
000010 6b 1a 8a bc 1e 1a 24 bd cf 93 81 bb d3 f2 b8 bc
       -0.0168583 -0.04006397 -0.0039543877 -0.022576725
000020 9a 5e 02 bd 14 1b 48 3d 2d a2 a3 3c 9b cc 17 3c
       -0.0318285 0.04885395 0.019974792 0.00926509
000030 f6 ee 51 3d 88 e3 e2 bc da 6b 5a 3c 7b d1 24 bc
       0.05125328 -0.027696386 0.013331378 -0.01005971
000040 23 26 7b 3d af 2c 79 3d 65 88 07 3d 5b ce 38 3c
       0.061315667 0.06083363 0.03308906 0.011279668
000050 2d cf e9 3b 95 b9 10 3d e9 7c 02 bd bc bf fa 3c
       0.007135293 0.035333235 -0.031857405 0.030609004
000060 c2 92 06 3d 65 64 2a bd 95 c3 59 3d d8 96 24 3c
       0.032854803 -0.04159965 0.053165037 0.01004573
000070 00 70 c6 bc 98 30 48 bd 70 a7 d4 bb f2 19 97 39
       -0.024223328 -0.048874468 -0.0064896867 0.00028820295
000080 ad 23 f0 3c 1e f9 05 3d f9 cb f9 3b 9a 68 bf 3c
       0.029313887 0.03270828 0.0076231924 0.023365308
000090 6e d2 84 3d 15 5a 52 bc 12 60 de bc 63 b4 34 3d
       0.06485449 -0.01283886 -0.02714542 0.044117343
0000a0 1b f8 1b bd 2b 3c 1c bd 13 56 01 bd 22 fa 7f bb
       -0.03807841 -0.03814332 -0.031576227 -0.0039059003
0000b0 0f 30 9f 3b ee 43 fc 3c f6 42 bb 3c 82 ff 28 bc
       0.004858024 0.03079411 0.022859078 -0.010314824
0000c0 3a c5 92 bc 57 43 83 bd 43 c5 75 bd 95 5b b2 bc
       -0.01791631 -0.064093284 -0.060002577 -0.021772185
0000d0 b4 bb ec 3a 09 90 0b bd db 8d 05 3b 3c be ce 3c
       0.0018061311 -0.03407291 0.0020378742 0.025237195
0000e0 36 fe fd 3b 51 8a e0 3b 01 ab 35 bc 00 fa 51 bc
       0.0077512516 0.006852426 -0.011088134 -0.012815952
0000f0 4f ec d5 3c 19 74 1e bd 0a 84 6a bd b4 19 05 bd
       0.026113657 -0.038684938 -0.05725483 -0.032495216
000100 97 c6 b0 3c 38 80 96 bc 62 ce 50 bd da 26 12 3d
       0.02157907 -0.018371686 -0.050978072 0.035681583
000110 45 38 f9 3c 4e 74 8e bd 9d 7c 3d bd 28 b1 41 bd
       0.03042234 -0.06955777 -0.04626142 -0.04728809
000120 08 4e 54 bc 9f ba 6b bd 23 6c 69 bd 18 87 6e 3d
       -0.012958057 -0.057551023 -0.056987893 0.058234304
000130 ab e9 03 3d 9f 05 1b bd 03 4b 07 bd 2c 2d 16 3d
       0.032205265 -0.037847158 -0.03303052 0.036664173
000140 e1 73 cf bc bc e7 4f 3c af b3 40 3d 59 fe 38 bd
       -0.02532381 0.012689527 0.04704636 -0.04516444
000150 05 76 6a bc c8 1b 5c 3c 1a 47 15 bd cb d8 85 3c
       -0.014310365 0.013434358 -0.03644476 0.016338727
000160 4d e2 0f bd 6c 0f be bb 84 06 94 3c 08 aa 03 bb
       -0.035127927 -0.0058001783 0.018069513 -0.002009036
000170 78 cb 46 3a 72 7d e2 3c 5d 22 16 bd da ad 31 bd
       0.000758342 0.027647708 -0.036653865 -0.04337869
000180 61 95 f6 bc 65 2d 17 3d 78 31 fb 3c df cf f8 bb
       -0.030100526 0.036908526 0.030663237 -0.0075931395
000190 61 b9 56 bd e6 4d 80 bd f0 18 8f 3c b1 04 8b 3b
       -0.052422885 -0.06264858 0.017467946 0.0042425026
0001a0 85 e3 d1 bc 1e a3 a7 3a 8f e0 36 3d fd 5a f9 bc
       -0.025621185 0.0012789702 0.04464775 -0.030438894
0001b0 ac 47 58 bd 79 a9 c6 bc 54 a7 0d 3d 19 6c cd 3c
       -0.052802727 -0.024250733 0.034583405 0.025075959
0001c0 eb ec cd 3c 8b 8c 81 bd ff 52 11 3d 07 84 44 3d
       0.025137385 -0.063256346 0.035479542 0.047977474
0001d0 c6 5a 41 3c 00 e1 a9 3c 20 d4 fc bc 9e 24 21 bd
       0.011801427 0.020737171 -0.030862868 -0.03934156
0001e0 c5 35 4d bd bd da 57 3c 70 c9 4e 3c d4 fa 5e bc
       -0.050100107 0.01317471 0.012621269 -0.013609607
0001f0 47 71 2e bd 59 bd bb 3c c1 9c 54 bd 54 6f 52 bd
       -0.0425885 0.022917436 -0.051907305 -0.051375702
000200 4a b9 24 bd c8 aa 1e bd 31 53 9b bb 95 12 1b 3c
       -0.040215768 -0.03873709 -0.004740142 0.0094648795
000210 98 c1 58 bd 59 11 bf 3b 80 64 0e bd 72 44 34 3d
       -0.052919 0.0058309254 -0.034763813 0.044010587
000220 4a b2 bc bc f9 12 72 3b 84 89 15 bd a5 86 13 3d
       -0.023034234 0.0036937578 -0.0365081 0.03601708
000230 90 dd c7 bc 8f 80 2c 3d 0e d5 22 3d 10 4d 17 bb
       -0.024397641 0.04211479 0.039753966 -0.0023086704
000240 99 3b ba 3c ca 0f 24 3d d8 47 21 bd 8a 45 56 bc
       0.022733497 0.04005412 -0.039375156 -0.013078103
000250 ee 12 7c 3b 44 ef 0d bd 9b 65 cb bc 34 5f 8a bc
       0.0038463431 -0.03465201 -0.024828723 -0.0168911
000260 e9 07 22 3d 38 65 7e b9 d7 9f 66 bd 22 65 c7 3c
       0.039558325 -0.00024261035 -0.05630478 0.024340216
000270 7a e3 ed 3c 43 44 ca 3b e4 e0 2a bd 82 af 52 bc
       0.029039133 0.006172688 -0.04171838 -0.012859227
000280 1d 55 b9 3c ab 3d 48 3d 55 a0 64 3a 81 5d ad 3c
       0.022623593 0.048886936 0.0008721401 0.02116275
000290 36 dd 17 3d c4 5d 51 bd 9b c2 8e 3c 29 62 3c 3d
       0.037076198 -0.051114812 0.01742678 0.04599205
0002a0 83 93 c2 3c 45 1c e9 3c cf 71 90 3c b2 6c 76 bc
       0.02375198 0.028455863 0.017632393 -0.015040563
0002b0 aa 16 5e 3b a2 69 56 bc 0e 07 46 bd 29 74 12 3d
       0.003388802 -0.013086708 -0.04834657 0.03575531
0002c0 c9 eb 7f bc 0e a5 9e bc bf 17 4c bd a6 43 60 bd
       -0.01562018 -0.019365814 -0.049827334 -0.054752015
0002d0 d9 9b 01 3c 6d 98 5e bc 42 bb 6a 3c a1 75 8b bc
       0.007910692 -0.013586146 0.014326872 -0.017023863
0002e0 ea ac 9d bc e7 e3 46 bd 30 0d 7d bd 75 fe 67 bd
       -0.01924749 -0.04855719 -0.061780155 -0.056639154
0002f0 94 6c fd 3c 5b d6 22 3d fd d0 36 3c 67 85 c0 3c
       0.030935563 0.039755207 0.011158225 0.023501111
000300 75 48 f4 3c 10 9c 7e bc 6c 5e 13 3c 5d 01 e2 bc
       0.029819706 -0.015540138 0.00899468 -0.02758854
000310 a2 29 01 3d 55 02 4c bd b6 32 1c bc e8 12 5c 3d
       0.031533845 -0.04980691 -0.009533575 0.053728968
000320 04 a2 c7 3c 37 5d 88 3c 13 0b f5 bb a5 cb c1 3c
       0.024369247 0.01664601 -0.007478127 0.023656676
000330 c5 c8 22 3d e3 f2 b9 bc 47 6f 24 bd 65 b3 60 bd
       0.03974225 -0.022698825 -0.040145185 -0.054858584
000340 ac 34 67 bd df 65 90 bc 36 12 55 bc 6a 73 33 3d
       -0.056446716 -0.0176267 -0.01300483 0.04381124
000350 ba b4 29 3b 4c 85 84 bc dd 36 56 3d 03 cc 03 3c
       0.0025895075 -0.016176842 0.052298415 0.008044246
000360 aa b3 20 bd 42 7d 50 bd fe 4c b5 bc 33 8c fd 3b
       -0.03923384 -0.050900705 -0.02213144 0.0077376603
000370 31 92 33 39 2e 7a 27 bd 6a 46 4b bd 6d d2 ff bc
       0.00017125231 -0.040888004 -0.0496277 -0.031228269
000380 7f ac c8 3c e8 83 eb 3c b9 3e f4 3c d5 09 19 3c
       0.024496315 0.028749421 0.029815065 0.009340723
000390 1d 5a 10 bd c9 ff 1c 3d b1 07 6b 3c 88 48 b9 3c
       -0.03524219 0.038329873 0.0143450955 0.022617593
0003a0 e6 2c 31 bd 64 86 a9 3a e3 0a e1 3c 4d c2 02 3d
       -0.04325571 0.0012933728 0.027471012 0.03192358
0003b0 98 18 25 bd 42 89 ba bc f5 81 05 3d 6e af 99 3c
       -0.040306658 -0.022770528 0.03259464 0.01876041
0003c0 9a 18 31 bc 6a 92 11 bc 3f ca 79 3b 2d 9c 38 bd
       -0.010809088 -0.0088850055 0.0038114933 -0.045070816
0003d0 e1 e4 e7 bc 80 53 db 3c 3c 13 44 bc c9 79 53 3c
       -0.02830738 0.026773214 -0.011967476 0.012907454
0003e0 15 e7 e4 3c 7e b8 1d 3d 67 64 01 bd 3c 74 ac 3c
       0.02794222 0.038506024 -0.03158989 0.021051519
0003f0 6d 20 20 3d 94 f5 45 bd 3c ab 36 3d c1 05 1d 3d
       0.039093424 -0.048329905 0.044596896 0.038335565

gconv.0.lins.1.weight f4 [16, 2000]
000000 d9 7e 59 bb 3c a9 10 3d 8c 99 9b bc c3 80 16 bc
       -0.003318718 0.035317644 -0.018994115 -0.009185973
000010 ce d7 32 bd 26 c3 34 bd 64 fb 3b 3d c4 78 65 3d
       -0.04366284 -0.04413142 0.04589404 0.056023374
000020 01 80 0a bd 5f af 45 3d 0e 17 40 bc 98 ee 45 3d
       -0.03381348 0.04826295 -0.011724247 0.048323244
000030 fa 7f c8 bc 76 be 70 bc bd c4 09 bd 93 11 e7 bc
       -0.024475086 -0.014693847 -0.03363489 -0.028206622
000040 3b c3 48 3c 0b a0 33 bc 83 e7 5a 3d 8a f7 47 3c
       0.012253578 -0.01096345 0.053443443 0.012205014
000050 ea 19 dc bc f6 a7 e1 bc c9 94 e0 3c e4 64 cd 3c
       -0.026867826 -0.02754591 0.027414696 0.025072522
000060 35 6a a8 bc 74 9f 3b 3d 23 11 63 3d 97 4d f6 3c
       -0.020558456 0.045806363 0.055436265 0.030066295
000070 4f 1d b9 bc 91 37 4e 3d fc 9a 2f bd eb b0 ef 3b
       -0.022596983 0.05034596 -0.042872414 0.0073147914
000080 90 67 fb 3c 60 cb 64 3d 37 7d 08 bd b2 e4 47 3d
       0.03068903 0.055858016 -0.03332254 0.048802085
000090 63 4f 17 3b 39 40 b3 3c b3 43 27 bb fc 52 0a 3d
       0.002308809 0.02188121 -0.002552253 0.033770546
0000a0 d5 9e 52 3d 09 a8 10 bd 49 0c 00 3c 67 b2 9c bc
       0.051421005 -0.0353165 0.007815429 -0.019128038
0000b0 a7 48 96 bc bb ca 02 3d 5f 6f b6 3c 28 52 9a 3c
       -0.01834519 0.03193162 0.022269903 0.018838003
0000c0 f6 d3 01 bc db b0 6f 3b e3 dd ee 3c 33 68 f3 3c
       -0.007924071 0.003657392 0.029158538 0.029712772
0000d0 c1 1e 8f 3c a5 51 5b bc 40 ac fc 3c d8 0d c2 3c
       0.01747072 -0.013386165 0.030843854 0.023688242
0000e0 41 1c 1a bc 42 d4 e1 bc ad ab 08 bd 97 84 f0 3b
       -0.00940615 -0.027567033 -0.033366848 0.0073400247
0000f0 a9 ca 55 3c e7 19 c5 bb 40 cc 52 3d b0 55 45 3c
       0.013048806 -0.0060150507 0.05146432 0.012044355
000100 d0 e7 94 3c 54 28 ff bc a1 ab be bc 53 e3 44 bd
       0.018176943 -0.03114716 -0.023275198 -0.048068356
000110 f4 00 5a 3b 76 5e 29 3b 2f 48 46 3d 23 87 bd bb
       0.0033264728 0.0025843657 0.048408683 -0.005783932
000120 eb a6 d3 3c 31 8e dd bc 69 16 3f 3d 17 69 b0 3a
       0.025836429 -0.027045341 0.04665223 0.0013459054
000130 24 9b 21 bd 14 18 34 3d fb 6f 1a 3d 8f 4d 34 3d
       -0.039454594 0.043968275 0.03770445 0.04401928
000140 10 53 d9 3c 08 aa ea 3c 54 62 2b 3c 1b af 3f 3d
       0.026528865 0.02864553 0.010460455 0.046797853
000150 c3 7b d8 3c b7 ba fd bc 3d 3e 4d 3d e6 c2 e1 ba
       0.026426202 -0.030972822 0.050108183 -0.0017224222
000160 a4 9a 1d 3d 9e f6 28 3d 66 ba 04 3d 3b 76 c7 bc
       0.038477555 0.041250817 0.032404326 -0.024348369
000170 c8 31 52 bd f6 58 d2 bb 0b 6e ad 39 46 b5 21 3d
       -0.051317006 -0.0064192964 0.0003307912 0.039479516
000180 03 84 22 3d 1a 7a 9a 3c fd c5 b9 3c 65 46 23 bb
       0.039676677 0.01885705 0.022677416 -0.0024913785
000190 e4 51 be 3c da aa a5 3c 9b e8 8e 3c 10 89 b5 bb
       0.023232408 0.02022307 0.0174449 -0.0055400208
0001a0 83 20 e1 3c ea 6d 21 bc 36 8f 12 bd d7 9b 89 bc
       0.027481323 -0.009852866 -0.035781108 -0.016797943
0001b0 eb 43 26 3d 8a 96 5f 3d 13 59 e4 bc 6b eb 1b 3d
       0.040592115 0.054586925 -0.027874505 0.03806631
0001c0 ac 5f 00 3c b7 1e 9c 3c 41 33 a1 3a 1b 40 54 3d
       0.00783531 0.019057615 0.00122986 0.05181895
0001d0 d4 22 9e bc 57 42 38 3d 85 ed 19 bd c2 36 c2 3c
       -0.019303717 0.04498514 -0.037580032 0.023707751
0001e0 8d db 30 3d 2e ed 5a bd 68 8e 41 bd 6a 77 13 3d
       0.04317813 -0.05344885 -0.04725495 0.036002554
0001f0 24 11 25 3d c1 28 1b bd 72 50 d9 bb 16 22 3e 3b
       0.04029955 -0.037880663 -0.0066319043 0.0029012016
000200 0a 19 21 bc 0e c3 55 bc af cc d4 bb 47 6d 44 3d
       -0.00983263 -0.013046993 -0.0064941267 0.047955777
000210 4f 64 07 bd ed 66 e3 3c 30 ca fc 3c 4d 19 37 3c
       -0.033054646 0.02775904 0.03085813 0.011175466
000220 84 af 1b bc f4 dc 77 3c d6 bc 1c 3c 8a b4 9c 3b
       -0.009502295 0.015128363 0.009566506 0.004782264
000230 84 82 f4 bc be 74 1d 3d 8e 64 c6 3c ff d3 3c bc
       -0.029847391 0.038441412 0.02421787 -0.011525153
000240 79 ff 19 3d 74 5f ee bc 4c 82 b0 3c 60 e1 e4 3c
       0.037597153 -0.02909825 0.021546505 0.027939498
000250 84 0c a9 bc 88 3a 10 bc ea 3a 33 3c be ce 35 bd
       -0.02063585 -0.008803017 0.010939339 -0.044386618
000260 49 b2 0c bc d7 63 0d 3c c6 28 27 bb 9b e0 42 bb
       -0.008587428 0.008629761 -0.002550648 -0.0029735926
000270 da 99 a6 bc 30 86 41 3c 6b b7 3e 3d 1f c5 c8 3c
       -0.020337034 0.011811778 0.04656164 0.024508057
000280 36 32 3e bd 88 17 d0 3c 32 59 0d 3d b6 74 30 3d
       -0.046434604 0.025401846 0.03450889 0.043080054
000290 f8 aa 17 3c 99 10 68 3c 0d a3 c4 bc 86 fc 12 3d
       0.009257071 0.014164113 -0.02400353 0.035885356
0002a0 0a 23 9a bc 72 ff 0e 3c d8 1b 8b 3c a6 2b 2d bd
       -0.018815536 0.008727895 0.01698105 -0.042277955
0002b0 4a da 1e bd 95 f4 59 3d ce 0f 42 3d 36 33 72 3c
       -0.038782395 0.053211767 0.047378354 0.014782717
0002c0 c2 96 01 bd 00 ba 0f bd 3a e0 24 3d d7 8b ea 3a
       -0.031637914 -0.035089493 0.0402529 0.0017894459
0002d0 3c 94 38 bd c6 04 70 3c 40 7e 25 bd 1c bb 66 3d
       -0.045063242 0.014649576 -0.040403605 0.056330785
0002e0 0d 2b 03 3d 95 b1 ab bc 4a 4b 09 bc 40 af 47 3d
       0.03202348 -0.020958701 -0.008379767 0.048751116
0002f0 52 fd 41 3d b4 8c ed bc 99 93 4b bd 84 a3 23 bd
       0.047360726 -0.028997757 -0.049701307 -0.039950863
000300 6b 55 13 bd 90 db 15 bc 42 3b 7b 3b ea 76 29 bd
       -0.035970133 -0.009146586 0.003833488 -0.04137317
000310 64 a0 43 bd 49 8a f1 ba aa 8c 89 bc 50 bb 8b bc
       -0.047760382 -0.0018428053 -0.016790707 -0.017057091
000320 f6 be 1e 3c ed 99 18 bd 22 56 1f 3d 3c 9e c6 bb
       0.009689083 -0.03725617 0.038900502 -0.0060613435
000330 3d a8 28 bd aa 99 0c 3d ad 90 18 bd 21 b1 9b 3b
       -0.04117607 0.034326233 -0.03724735 0.00475134
000340 94 bd 2d bd a8 f7 41 3d ad fe 1b bc b2 16 aa bb
       -0.042417124 0.047355324 -0.009521169 -0.005190694
000350 15 ec cb bc 41 0f 3d 3d 51 c1 27 bd 94 c8 37 3d
       -0.024892846 0.046157125 -0.040955845 0.04486902
000360 70 29 89 bb 73 dc 12 bc 6a 58 e6 bb 72 af 79 3c
       -0.004185848 -0.008963692 -0.0070295827 0.015239583
000370 de 29 bf bc 53 92 af ba d6 56 92 bc 21 70 12 3d
       -0.023335394 -0.0013395048 -0.017863672 0.035751466
000380 79 c8 27 bd ab dc e0 3c ce 63 1e bc 80 61 3d bc
       -0.04096267 0.027448973 -0.00966735 -0.01155889
000390 89 45 7e 3c 8d c4 c1 3c 69 dc 3b 3d f8 53 35 bd
       0.015519508 0.023653293 0.045864496 -0.044269532
0003a0 98 43 0a bd a7 eb eb bc 22 29 12 bc 06 25 75 3c
       -0.03375587 -0.028798891 -0.00892094 0.01496244
0003b0 fb 95 0f bd 18 de 27 3c 3f e8 4c 3d d0 3c da 3b
       -0.035055142 0.010245822 0.050026175 0.0066600814
0003c0 2d fc 4e 3d 5b 91 b0 bc 36 1a 95 3b 6e ff 66 3b
       0.050533462 -0.021553686 0.0045502437 0.0035247463
0003d0 fb a4 10 bd 46 6f 86 3b b0 e3 3d 3c 0f c8 36 bd
       -0.035313588 0.0041026203 0.011589929 -0.044624384
0003e0 9e 97 0b 3d 4b b2 a3 bc 72 6a 1a bd 79 df b4 3c
       0.03408014 -0.019982478 -0.03769917 0.022079216
0003f0 2f d2 2e 3c 6f 75 1d 3d f6 4c 29 3d 45 79 4e bd
       0.010670229 0.03844207 0.04133316 -0.05040862

gconv.0.lins.2.weight f4 [16, 2000]
000000 68 89 45 3c 77 c9 37 3c 44 b5 6f 3c 54 7c 98 bc
       0.012056686 0.011217467 0.014630619 -0.018613972
000010 10 b6 91 3b 68 43 0d 3c 29 f8 ef bc 82 bd cc 3c
       0.0044467524 0.008622028 -0.029293137 0.024992708
000020 46 c3 57 bd e9 44 86 bd 82 c1 6a bd 49 b8 42 3c
       -0.05267646 -0.06556112 -0.05731345 0.011884757
000030 13 52 84 3c 65 8e 15 bd 61 7a 83 3a 8b 53 fc 3c
       0.016152417 -0.03651275 0.0010030979 0.030801555
000040 cc d4 16 3c 86 e9 b7 bc 9c c6 26 3b 3a f7 1f 3d
       0.009206008 -0.02245022 0.002544797 0.039054133
000050 d6 90 aa bb 62 31 16 3b f0 80 e5 bc ba a5 b3 bb
       -0.005205254 0.0022917618 -0.028015584 -0.0054824026
000060 4b 60 67 ba 11 f3 58 3a 26 11 a3 bc ba 88 ac bb
       -0.00088262995 0.0008275966 -0.019905638 -0.0052653225
000070 6e 8a 99 bd 5f b2 49 bc 8c 2c 23 bd b3 77 0d bd
       -0.074971065 -0.012310593 -0.039837405 -0.034537982
000080 90 a4 34 bd fc 82 3d bd 92 af ba bb 81 b6 1a bd
       -0.04410225 -0.046267495 -0.005697199 -0.037771706
000090 cb 8a 93 bd 6b 95 0a bc e6 8f ac bb 17 9a 2c 3d
       -0.07204207 -0.008458476 -0.0052661775 0.04213914
0000a0 08 cf 75 bd 71 29 9e 3c ea 96 11 3d 18 bf 52 3d
       -0.060011894 0.01930687 0.035544313 0.051451772
0000b0 6e 1d 40 3d aa 3b 34 bc 8e f6 ff bb 05 48 2a bd
       0.046903066 -0.011000553 -0.007811374 -0.04157259
0000c0 38 5d 10 bd 6c 72 52 3c 3c dd 35 3c e2 4c 37 3d
       -0.03524515 0.012844663 0.01110011 0.044751056
0000d0 03 83 0d bd c4 b1 1a bd 51 e0 8c ba 56 b2 25 3c
       -0.03454877 -0.037767187 -0.0010748004 0.010113319
0000e0 d8 e8 b4 3b c2 ce 49 3d 07 4e 1f bd f2 38 4b bd
       0.005520921 0.049269445 -0.038892772 -0.049614854
0000f0 f2 77 0d bd e1 9f 41 3d 92 2b 45 3b 0b 8a e8 3c
       -0.034538217 0.047271613 0.0030085784 0.028386137
000100 0a 85 3e bd 20 86 cb 3c ae ed f3 3a 9a a9 1e bd
       -0.046513595 0.02484423 0.0018610263 -0.038735963
000110 f8 e5 86 3b 3b 77 29 bd 27 0c 62 3d e5 64 70 bc
       0.00411677 -0.041373473 0.05518737 -0.014672493
000120 65 75 0a bd 3d a3 80 bc 49 a6 62 3d a1 dc c1 3c
       -0.033803362 -0.015702838 0.055334363 0.023664774
000130 f6 3d cb 3c 75 6b 3c 3b a1 93 62 bc 00 b2 55 bc
       0.024809819 0.0028750573 -0.013829143 -0.013042927
000140 fd ee 26 bc 4d f2 9a bc 8b 4e 49 bd e7 e7 be 3c
       -0.010188815 -0.018914366 -0.04914717 0.023303939
000150 7b 5a 92 3c ef c6 3f 3d 69 5c 9b 3c 09 31 e4 3c
       0.01786541 0.046820577 0.018964963 0.027855413
000160 3f ab 83 bc ce ec 18 3d 7c 27 4d 3d c3 7f 84 bb
       -0.016072867 0.03733521 0.050086483 -0.0040435507
000170 52 ce a9 bc 48 99 94 3c 72 4b a4 ba 3f f7 5c bd
       -0.020728264 0.018139496 -0.0012534691 -0.05394673
000180 a5 f4 38 3c ab f9 03 bd 6f e6 1d bd 62 1a 88 bc
       0.011288797 -0.032220524 -0.038549837 -0.016614143
000190 bb 51 fc 3c c7 5f 9c 3c b0 54 3d 3c c6 5b 42 3d
       0.03080069 0.019088639 0.011555836 0.047450803
0001a0 a7 bb c9 3b fd 1f 45 3a 22 1e 19 3d 80 0f e7 3c
       0.006156403 0.000751972 0.037382253 0.028205633
0001b0 73 ec 72 bd 8a 1a 72 bd 2f 50 46 bd 2b 98 a2 bc
       -0.059307527 -0.05910734 -0.048416313 -0.01984795
0001c0 de 03 fe 38 e5 26 ea 3c f7 b1 2b 3c 50 29 ea bc
       0.00012112384 0.028583 0.010479442 -0.028584152
0001d0 7c 44 82 bd 70 be 54 39 a9 31 82 bd 5e e9 2e 3d
       -0.063607186 0.00020288839 -0.06357128 0.042703025
0001e0 2c fb ce 3c 8c 38 a0 3c 6e 6f c9 bb ee 1a 01 bd
       0.025266252 0.019558214 -0.0061473167 -0.031519823
0001f0 ad 86 af 3a a0 a6 f0 3c aa 5a 39 3c b9 1f 27 3c
       0.0013391577 0.029376328 0.01131312 0.010200434
000200 37 5d 1e bd 33 f9 7b bd f8 76 c1 3c 94 25 af 3c
       -0.038663115 -0.06151695 0.023616299 0.021380223
000210 24 56 3d 3d e2 f2 6a bd ea c0 ac bc c0 ea 1a bc
       0.04622473 -0.057360537 -0.021088082 -0.009455383
000220 be 1b 03 bd 31 93 74 bd d9 89 2c bd 00 20 82 3b
       -0.03200888 -0.059710685 -0.04212365 0.0039711
000230 fc d8 2d 3c 5a 3a cf bc de e1 ab bc 02 c6 e9 bb
       0.010610815 -0.025296379 -0.020981725 -0.0071342
000240 88 48 6b 3c a7 53 0f bc 8a 01 e3 ba b7 96 21 3c
       0.0143605545 -0.008747972 -0.0017319184 0.009862593
000250 61 94 75 3a 5f 9c f2 3c 7e bb 41 bd 7a 37 0e 3d
       0.00093681185 0.02961558 -0.047297947 0.034720875
000260 84 19 dd 3c 66 7f 71 bd ef 66 3f bc 27 a4 88 3c
       0.026989706 -0.058959387 -0.011682256 0.016679836
000270 5c 69 51 3d 40 c2 55 3c 41 76 19 3d ca 11 3a 3d
       0.05112587 0.013046801 0.03746629 0.04542712
000280 1c b4 1d bd dd 8c 5f bb 56 ff e8 3c 0e 2e b0 bc
       -0.038501844 -0.003411106 0.028442066 -0.021506336
000290 03 72 1b 3c b8 46 15 bd bc 7e ca 3c 3d 8f 42 bc
       0.009487632 -0.036444396 0.024718635 -0.011874971
0002a0 af f9 63 bd d4 1d 3a 3d 9b 13 03 bd 7d f1 ae 3b
       -0.05565804 0.045438603 -0.03200112 0.0053388462
0002b0 ae 5e ed 3c 02 47 1d 3d 8c 44 74 3d 74 97 24 bc
       0.02897581 0.038397796 0.059635684 -0.010045875
0002c0 88 80 b9 3c 2f 81 5a 3c 34 3a 5e bb 8d 2f 46 3d
       0.022644296 0.013336464 -0.0033909203 0.04838519
0002d0 d4 bd 5a ba 7b cb a8 bc e9 1d 1d bd 70 b9 ff bc
       -0.00083443266 -0.02060484 -0.038358603 -0.031216353
0002e0 49 8b fb bc ec e8 78 bd 1c 16 14 bd 72 ce aa 3c
       -0.030706065 -0.060769007 -0.036153898 0.020850394
0002f0 f5 4e da bc 02 48 27 bd 51 ab 37 3d 76 8a 51 3d
       -0.026648978 -0.040840156 0.044841114 0.051157437
000300 ee b1 d5 bc 88 a4 b3 bb 62 21 fb bc 06 9a 57 bd
       -0.02608582 -0.00548226 -0.030655567 -0.052637123
000310 fe 98 2e bc 47 33 1a 3d ba b5 34 3d 0c 0e 0a bc
       -0.010656593 0.037646558 0.04411862 -0.008426201
000320 14 97 d2 3c ad 28 18 bd bb 0c e4 bc 45 f9 d6 3c
       0.025706805 -0.037148166 -0.027838102 0.026241908
000330 6d 41 11 bc 2c cd c8 3c 95 bc a1 3c 24 ff 8c bc
       -0.008865696 0.024511896 0.019743243 -0.017211504
000340 21 4e d3 3c 14 26 8a bb 86 ff 2b bc 24 96 e3 3c
       0.02579409 -0.004215965 -0.010497933 0.027781554
000350 ad 03 f1 bc 43 51 26 3d b6 8a ad 3c d9 42 88 bc
       -0.029420698 0.04060484 0.021184307 -0.016633438
000360 85 cc 49 3d ef 29 a9 3c f8 c6 42 bd 6e a0 d3 bc
       0.04926731 0.020649878 -0.047553033 -0.025833335
000370 e8 41 31 bd fb 63 56 3c e9 58 1d 3d 2a 2d f4 3a
       -0.043275744 0.013085361 0.03841487 0.0018629183
000380 49 01 e2 3c 16 e5 e4 bc b2 e6 bf bc dc 45 3c bc
       0.027588503 -0.027941268 -0.023425434 -0.011491265
000390 61 56 86 bd b7 9b c3 bc af d7 dc bc ca ad 2d bd
       -0.06559444 -0.023877962 -0.026958315 -0.042402066
0003a0 59 c6 cb 3c a5 eb a4 3c 76 4f 4d bd f7 d3 7a bd
       0.024874853 0.020131895 -0.050124608 -0.0612373
0003b0 92 f8 31 3d 33 fd 3b 3d 20 af 39 3c de a6 22 bc
       0.043449946 0.045895766 0.011333257 -0.00992748
0003c0 cd 98 6e 3c 63 3c 5a 3c 0f 57 d6 bc a7 f6 6f bd
       0.014562798 0.013320061 -0.02616456 -0.058584835
0003d0 a9 3a c6 3c 78 42 08 3d 66 1c 21 bd 4e f7 5e bd
       0.024197893 0.033266515 -0.039333723 -0.054435067
0003e0 6d 0d 3c bd e6 61 cd bc e9 51 8b bc de 0e 25 bd
       -0.04591124 -0.025071096 -0.017006831 -0.04029738
0003f0 a8 7d 84 bd d6 bf 21 3c 37 39 ff bb 33 f7 89 bd
       -0.064692795 0.009872397 -0.007788803 -0.06736603

gconv.1.lins.0.weight f4 [16, 16]
000000 f1 4c ce 3c 2a 2a bf 3d 2d 33 ae be 07 49 71 be
       0.025183173 0.09334214 -0.3402342 -0.23563014
000010 39 b3 1e 3d da 3e 3d be 74 c0 e0 bc 8c dc 16 be
       0.03874514 -0.18481007 -0.027435519 -0.1473257
000020 e8 b5 3f be fc 8b 70 3e 57 36 aa bd 38 e3 d1 3e
       -0.18721735 0.234909 -0.08311146 0.40993667
000030 2e 93 85 be e1 41 d0 be fb 74 70 3d 9d 9a 2f bc
       -0.26088852 -0.40675262 0.05870531 -0.010718015
000040 f9 a9 38 be 29 74 85 be 21 6e b2 3e 42 ad a9 be
       -0.1803359 -0.26065186 0.34849647 -0.33139998
000050 f1 70 89 bd d6 a0 5e 3e e0 ca ef 3d 7f ee b6 3d
       -0.06710995 0.21741042 0.11708617 0.08932208
000060 36 55 a9 3e 54 11 02 be 5e b7 df be e9 79 bd 3e
       0.33072823 -0.12701923 -0.43694586 0.37007073
000070 71 d6 05 be 79 a9 a4 bd bb 76 bb be 3d dd 92 3e
       -0.13070084 -0.08040137 -0.36614022 0.28684416
000080 aa ec 2e be 97 e8 ad 3d 3f 56 61 be db ff 21 be
       -0.17082468 0.084916286 -0.22005557 -0.15820257
000090 51 46 ac 3e d8 ca 74 bc 92 bc af be ce c3 76 be
       0.33647397 -0.01494094 -0.34323555 -0.24098131
0000a0 c7 d6 46 bd c1 6c 82 bd 4e 6d 8a be 23 8f 23 bd
       -0.04854467 -0.063683994 -0.27036518 -0.039931428
0000b0 f0 21 8b be 6c 09 4f 3c a4 01 b5 bc 47 7a 96 bc
       -0.2717433 0.012636524 -0.022095509 -0.018368853
0000c0 5c 5a 2c 3e 93 52 9d 3e 00 ae a7 3d 8c e1 c0 3d
       0.16831344 0.30727062 0.08187485 0.0941802
0000d0 4a 01 41 be 8e 47 37 3e 1f a2 ad 3e 59 0e 7e bd
       -0.18848148 0.1789839 0.3391275 -0.0620254
0000e0 f1 53 84 be 88 2f 4a 3e 65 74 04 3c 96 39 b4 be
       -0.25845292 0.19744694 0.008084391 -0.35200185
0000f0 f8 dc a7 3e 2e 96 be 3e d5 9d 23 bd f5 0d 9c be
       0.32785773 0.37223953 -0.039945442 -0.30479398
000100 81 64 5b 3d 53 dd 35 3d ee a7 00 3e 67 4f 71 be
       0.053562645 0.044400524 0.1256406 -0.23565446
000110 5f 47 c0 be d0 62 3c be a7 69 96 3e c2 89 1b be
       -0.37554452 -0.18397069 0.2937748 -0.15189269
000120 68 f5 d2 3e 6b 24 b2 bc 73 ff 8f 3e 9e 27 c9 be
       0.41202855 -0.021745881 0.2812458 -0.39288038
000130 0e 89 47 be fe 07 9e be 93 70 35 bd 01 3c 03 bd
       -0.19485876 -0.30865473 -0.044296812 -0.032039646
000140 09 44 27 be 90 33 d4 bc d5 29 9f 3e bf 48 db be
       -0.16334547 -0.025903493 0.31086603 -0.42828938
000150 80 04 d9 3e 47 f3 2c bd 17 f5 24 3e b5 d7 1e be
       0.42386246 -0.042224195 0.1610912 -0.15511973
000160 39 bf 8f be 77 7d fc bd fc d2 96 be 8a 62 b0 3e
       -0.2807558 -0.12328618 -0.29457843 0.3445018
000170 6d 0e fc 3d 76 3f 87 3e 79 5b 8b be 38 ca 0a 3e
       0.12307439 0.26415604 -0.27218226 0.13553703
000180 e1 df d5 3d 52 de ba 3e 0f 3d 7b be d1 42 ac 3e
       0.10443092 0.36497742 -0.24535011 0.33644727
000190 fa 30 c0 3c 15 af 35 bc 4b 98 92 3e 7e bd 1e 3e
       0.023460854 -0.011089106 0.28631815 0.15501973
0001a0 df 8a c1 be 17 f6 bb 3e 93 02 af be 6a f4 66 3e
       -0.37801263 0.3671119 -0.3418165 0.22554174
0001b0 92 e8 cd 3e 5c a2 68 be 23 e7 c3 be 6e dc 9f bd
       0.402165 -0.22718185 -0.3826228 -0.078057155
0001c0 6a 1a 4c be a5 25 91 3c 22 c7 a8 bd 5f 0f fb 3d
       -0.19931951 0.017718146 -0.082411066 0.12258791
0001d0 f4 fb d4 be 3a 93 7f 3e b3 91 31 bd f5 ca c6 3e
       -0.41598475 0.24958506 -0.04335184 0.3882672
0001e0 b1 c3 a2 3d ba 3b d6 3a ec 80 42 3e 9c 43 d1 bd
       0.079474814 0.0016344704 0.18994492 -0.102179736
0001f0 b0 99 2e be 10 d6 bb 3e e7 7d 46 be 6a cc 61 bb
       -0.17050815 0.36686754 -0.19383965 -0.0034454116
000200 08 2c 54 3d 16 8f d7 bd f2 36 0f 3e 42 b3 3c 3e
       0.051799804 -0.10525338 0.13985804 0.18427756
000210 fa fd 90 3c 82 f0 c9 3e e1 10 2f be 7e 0c ca 3e
       0.01769923 0.39441305 -0.17096283 0.39462656
000220 32 ff 37 be 18 81 9c 3e b3 21 bf 3e ef e1 e7 3e
       -0.17968443 0.3056724 0.37330398 0.4528956
000230 7c a0 2e be 82 48 ff 3d 74 45 c8 3e 29 71 5d 3d
       -0.17053407 0.12465002 0.3911549 0.054062996
000240 c7 44 f9 bc 15 ed 45 be 5f 8e 28 be 1c fc ce 3c
       -0.030428303 -0.19328721 -0.1646056 0.0252667
000250 31 bd 45 be fc 10 b8 3e c8 08 89 3e 13 28 50 3c
       -0.19310452 0.35950458 0.26764512 0.012704867
000260 3f e7 a5 be 3b 2e 63 3e 2b 75 0f be 81 1d 91 3c
       -0.3240299 0.22185604 -0.1400954 0.017714264
000270 0b ca 78 be 7a f4 99 3e 40 e3 c8 3d 9f 76 2f 3e
       -0.24295823 0.30069333 0.098089695 0.17135094
000280 c0 1c 07 3e 1b 83 24 be ab b9 b4 be 88 5e a4 3e
       0.13194561 -0.16065638 -0.35297903 0.32103372
000290 50 40 8f 3e ad 95 c5 3e 61 d3 39 3e d7 f1 b1 be
       0.27978754 0.38590756 0.18147041 -0.34754822
0002a0 98 53 95 be 4a a8 cf 3e 05 4e 2d 3e ca 16 4f be
       -0.2916534 0.40558082 0.16924293 -0.20223537
0002b0 c1 c0 c8 be fd 6e 66 bd 1f 5d b9 3d ec 8f 14 be
       -0.3920956 -0.05625819 0.090509646 -0.14508027
0002c0 e4 79 82 3e a8 37 34 be 7b 7d 54 be 89 8c 53 bd
       0.2548362 -0.17599356 -0.20750992 -0.051647697
0002d0 10 30 3f be 4f 97 d1 3e 5f 11 e1 3d 79 6a 7f be
       -0.18670678 0.40935752 0.109896414 -0.2494296
0002e0 cb a3 e2 bd 97 fb 29 3e 82 95 b1 3d 21 15 51 3e
       -0.11066397 0.1659988 0.086710945 0.20418216
0002f0 38 df 8c 3d 1b f2 7c be 4b 15 c6 3e dc a1 8e bc
       0.06878513 -0.24701731 0.3868812 -0.017411165
000300 6a 06 ac be d6 b8 5b be d3 8f a9 3e e4 2a eb 3e
       -0.33598644 -0.21457228 0.33117542 0.4593116
000310 25 16 17 be 67 4a 55 be 4a 94 7a 3e 93 bb 25 3d
       -0.14754541 -0.20829163 0.2447063 0.040462088
000320 b9 45 65 be 02 95 89 be 12 b7 55 be de 78 b9 be
       -0.22389878 -0.26871496 -0.20870617 -0.36225027
000330 3d 34 21 3e ad cf b4 be 23 d4 91 3e 66 1e 98 be
       0.15742584 -0.35314694 0.2848216 -0.29710692
000340 28 df 8f 3e 6e 97 f7 bd c6 0f 51 3d 34 d2 4c be
       0.28099942 -0.1208943 0.051040433 -0.20002061
000350 12 9e 7a bc dd 39 a1 be 8f 2a 7a 3e 35 41 2a 3e
       -0.015296476 -0.3148946 0.24430297 0.16626437
000360 7b d5 30 be f9 4c 6d 3c 2b 02 44 bd 16 fa 9c 3e
       -0.17268936 0.014483684 -0.04785363 0.3065955
000370 c1 40 d8 be 76 fb 1e 3e 11 54 97 3e 7c 41 41 be
       -0.42236903 0.15525612 0.29556325 -0.18872637
000380 24 52 d3 be a5 66 94 be 1f f6 5f 3e a1 96 87 3b
       -0.41273606 -0.28984562 0.21871231 0.0041378294
000390 e7 77 c5 bd 96 2b bd be ff 6d 90 3e 47 04 33 3e
       -0.0964201 -0.36947316 0.2820892 0.174821
0003a0 1a cc 06 be 6e 15 5e be 7f ce e8 bc d6 f6 c7 3e
       -0.13163796 -0.21687862 -0.028418778 0.39055508
0003b0 f6 da ba 3e 5c e7 74 3e 88 20 3a be 22 02 94 be
       0.3649518 0.23916382 -0.18176472 -0.28907877
0003c0 1c 46 d8 3e 3a 92 20 be 4f ca 90 3e 9c 63 93 be
       0.4224099 -0.15680781 0.2827935 -0.28786933
0003d0 0e 3e 1d be c4 a4 1a be 93 ab d5 be c8 eb e4 3d
       -0.15355703 -0.15101916 -0.41732463 0.11177784
0003e0 67 fb 41 3e 76 e6 a8 3e 32 11 a7 3e 63 05 9b 3e
       0.18943559 0.32988328 0.32630306 0.30277547
0003f0 63 35 ce bc 38 40 28 be 3f c0 ef 3d b0 58 01 3e
       -0.025171941 -0.16430748 0.1170659 0.12631488

gconv.1.lins.1.weight f4 [16, 16]
000000 94 e6 af bd 84 3d 8c bd ca ba 64 be df e5 a3 3e
       -0.08588901 -0.06847671 -0.2233688 0.32011315
000010 bd d8 83 3e 5f 23 a1 bd 67 0c 49 be 2d f4 c1 3e
       0.25751296 -0.078680746 -0.19633637 0.37881604
000020 dd 6f 1f be 85 89 c7 be c3 63 31 be c1 3e c8 3e
       -0.15570016 -0.38972107 -0.17323212 0.39110377
000030 5c f8 2f be aa d1 b7 be ff 61 3d 3e 4f ac 9c 38
       -0.17184585 -0.35902148 0.18494414 7.470755e-05
000040 3b b3 da 3e ce 2f cb be e4 70 86 3e 8f a4 8f 3e
       0.42714867 -0.3968491 0.26258004 0.28055236
000050 86 dc bd 3c 2f 85 f9 bd 72 5a c2 be 0a 3e 87 3e
       0.023176443 -0.12183606 -0.3795963 0.2641452
000060 a0 55 11 3e e0 74 47 3e 6a 83 ab 3e 6e eb 84 be
       0.1419282 0.19478178 0.33498698 -0.2596087
000070 67 0c 5f be 22 3f 27 3c 90 93 9f be 5b 78 8d bc
       -0.21782075 0.010207923 -0.3116727 -0.017269304
000080 e5 c3 d0 bd 9c 06 a9 be 20 1e a5 be 80 59 cd be
       -0.10193614 -0.33012855 -0.32249546 -0.40107346
000090 94 6c 36 bd 69 bb 40 3e 49 44 7e 3e 67 2f 0e 3d
       -0.044537142 0.18821491 0.24830736 0.034713175
0000a0 0e 63 d1 3e b2 79 1f be f9 af 6f be b5 ea 49 be
       0.40895885 -0.15573767 -0.23406972 -0.1971844
0000b0 56 32 05 be 9e 12 b5 be 56 5e de 3d fb c2 c9 3c
       -0.13007483 -0.35365766 0.10857837 0.024629107
0000c0 86 84 d7 3e 83 38 f9 3c b7 fc a1 be e2 39 7d be
       0.42093295 0.030422455 -0.3163812 -0.24729112
0000d0 64 2d 76 3c 25 88 5e bb d8 c3 4c be c4 82 2e be
       0.01502547 -0.003395566 -0.19996583 -0.1704207
0000e0 df 95 8d be 9c ea 3c be 37 a1 73 bd 17 97 38 be
       -0.27653405 -0.18448871 -0.05947992 -0.18026386
0000f0 e8 cb da 3e 00 82 84 3d 18 69 aa be 99 d3 97 3e
       0.42733693 0.06470108 -0.33283305 0.29653624
000100 0d a9 70 3e 99 f1 39 3e 07 73 28 bc fa 1a be be
       0.23501988 0.18158568 -0.010281331 -0.37129956
000110 bf 24 9c 3d 93 fa be 3e 8f d8 a2 3e 48 c1 cd 3e
       0.07624196 0.37300548 0.31805846 0.40186524
000120 70 b3 19 3d 94 a0 9f be 4f 21 1e 3e 68 22 83 3e
       0.03752464 -0.311772 0.15442394 0.25612187
000130 31 a7 c6 be 16 35 04 3e 46 48 c3 be 60 51 3a be
       -0.38799432 0.12910876 -0.38141078 -0.18195105
000140 d4 16 7e 3e af 15 fa bd 68 18 7c be 71 1f 9c bd
       0.24813396 -0.12211167 -0.24618685 -0.076231845
000150 65 ea 8b bd a2 41 4e 3e b1 6e 89 3d 5e 0e cb 3d
       -0.068318166 0.20142224 0.06710566 0.0991485
000160 18 ee c3 bd 0a bd 7f be 57 7e 39 be 77 a5 16 3e
       -0.09566897 -0.24974456 -0.18114601 0.14711557
000170 b4 2a f3 bd ad 72 c4 3e c2 24 da 3d 75 6a 0b be
       -0.11873379 0.3836874 0.10651542 -0.13614829
000180 50 16 c9 be f5 ac 5f 3d cc 21 00 be 27 50 19 3e
       -0.39274836 0.054608304 -0.12512892 0.14971982
000190 90 d5 d2 3e f5 d1 93 3e ff 3d c7 3c fb 24 57 3e
       0.4117856 0.28871122 0.024321554 0.210102
0001a0 56 74 1f be 35 f7 93 be 35 19 ce 3e aa 44 b8 3e
       -0.15571722 -0.28899541 0.40253606 0.35989887
0001b0 a8 9e 5d bd 19 e2 ae be 13 69 b5 3e 1a cc 90 3e
       -0.054106385 -0.34156874 0.35431728 0.28280717
0001c0 3d 93 41 bd ad 8d f1 bd 8c 2e a5 be 98 41 30 be
       -0.047259558 -0.11794601 -0.32262075 -0.17212522
0001d0 46 ee da 3c 96 86 76 be 64 57 62 3d 34 5c 6e be
       0.026724946 -0.24074778 0.055259123 -0.2327736
0001e0 41 d1 d3 be 4d b5 9c be 0a 32 92 3e 46 4b e5 bd
       -0.41370586 -0.30607072 0.28553802 -0.11195998
0001f0 0e 81 d7 3e 07 47 d3 bd 74 ee 03 3d 07 6e 47 bd
       0.42090648 -0.10316282 0.03220983 -0.048688915
000200 09 a2 ce be 4c d3 ae 3d 1a 31 fa bd e9 52 7e 3d
       -0.40357998 0.085363954 -0.12216397 0.062090788
000210 8d 1a 58 3c d7 27 3f 3e 2e ac 80 bc 03 86 d9 3e
       0.013189924 0.18667541 -0.015707102 0.42485055
000220 b7 ce 8d 3e a8 5a ab 3e 22 f3 23 bd 2d 53 7c be
       0.27696773 0.33467603 -0.04002679 -0.24641104
000230 9a 0f 13 3e dc 71 b1 bd bb c7 d1 3e d6 4b b6 bd
       0.1436142 -0.08664295 0.40972695 -0.08901183
000240 58 ea ce 3d ff 31 51 be a2 e9 51 be 01 34 56 3e
       0.10103291 -0.20429228 -0.2049928 0.20918275
000250 92 09 d1 bd af d4 7c 3c 92 39 d3 bd 1a 50 8b be
       -0.102069035 0.015431567 -0.10313715 -0.2720955
000260 44 a8 9e bd 33 07 69 be 81 fa bc be ab 89 2d 3e
       -0.07746938 -0.22756653 -0.3690987 0.16947047
000270 1b 7e 88 3d 8a 42 56 3e 19 38 fb bc 93 82 ec 3d
       0.06664678 0.2092382 -0.030666398 0.115483426
000280 b6 2d b8 bd 0c 2e bd bd 3a 4f e3 bd e5 07 6b bc
       -0.08993094 -0.09237298 -0.11099096 -0.014345144
000290 63 71 b8 3e b3 01 eb 3c 6a f6 c1 3c 57 71 0f 3e
       0.36024007 0.028687334 0.02367707 0.1400808
0002a0 d2 6f 59 bc a1 c3 b1 be ff 0e 67 be 54 99 4c 3e
       -0.013271289 -0.34719566 -0.22564314 0.19980365
0002b0 d7 4d 40 bd bb 55 69 bc 3e a4 2a bd 89 3e 70 3e
       -0.046949234 -0.014241631 -0.04166054 0.23461355
0002c0 f7 8c d5 be 99 cd 88 be 05 2c b3 3e 4a fe 13 be
       -0.4170911 -0.2671936 0.34994522 -0.14452472
0002d0 bc 0a be be 4a 84 e9 bd 2d d4 a4 bd e3 c2 c3 3d
       -0.37117565 -0.11402185 -0.08048282 0.09558656
0002e0 c7 22 a5 be 9d fb af be f8 4d 12 be aa b5 8a be
       -0.32253096 -0.34371653 -0.14287555 -0.27091724
0002f0 33 4a d6 be 15 51 3f be f4 f9 99 be 5a 6d 9f 3e
       -0.41853485 -0.18683274 -0.30073512 0.31138116
000300 a1 b3 d8 be 84 6a 06 3e c4 15 be be 56 1c 8c be
       -0.42324546 0.1312657 -0.3712598 -0.2736537
000310 47 a6 33 3e b1 b8 e8 3d bf 8a 2e be 49 46 9c be
       0.17543899 0.11363352 -0.17045115 -0.30522373
000320 dc f9 58 be 20 81 9f be 83 3f 06 3e 9a 78 fe 3d
       -0.21189064 -0.31153202 0.13110165 0.12425347
000330 fb 60 84 3e 54 96 12 3c 52 63 94 3e ed 3e 85 be
       0.2585524 0.008946974 0.28982025 -0.2602457
000340 84 df 91 bd ad 3d ba be ee fd 8d 3e 66 93 cf be
       -0.0712271 -0.3637518 0.27732795 -0.40542144
000350 8a ed da 3d 8e 1c be bc 2a b9 58 bd 55 06 67 3e
       0.10689838 -0.023206975 -0.05291096 0.22561009
000360 bf a0 bd 3e 88 94 8f bd 10 1c 3e be c2 05 45 3d
       0.37036702 -0.07010752 -0.18565392 0.048101194
000370 2c ba cf 3d 2a f5 be 3d 87 bd 61 be cd 05 74 3c
       0.10142931 0.09324105 -0.22044955 0.014893961
000380 09 3e 4a be ce 04 38 be b3 7b 93 3c cb dc 87 bd
       -0.19750227 -0.17970583 0.01800332 -0.0663391
000390 4d ef a5 bd 87 4f 69 bd de 07 41 be 68 86 ce 3e
       -0.081022836 -0.05696061 -0.18850657 0.4033692
0003a0 41 6f c7 be d0 08 51 3e 46 09 a8 3e 92 5e a9 3e
       -0.38952067 0.20413518 0.32819575 0.33079964
0003b0 95 6f 24 be 83 81 a5 bd 95 66 ea bd 33 45 9a 3e
       -0.1605819 -0.08081343 -0.11445347 0.3013092
0003c0 1f 6c 79 3e ae 21 56 bd 4e 77 b6 3d 9c d0 cb 3e
       0.24357651 -0.052278213 0.08909474 0.39807594
0003d0 4a 68 58 bb 0a d1 3f 3e 54 43 28 3d 1e c4 b9 3e
       -0.0033021146 0.18732086 0.041079834 0.36282438
0003e0 43 63 0b 3e ea 18 ad be 9a 12 4c be d0 1f c7 3e
       0.13612084 -0.3380807 -0.19928971 0.3889146
0003f0 d6 45 d7 3e 39 96 69 3e 9a 02 40 be b0 12 1a be
       0.42045468 0.22811212 -0.18750992 -0.15046191

gconv.1.lins.2.weight f4 [16, 16]
000000 74 c3 8c 3e 90 f1 63 be 06 d1 26 be 95 cd 71 be
       0.2749287 -0.22260118 -0.16290674 -0.2361358
000010 bb 42 80 be 41 76 65 3e 0f 6c be be e0 e2 87 3e
       -0.2505091 0.22408392 -0.37191817 0.2654028
000020 5c 11 c5 3d 2d 63 8a 3e d2 ed b9 be 8a 46 90 be
       0.09622452 0.2702879 -0.36314255 -0.28178817
000030 66 47 1c bd f3 75 2b bd 1b 21 95 be ec 1a 85 be
       -0.03815403 -0.041860532 -0.2912682 -0.25997102
000040 da 1c 41 3e 38 4a 8c be 89 92 d0 be ff 1b df be
       0.18858662 -0.27400374 -0.40736797 -0.43576047
000050 9b dd f9 bd 6e cd a3 3e 15 6b a5 be 43 99 3f be
       -0.12200471 0.31992668 -0.3230826 -0.18710808
000060 02 b6 e8 bd 9a 92 2a 3e f6 70 b5 3e ac 81 ff bd
       -0.1136284 0.16657487 0.35437745 -0.12475905
000070 5e 78 cc be bb 74 cb 3e a8 43 ba 3e 2d 47 7b 3e
       -0.39935583 0.39737496 0.36379743 0.2453887
000080 3d 8c c6 3e d8 01 69 be 21 45 55 be b9 d8 c1 3d
       0.38778868 -0.2275461 -0.20827152 0.09465165
000090 82 8d 92 be 7b 61 d1 3e fe 96 19 3c f0 b6 1b 3d
       -0.28623587 0.40894684 0.009374378 0.03801626
0000a0 3a 79 bc 3d d6 a5 42 3e c3 c7 ae be 05 05 d4 bd
       0.0920281 0.19008574 -0.3413678 -0.1035252
0000b0 99 47 ba bc 37 c8 92 3e 7a ee 84 3e 40 38 cd bd
       -0.022739219 0.28668377 0.25963193 -0.100204945
0000c0 9c 21 83 bd 41 1c cf be 57 06 72 3e 26 26 88 3e
       -0.06402895 -0.40451244 0.23635231 0.26591605
0000d0 2d 61 a2 be 33 cb 32 bd fd 4a 43 be 50 39 e6 3c
       -0.31714764 -0.043650817 -0.19071575 0.0281035
0000e0 07 92 9b 3e f0 9d b7 be 14 96 41 3e cd ce 95 3e
       0.30384848 -0.35862684 0.18904907 0.2925934
0000f0 72 15 07 3c 4d f1 77 be 52 0b d9 3e 62 99 3d 3e
       0.008244859 -0.24213143 0.4239145 0.18515542
000100 9c b5 aa bc 32 9e 72 3e 21 8e dd 3e 7b 08 25 be
       -0.020838551 0.23693159 0.43272498 -0.16116516
000110 11 c4 c8 bd c7 ee 40 bd 1f 1a 49 3e 8d 12 fe 3a
       -0.09803022 -0.047102716 0.1963887 0.0019384191
000120 ff bf 5b bd 27 1e c8 be a2 7e 55 3e df ea 16 3e
       -0.0536499 -0.39085504 0.20849088 0.14738034
000130 c7 be 40 3e cb 6e 9f 3c f7 ea c3 be fd 32 03 3e
       0.18822776 0.01946201 -0.382652 0.12812419
000140 63 fb ab be 2b 83 a5 bc fc c5 dc 3d cb 00 fe bd
       -0.3359023 -0.020204147 0.1077995 -0.12402495
000150 66 1c 1b 3c 7d 02 17 3d 6b 34 14 be 86 74 af 3e
       0.00946722 0.036867607 -0.14473121 0.34268588
000160 c0 50 85 be a3 f2 cb be 01 4f 7c 3e f6 d3 7b 3e
       -0.2603817 -0.39833555 0.24639513 0.24592575
000170 c2 8e d0 be 07 da 1e 3e 7d fc 84 3e 54 20 ee 3d
       -0.40733916 0.15512858 0.25973883 0.1162726
000180 92 ce 0a bd 04 0b 17 3d bb 50 b6 be 93 bc 7a bd
       -0.033888407 0.03687574 -0.35608467 -0.061214995
000190 40 8e a3 3e d5 52 5d bd 85 17 07 3e 67 90 b6 3e
       0.31944466 -0.054034073 0.13192566 0.35657045
0001a0 f1 97 13 3e 7f 2f 39 3e ec fd 4e be 22 fa 2d be
       0.1441343 0.18084525 -0.20214051 -0.1698995
0001b0 14 48 34 be eb 1d 7c be fb b7 45 be 90 dc 60 be
       -0.1760562 -0.24620788 -0.19308464 -0.21959138
0001c0 fd f8 c2 be 6e dc c5 bd 8d fc 86 3e 81 ef 79 3d
       -0.38080588 -0.09661184 0.26364556 0.061019424
0001d0 85 59 21 3e 9c 28 c0 3e 79 a8 c7 be f1 7f 72 3e
       0.15756805 0.37530982 -0.38995722 0.23681618
0001e0 4b ae d6 3d 64 b3 89 be e7 69 b3 be 1b 76 a2 3e
       0.104824625 -0.26894677 -0.35041735 0.31730732
0001f0 b5 06 25 bc 05 97 b6 be a7 ae 86 be c9 2c 8b 3e
       -0.0100724 -0.35662094 -0.26305124 0.27182606
000200 b8 e4 8e 3d a1 08 d7 3e 30 f0 08 be dc 77 1a be
       0.069772184 0.4199877 -0.13372874 -0.15084785
000210 23 f9 94 be 35 c4 c4 3d 92 c2 53 be 10 a9 ad be
       -0.29096326 0.09607736 -0.20679691 -0.33918047
000220 96 4f bd 3e 5f e1 82 3e fd 65 77 be 21 85 27 3e
       0.36974782 0.2556257 -0.24159999 0.16359378
000230 62 10 8a be c6 62 dc 3e 29 c9 71 3d b1 b0 4c be
       -0.26965624 0.43044108 0.059029732 -0.19989277
000240 57 9a be 3e 7e 9a ef bd f2 cd 2d be ce f8 09 3e
       0.37227127 -0.11699389 -0.16973093 0.13473818
000250 11 c3 0d be 63 1f 12 3d 00 cf e4 3d 47 7d be 3e
       -0.13843943 0.035674464 0.111722946 0.37204954
000260 f9 22 87 3e 76 8f 80 be 99 d5 22 be 15 5a b2 bd
       0.2639387 -0.25109452 -0.15901794 -0.08708588
000270 7e e3 e4 bd 6d 04 64 bd 5b b2 5c bd 7c cd 12 be
       -0.11176203 -0.055668283 -0.05388103 -0.14336199
000280 2d 51 17 3e bc 7a 9e be 7d fa 75 3e d5 50 85 3e
       0.1477706 -0.30953014 0.24021335 0.26038232
000290 9b 1c 8a be da 30 74 3e 67 20 04 be 4b fa a0 3d
       -0.2697495 0.2384676 -0.12902986 0.078602396
0002a0 cf 84 63 3d ef 4b e8 bd 6b b6 a0 be 3e 8d 77 be
       0.055546578 -0.11342608 -0.31389174 -0.24174973
0002b0 16 22 6b be 9c f8 c6 be 41 5e 97 3c 9c 49 5d be
       -0.22962222 -0.3886155 0.018477561 -0.21610111
0002c0 1a d5 92 3d 04 ec a1 be 7b cd b0 be 56 d7 bb be
       0.07169552 -0.31625378 -0.3453177 -0.36687726
0002d0 64 5b 92 be 30 56 5d 3c f9 7b 01 3e 37 ee d2 3e
       -0.2858535 0.013509318 0.12644948 0.41197369
0002e0 b9 70 25 3e 91 46 24 be e2 53 95 be 95 96 bf be
       0.16156282 -0.16042544 -0.2916556 -0.37419572
0002f0 f0 b8 b5 3d cf a3 b4 3e 6d 49 d3 be e7 7b 97 3e
       0.08873165 0.35281226 -0.41266957 0.29586717
000300 56 b7 6a 3e 91 70 d3 be 20 3a 7c be d2 a9 8b be
       0.229215 -0.4129682 -0.24631548 -0.27278
000310 49 4a ba 3e 52 9e 80 bd 89 ad 88 bd ac e4 d7 be
       0.363848 -0.06280197 -0.06673724 -0.4216665
000320 20 a5 92 3e df 63 3b 3d fe 55 b6 3e 56 08 89 3d
       0.28641605 0.04574954 0.35612482 0.06691043
000330 52 54 82 bd ef dd cc be 95 c7 06 3e ee b8 f5 3c
       -0.06363739 -0.40013072 0.13162072 0.029995408
000340 1d 71 b2 3c 72 66 df be 88 57 d1 be fc d2 ee bd
       0.021782452 -0.43632847 -0.40887094 -0.11661336
000350 77 8c 9c be 8f 41 bd 3e a4 73 05 3e ef 27 38 be
       -0.30575916 0.3696408 0.13032395 -0.17983983
000360 25 73 96 bd 9c 6e 35 3e 33 e5 9a 3e 44 c6 2f be
       -0.07346181 0.17717975 0.3025299 -0.17165476
000370 40 e7 91 3e 3a e9 28 be 51 14 b4 be 50 6d c8 3c
       0.28496742 -0.16495219 -0.3517175 0.024466187
000380 4d 77 e3 be 0b a4 1d 3e 67 70 c3 be 01 31 33 3e
       -0.44426957 0.15394609 -0.38171694 0.17499162
000390 ba 69 c8 be 5d df cd 3e 88 3d 99 be 97 23 86 be
       -0.39143163 0.40209475 -0.29929757 -0.26199028
0003a0 8d 52 b9 3e c8 bf b0 be d6 29 be be 3b d2 bd bd
       0.36195794 -0.34521317 -0.37141293 -0.09268614
0003b0 f9 04 5a 3e be 02 cf be 31 35 2a be e3 56 04 be
       0.2129096 -0.4043178 -0.16621853 -0.1292377
0003c0 6c 50 d5 3e ae e5 d3 3e 6a 44 db be b0 e9 6d 3e
       0.4166292 0.4138617 -0.42825633 0.23233676
0003d0 ef 47 b5 3e d7 e3 b8 be a8 68 74 3e f5 55 15 be
       0.35406443 -0.36111328 0.23868048 -0.14583571
0003e0 c4 5f b0 be ee bf 52 bd 13 4f bf be a2 3f 9b be
       -0.34448063 -0.05145257 -0.37365016 -0.30321985
0003f0 3a db 70 3e 01 10 ae be f4 db b7 bd 59 c1 8d be
       0.23521128 -0.33996585 -0.089774996 -0.27686575

gconv.2.lins.0.weight f4 [16, 16]
000000 6f e6 7f bd 0f 52 8e 3e 7d 4e 78 be 22 fd 60 3e
       -0.062475618 0.2779698 -0.24248691 0.21971563
000010 8b 82 39 3e e0 ec c8 be 7f b5 2d be b7 0e 86 3e
       0.18116204 -0.3924322 -0.16963767 0.26183102
000020 27 53 dc be 6d 4e c9 bc e8 f6 a9 be 0b c7 96 be
       -0.4303219 -0.02457353 -0.33196187 -0.29448733
000030 a4 d6 3a be b4 a7 31 3e 20 73 7e 3e 24 f7 7b 3d
       -0.18245941 0.1734913 0.24848604 0.06151499
000040 a9 08 33 3e 92 7b d0 be 3c 19 b9 3e d3 79 d5 3e
       0.17483772 -0.40719277 0.36152065 0.41694507
000050 ed ea c4 3e e4 56 89 bd 12 b1 33 bd 8b df 67 be
       0.38460484 -0.06706026 -0.04387004 -0.22643869
000060 a6 31 98 be 2b 96 3a 3e 65 82 f0 3d 0a 25 4b be
       -0.2972538 0.18221347 0.11743621 -0.19838348
000070 21 37 c4 3e 51 01 e3 bd 5f b4 22 3e d9 59 b5 3e
       0.3832331 -0.110842355 0.15889119 0.3542011
000080 b8 aa 53 3e 9c 54 cb 3e 76 fb 97 be 0f 6d cf be
       0.20670593 0.3971299 -0.29684037 -0.40512893
000090 a8 4d 42 3e ca 90 b9 be 1e a2 8b bd 7b 7b 10 be
       0.18974936 -0.36243278 -0.06818031 -0.14109604
0000a0 6c 27 e4 be 7c 9f 9c be fe 9e b3 3e f1 4b 2e 3e
       -0.44561327 -0.30590427 0.3508224 0.17021157
0000b0 c9 d7 82 be 65 bb 24 3e ed 6c 54 3d 97 ac aa bb
       -0.25555256 0.1608711 0.051861692 -0.0052085626
0000c0 93 10 18 3e f5 70 3a be 8e ef 4d 3d f7 0e 87 be
       0.14850073 -0.18207152 0.050277285 -0.26378605
0000d0 4c 3e dd 3e e0 11 42 3e 49 c3 98 be 5d e5 c9 3e
       0.4321159 0.18952131 -0.2983649 0.39432803
0000e0 17 58 3e be 71 d3 f9 3d 93 88 5e be e3 41 85 3e
       -0.18588291 0.121985324 -0.21731786 0.2602683
0000f0 bb 73 2f 3d e6 1f cc 3e e1 6e b8 3e e4 d1 48 be
       0.04283498 0.39868087 0.36022094 -0.19611317
000100 60 54 4b bd 67 d8 04 3e ef 4b 85 bd 65 48 79 3c
       -0.049641013 0.12973176 -0.06508624 0.015215014
000110 6b d1 17 3e b8 52 07 be e3 26 ca be 2e ac 88 3e
       0.1482598 -0.13215148 -0.39482793 0.26693863
000120 5d fe bf 3d 0c 44 76 3b a6 a6 ae be 97 22 b9 be
       0.09374688 0.003757718 -0.34111518 -0.36159202
000130 13 03 9f 3e 47 10 0c 3e f7 93 64 be 87 dc 84 bd
       0.31057033 0.13678084 -0.22322069 -0.06487375
000140 89 cb 27 bd 5e ba 83 be dd 6d a5 be 10 3c bf be
       -0.04096559 -0.25728124 -0.32310382 -0.37350512
000150 39 04 dc bd 93 9e 03 be d8 80 86 be 3c b8 73 be
       -0.10742993 -0.1285346 -0.26270175 -0.23800749
000160 50 b2 b3 be c9 10 91 3e e3 97 68 bc 0e 12 3f 3e
       -0.3509698 0.2833312 -0.014196369 0.18659231
000170 d0 2a 83 be 31 10 c0 be 11 07 e4 bc 5f c9 5f 3e
       -0.256186 -0.37512353 -0.0278354 0.2185416
000180 5c 93 83 3e b0 1c db bd 86 9b 01 be 23 c3 b6 be
       0.25698364 -0.10698831 -0.12656984 -0.35695753
000190 ab 30 be be ae 3a 93 be 93 13 cf 3e 97 0d 6e 3e
       -0.37146506 -0.28755707 0.4044462 0.23247372
0001a0 4d 56 91 3e 86 0d c4 3c ea 52 0a bd 67 51 c9 be
       0.28386155 0.02393223 -0.03377048 -0.39319918
0001b0 c2 09 ab 3e d7 d7 43 be d2 f0 09 be de 11 d4 3e
       0.33405882 -0.19125305 -0.13470772 0.41419882
0001c0 c0 25 40 be 20 97 a0 be b6 77 9c 3e 71 e5 c3 be
       -0.187644 -0.313653 0.30560082 -0.38260987
0001d0 96 2f bd 3e 78 a8 d5 be a5 e2 b5 3e fd 3a 8a 3e
       0.36950368 -0.41730094 0.3552448 0.2699813
0001e0 83 b5 4f 3e 7b c2 c1 3e 63 d5 a7 be 29 a0 ca be
       0.20284085 0.3784369 -0.3277999 -0.39575318
0001f0 c9 8d be 3e 0c 4f 9c 3e b9 bd 81 3e 12 47 b7 3d
       0.37217548 0.30529058 0.2534006 0.089491025
000200 2b 8e e0 3e bc a4 53 3e 13 3b 8c be 36 36 00 be
       0.43858466 0.2066831 -0.2738882 -0.1252068
000210 47 77 47 be fa ef d3 3e db 3e 1c bd 60 5c ba be
       -0.19479094 0.41394025 -0.03814588 -0.36398602
000220 34 42 ab 3d 07 b5 09 3e c1 27 62 bd 44 1b 01 3e
       0.083622366 0.13447963 -0.055213694 0.12608057
000230 ac ef 52 bd 78 5a 96 bd 29 b6 31 be ac 08 13 be
       -0.0514981 -0.07341474 -0.17354645 -0.14358777
000240 d8 3d 76 3e 4d 77 cc 3e 27 4b c6 be 78 00 b8 be
       0.24047029 0.3993477 -0.38729212 -0.35937858
000250 24 73 1c 3e 9e 4a d6 3d e2 b2 a5 be 1e da bd be
       0.15278298 0.10463451 -0.3236304 -0.37080473
000260 47 26 c1 3c 14 47 8f be 5b a0 93 be c2 1f 5d be
       0.023577822 -0.27983916 -0.2883328 -0.21594146
000270 05 65 ac bd 3a 48 bb 3e d8 85 c4 3e 97 cd 73 3c
       -0.084177054 0.36578542 0.38383365 0.014880559
000280 bf 14 17 3e e0 a2 c5 3e 2a f8 fd 3d 47 ea b4 be
       0.14754008 0.38600826 0.12400849 -0.3533499
000290 2d 41 63 3d a4 50 ff bd 3f f1 39 3e d9 fa 99 be
       0.05548208 -0.12466553 0.18158434 -0.30074194
0002a0 d9 e5 83 3d e3 fe f4 bd c4 84 21 3e 20 46 83 bd
       0.06440324 -0.11962678 0.15773302 -0.0640986
0002b0 9d 0e 40 bd 32 a0 be 3e d3 d9 9d bd a1 e1 cc be
       -0.046888936 0.37231594 -0.07707562 -0.4001589
0002c0 de a6 4a bd 42 2b 66 be 6c 6d 83 be b8 3a d1 3e
       -0.049475543 -0.22477439 -0.2566942 0.4086511
0002d0 74 93 62 3e fb a8 5c 3e 47 80 3d 3e ee 4e b3 3e
       0.22126561 0.21548836 0.18505965 0.35021156
0002e0 1d 32 06 3e 20 59 b0 bd e1 7b 73 3e d1 63 3b 3e
       0.13105054 -0.08610749 0.23777725 0.18299796
0002f0 ff f2 13 bd 0b 24 3b 3e de e5 e0 3e e6 3d d7 3e
       -0.03612041 0.18275468 0.43925375 0.42039412
000300 e4 bd dc bd 28 8e 40 3e 35 c1 10 bc 2b 94 a0 be
       -0.10778406 0.18804228 -0.008835127 -0.31363043
000310 d3 af ac 3e 26 de 90 be b5 51 b6 bd 0d 96 cc 3e
       0.33727893 -0.28294486 -0.08902303 0.3995823
000320 ad 4f 05 be 86 c7 76 3d b2 a4 cb 3e 66 8b 3f be
       -0.13018675 0.060248874 0.3977409 -0.1870552
000330 a4 7f b9 be 00 c7 7e 3e 37 76 64 be 9f 86 c1 be
       -0.36230195 0.248806 -0.2231072 -0.3779802
000340 ff 6b 35 be 2e 18 b9 bd 87 4e ce 3d 1c b4 97 be
       -0.17716978 -0.09037815 0.10073572 -0.296296
000350 b7 6f 01 be 3b 5e 42 be 5e e4 d2 3e 72 38 2b be
       -0.12640272 -0.18981259 0.41189855 -0.16720751
000360 fe d1 21 3e f4 8f fa 3d bf 56 8b 3e e8 7d 7d bc
       0.15802762 0.12234488 0.2721462 -0.015471913
000370 6b da 7d be 2e df 61 3e e3 0c e6 bc b8 b6 e4 bc
       -0.24790351 0.22057793 -0.028082317 -0.027919158
000380 5b e4 f0 3d d2 6a 82 be b6 ad c0 be 78 c0 46 3d
       0.11762305 -0.25472122 -0.3763253 0.048523396
000390 9d 6a a8 be 36 a8 cd 3e 52 77 86 be b3 fb 57 be
       -0.3289384 0.40167397 -0.2626291 -0.2109211
0003a0 52 ef b4 be 5c 5f 5b be e4 3a 85 3e ac 41 97 3e
       -0.35338837 -0.21423095 0.26021492 0.2954229
0003b0 81 49 c4 be a7 e4 b6 3e f3 4b 50 3d cd 28 d2 be
       -0.3833733 0.35721323 0.05085368 -0.41046754
0003c0 3c 49 29 be e3 12 a0 3e 4f 5a 35 bd 27 a4 c0 3e
       -0.16531843 0.3126441 -0.044275578 0.37625238
0003d0 e8 86 a7 be 7b 63 1d 3e 94 6f 15 3e 70 76 27 3d
       -0.32720113 0.1536998 0.14593345 0.040884435
0003e0 df 61 dd 3c 98 99 7a bd 76 99 a0 be a5 e8 b3 3e
       0.027024208 -0.061181635 -0.3136708 0.3513843
0003f0 aa 22 c8 be 3c d8 12 3c cb 8e ac be 59 c7 87 3e
       -0.39088947 0.008962687 -0.33702692 0.26519278
