pth/fold1.pth (torch, 639596 bytes, 46 tensors)

gconv.0.lins.0.weight f4 [16, 2000]
000000 67 d9 36 bd 64 f5 83 bc 3e e8 6f bd 51 3f e7 bc
       -0.044640925 -0.016108222 -0.058571093 -0.028228434
000010 1c 85 34 3d be df 09 3d 5c 18 58 bd ed 2f 33 bd
       0.044072255 0.033660643 -0.052757606 -0.043746877
000020 0b fe 7c bc 8b c7 12 3d bd be 2e 3d a9 ac 4b bd
       -0.015441428 0.03583483 0.04266237 -0.04972521
000030 20 4e 29 bd 71 c6 a9 bc 1e 5b 1f 3d 5d d3 47 3c
       -0.04133427 -0.020724507 0.038905255 0.012196389
000040 18 82 45 3d 16 5d 27 bc 3f 09 b5 3c 86 96 0c bd
       0.04821977 -0.0102150645 0.022099135 -0.034323238
000050 15 70 84 3b bf a5 77 3c c4 54 18 bd a9 05 8e bc
       0.0040416815 0.015115201 -0.037190214 -0.017336683
000060 c4 8b a2 bc 4c 24 76 3c a6 21 10 3d f9 e7 49 bd
       -0.019842036 0.015023302 0.03518834 -0.049293492
000070 12 45 7e bc ea 49 68 3d 5f 2d c5 3c 42 59 43 bb
       -0.015519397 0.056711115 0.024069486 -0.002980784
000080 a8 37 ca 3c 09 8b 8f bb 54 0e 2c bd 93 83 34 3d
       0.024684742 -0.004380588 -0.042005852 0.04407079
000090 7a c1 78 bb 07 53 ef 3c 66 ab 3f 3d d3 28 23 bd
       -0.0037957118 0.029214395 0.046794318 -0.039833855
0000a0 a7 bb 1d bd d0 0f 0d bc fe 84 c3 3c b5 73 5f bd
       -0.038509037 -0.008609727 0.023867127 -0.054553706
0000b0 8b 53 58 3d 36 6e bf bc f2 04 9e bc d2 b0 8a 3c
       0.052814048 -0.023367982 -0.019289467 0.016930018
0000c0 99 ea 36 3d 96 05 8b 3c 7d ec af bc fa ef 38 3d
       0.044657324 0.016970437 -0.021475071 0.045150734
0000d0 24 3c 48 3d d6 d6 1f 3d 9a c0 2c 3c 38 fa 5a bc
       0.04888548 0.039023243 0.010543967 -0.013365321
0000e0 72 01 b0 b9 4a 8c f8 bc fb 3f e3 3a ad 47 04 3d
       -0.00033570413 -0.030340333 0.0017337793 0.032294918
0000f0 c1 65 8e bc 8b 7f 03 bd fd 05 00 bd a9 d5 0b 3d
       -0.017382504 -0.032104056 -0.03125571 0.03413931
000100 b8 60 de 3c 7a 10 04 bd c4 d8 16 bd b1 07 4b 3d
       0.027145728 -0.032242276 -0.036827818 0.049567882
000110 01 08 26 3d e5 1a e0 3c a5 49 b5 bb bc c1 62 3d
       0.040534977 0.027356574 -0.0055324608 0.05536054
000120 19 ed 3d bd 2d 5c 3f bd d5 e4 33 bd bd 94 cd 3c
       -0.046368692 -0.046718765 -0.043919403 0.025095338
000130 d9 cd d4 3c 56 15 8a bb 2c 4c 3f bd 9b c3 42 3c
       0.025977062 -0.004213969 -0.046703503 0.011887456
000140 df 79 80 bc 68 bb 00 3c f4 ae 01 bd c4 7d 6a bd
       -0.015683113 0.007857181 -0.03166099 -0.057248846
000150 b1 1b 3d bd 7f d8 20 bc 0b e0 af bc fd 17 87 bc
       -0.046168987 -0.009817242 -0.021469137 -0.01649093
000160 05 1c e3 bc 36 42 ca bc 44 9c 8d 3c 61 3b 3c 3c
       -0.027723322 -0.024689775 0.017286427 0.011488766
000170 1d c5 87 3b f6 ce 86 bd d6 28 13 3c e4 8c 56 bd
       0.004143371 -0.065824434 0.008981904 -0.052380458
000180 6b aa 19 3d d0 0f 67 bd 39 2d 2e bd 0b 70 a3 b8
       0.03751604 -0.056411564 -0.042523596 -7.793315e-05
000190 b4 0a d5 bc a0 87 e3 bc 2d 0f 44 bd 6d 2c 07 bd
       -0.02600608 -0.027774632 -0.047866035 -0.033001352
0001a0 0b 37 b5 3c 9b 8c bd bc 3b 02 ff 3c d1 81 3e bc
       0.022120973 -0.023138335 0.031128993 -0.01162763
0001b0 92 80 3c bd f9 12 32 3d 06 7f 5c bc 34 f8 91 3c
       -0.04602105 0.043475125 -0.013458019 0.017818548
0001c0 9e 37 0f 3c db 96 3a 3d fc ce bb bb d3 3a f8 3c
       0.0087412875 0.045554023 -0.0057314616 0.030301487
0001d0 5e ba 80 b9 7a 3c 0c 3d 6f 75 03 bd 43 df 99 bb
       -0.00024552917 0.034237362 -0.032094415 -0.0046958043
0001e0 d7 d1 42 bd 39 2d b8 bc 8e 76 4c 3d 29 9a ed 3b
       -0.0475634 -0.022482501 0.04991775 0.0072510433
0001f0 d7 fe 2f 3d 29 8e 04 bd 90 61 42 3d 30 07 b2 bc
       0.042967644 -0.032362137 0.047456324 -0.021731943
000200 e3 e3 f6 3c 20 1e 64 3c f1 67 a6 3c be 87 13 bd
       0.030137962 0.013923198 0.020313235 -0.036018126
000210 f4 33 27 3d da b0 86 3c 80 42 44 bd fb fa 27 3d
       0.04082103 0.016441751 -0.04791498 0.041010838
000220 12 7d 41 bd 07 82 31 3d 75 8c 30 bd 27 25 13 3d
       -0.047238417 0.043336894 -0.0431027 0.035924103
000230 bc 58 bf 3c 65 4e e0 3c da 21 1b bd 9b 5f 2b 3d
       0.023357742 0.027381131 -0.03787408 0.041839223
000240 d4 d9 28 bc db 1f 5b bd e3 4d db bc 92 2d b9 3c
       -0.0103058405 -0.053497177 -0.026770538 0.022604737
000250 48 ca 77 bb 6e 8f a4 3c 61 c0 37 3d 73 47 95 3c
       -0.0037809778 0.020087924 0.0448612 0.018222546
000260 f8 be 7c bd c9 49 3e bd 1e 83 10 3c c4 9a 8e bc
       -0.06170556 -0.046457086 0.008820323 -0.017407782
000270 ea a1 15 3d ec f2 30 3d 3a 90 90 bc f5 1e ac bb
       0.036531366 0.04320042 -0.017646898 -0.005252714
000280 e5 c2 4e 3d d7 d9 03 3d e2 da 61 bd 50 e8 cd bc
       0.050478835 0.03219017 -0.055140384 -0.02513519
000290 93 ae 2a 3d 4c f4 9c 3c b4 e2 2c bd 95 89 0a bc
       0.041670393 0.019159459 -0.04220839 -0.008455654
0002a0 7e 7f 8a bb fc 41 c8 3c 6f a5 0c bd 70 27 d4 3c
       -0.004226624 0.024445526 -0.034337457 0.025897712
0002b0 c7 49 40 bd 49 a6 b4 bc 4f ee 03 bc 26 20 2f bd
       -0.04694536 -0.022051947 -0.008052423 -0.04275527
0002c0 ad 94 5c bd 73 64 db 3c 06 b0 1f 3d cc 63 cf bc
       -0.053852726 0.026781296 0.03898623 -0.025316142
0002d0 a4 a3 ef bc f0 83 66 bd 71 02 37 bd ed 5c 48 bd
       -0.029252835 -0.05627817 -0.044680063 -0.048916746
0002e0 b8 4c de bc 9d d0 b8 ba fe b6 f5 3c 7d 25 72 3b
       -0.027136192 -0.0014100258 0.029994484 0.0036948614
0002f0 bc cd 3c bd 0b 52 37 3a 7c 70 10 bd 69 43 b2 bc
       -0.04609464 0.00069931214 -0.035263523 -0.02176066
000300 73 aa 51 3c 65 20 fb 3c 75 12 13 3d 9d 6b 44 bb
       0.012796986 0.030655095 0.035906274 -0.002997137
000310 7c bb f5 3c 18 d7 b5 3c 67 83 5a bd 03 46 13 3d
       0.029996626 0.022197291 -0.05334797 0.03595544
000320 5b 6f 28 bd 68 b2 65 bd 73 c6 c5 bc ef e1 1a bd
       -0.04112182 -0.056078345 -0.02414248 -0.037813123
000330 ca 4f 12 3b 74 cd da bb eb b0 60 bc f3 70 b1 3c
       0.002232539 -0.006677324 -0.0137140555 0.021660304
000340 9e 7f 47 3c cf 44 31 3d 48 67 e5 3b ec 39 61 bd
       0.012176422 0.04327851 0.0070008375 -0.05498688
000350 27 7a 00 3c d9 f2 87 3b 5a 88 3b bc 74 9e e8 bc
       0.007841623 0.0041488227 -0.011446083 -0.028395869
000360 34 f2 1e 3c fb 08 97 3c 44 64 ec 3c c1 40 6a bd
       0.0097013 0.0184369 0.028856404 -0.05719066
000370 0e f2 fd 3c ab 2a 1e 3d 6c 93 3b 3d e5 65 d9 3c
       0.03099921 0.03861491 0.04579489 0.026537845
000380 0c 26 80 3c 94 98 cb 3c bd 1a 65 bd e9 94 41 3d
       0.015643142 0.024853028 -0.055933703 0.047261152
000390 1c f6 0a bc 52 d1 3f bd 16 6d 9e 3b 00 3d ba 3a
       -0.008481529 -0.046830483 0.0048347814 0.0014208853
0003a0 69 94 19 3d 24 fe 90 3c bf 2e 0b bd 17 74 17 bd
       0.03749505 0.017699309 -0.033980127 -0.036975946
0003b0 49 5e 3b bd 6d 4c 1d 3c 9e 62 9f 3c 3b 8f 1e bd
       -0.045744214 0.009600741 0.019456204 -0.038710814
0003c0 5d a6 41 bd e8 fa 7c bc ff 08 e8 3c 8f 05 91 3a
       -0.047277797 -0.01544068 0.028324602 0.0011064279
0003d0 36 71 31 3d 76 6e 48 bc 50 43 fd 3c 83 a5 49 3d
       0.043320857 -0.012233367 0.030915886 0.04923011
0003e0 7c 10 8d 3c 9e 12 01 3d f5 e4 e3 bc 64 95 89 3c
       0.017219774 0.031511895 -0.027819136 0.016794868
0003f0 65 90 af 3c d0 60 7c bc 70 9e 3f 3d 62 28 1f 3d
       0.021431157 -0.015403941 0.046781957 0.03885687

gconv.0.lins.1.weight f4 [16, 2000]
000000 83 5d c2 bc c4 51 cd bc b8 35 3e 3d f2 89 8d 3c
       -0.02372623 -0.025063403 0.04643795 0.017277692
000010 f7 d5 20 3d 3a 84 a4 bc 70 61 4b 3b ce 98 bf bc
       0.039266553 -0.020082582 0.003103342 -0.023388293
000020 b3 1f 38 bd bd 4a 06 3d 89 51 05 bd 41 e2 bf 3c
       -0.044952106 0.03278612 -0.03254846 0.023423316
000030 2d 8a 19 bd 81 79 6f bb 89 b7 f0 bc 46 5e 8f 3a
       -0.03748529 -0.0036540928 -0.029384391 0.001093813
000040 eb e3 09 3c c7 b6 ee bc 46 3e c2 bc a8 13 c2 bc
       0.008416156 -0.02913989 -0.023711335 -0.023691013
000050 2c 05 04 3c f8 a9 1a bd af 4c 8f bc 21 42 1d 3c
       0.008057874 -0.03775975 -0.01749262 0.009598286
000060 05 41 c7 bc 02 35 5a bc c2 3a c3 3c ca 47 1d 3d
       -0.024322996 -0.013318302 0.023831729 0.03839854
000070 e4 ec f9 3c ac 9c 0c 3c 0b 27 af 3b b3 7e fa 3c
       0.030508466 0.008582275 0.0053452305 0.030577993
000080 e1 2e ee bc 70 af 0f 3c d2 05 63 bc e4 48 4f 3c
       -0.029075088 0.008769855 -0.013856368 0.012651656
000090 5c b4 3b 3d 4f b0 9f 3c d1 8d 9b bc 22 4b 58 bc
       0.0458263 0.01949325 -0.018988522 -0.013201507
0000a0 f0 1c f0 bc 7d 53 6b 3b d3 e2 2a 3d e7 1a 1c 3c
       -0.029310673 0.0035907917 0.041720223 0.009527898
0000b0 3d 0c 12 3c 7c 91 a6 3b d7 31 b5 bc 58 43 0a bd
       0.008914051 0.005083261 -0.022118492 -0.03375563
0000c0 a2 f3 7e bc 0c ae 82 3d 52 31 c0 3b 45 77 3e 3d
       -0.015561016 0.06380853 0.0058652544 0.046500463
0000d0 78 c2 c3 bb 35 91 b4 bb 1c 7d 5f 3b f5 1d 6c 3c
       -0.00597411 -0.005510474 0.003410167 0.014411439
0000e0 e1 38 59 3d 7f 09 31 3c 57 67 2c bd f9 89 bc bb
       0.05303276 0.010805487 -0.04209074 -0.0057537523
0000f0 af aa b2 3b 1b ea 42 3d 57 b2 70 3d 36 eb a9 bc
       0.005452476 0.04758654 0.058763828 -0.02074204
000100 dd 99 db 3c e7 58 3c 3d 7d 4f 12 bc f5 53 0a bd
       0.026806766 0.04598322 -0.008930084 -0.033771474
000110 0e b0 46 3d 7a a0 3a bd 57 51 19 bd 45 9e 12 3d
       0.048507743 -0.0455632 -0.037431087 0.03579547
000120 82 50 d5 bc 22 5f f2 bc ed 24 c9 3b 40 dd 04 bd
       -0.026039366 -0.029586378 0.006138435 -0.032437563
000130 5b 11 6b bc 4a 02 4a 3d 46 63 3b 3c e2 f5 04 bd
       -0.0143474 0.04931859 0.011437243 -0.032461055
000140 05 db 63 3c 48 0a a9 3b a1 3b f0 3c a0 18 33 bd
       0.013907199 0.0051586963 0.029325308 -0.043724656
000150 07 1a 2c 3c 35 74 43 bd cb 8f 95 3c cb 75 35 bd
       0.010504252 -0.047718246 0.018257042 -0.04430179
000160 87 c6 e9 3c 3c f2 fd ba ef 34 1a 3d 92 fc 1c bd
       0.028537048 -0.001937456 0.037648138 -0.038326807
000170 9d 50 98 bb 37 95 40 bd b5 e2 7d bb 77 8b 16 bc
       -0.0046482817 -0.047017302 -0.0038739864 -0.009188524
000180 ca f9 ef bb 44 3a f1 3c b1 a9 9e bb 4a 15 bd 3c
       -0.0073234783 0.029446729 -0.004842006 0.02308144
000190 30 14 33 3d bb e2 e6 bb af 61 35 3d 41 20 02 3c
       0.043720424 -0.0070460713 0.04428261 0.00794226
0001a0 f1 a8 b3 3c b8 a7 74 bc 19 9b ee bb f9 a5 15 bd
       0.021931143 -0.014932565 -0.0072816727 -0.036535237
0001b0 3e 64 47 3d 1a f1 0d 3d 0f d3 c7 3c fc 8a 0b 3d
       0.048679583 0.03465376 0.024392633 0.034068093
0001c0 42 71 b5 bc 90 38 15 3d f3 85 13 bd 31 96 ed bb
       -0.022148732 0.036430895 -0.036016416 -0.00725057
0001d0 3b 8d db 3c 51 49 ea 3c 70 0d 39 bd 9e 40 93 3b
       0.026800742 0.028599413 -0.04517883 0.004493787
0001e0 c2 9f 38 bd c4 33 23 bd e3 61 08 3c 43 72 16 bd
       -0.045074232 -0.03984429 0.008324119 -0.036730062
0001f0 07 11 bc 3c 34 52 05 3d 45 76 a5 bc b7 d8 ea bc
       0.022957338 0.032549098 -0.020197997 -0.02866779
000200 f7 cc 83 3a ce fd 95 3c 0e 10 85 3b 42 0e 7c bb
       0.0010055591 0.0183095 0.0040607518 -0.0038460647
000210 82 0a 52 3c 78 e5 11 3d a0 c0 16 3d f4 8e 1d 3d
       0.012819888 0.03561923 0.036804795 0.03846641
000220 8a 57 ca bc 0b be 0a 3d 80 ce 3e 3d 75 88 e1 bb
       -0.024699945 0.033872645 0.046583652 -0.006882722
000230 a8 d2 d5 bc 57 03 0f bd 43 a7 3a 3d e0 1f 2f 3c
       -0.026101425 -0.034915294 0.04556967 0.010688752
000240 51 e4 1d bd b3 71 67 3d f7 fa 39 3d b5 b0 91 bc
       -0.038547818 0.056504916 0.045405354 -0.017784456
000250 37 53 36 bd 69 5b 4c 3d 2b 5c 05 bd 3e 14 37 bb
       -0.044512954 0.049891863 -0.0325586 -0.002793565
000260 10 2b 3b 3a 24 0c d4 bb 92 68 38 bd 6b 5f 1f bc
       0.00071399007 -0.006471174 -0.0450216 -0.009727339
000270 1e 5e 53 3d 7b 87 6e 3b be fe 5e 3d 2c 6e af 3c
       0.05160343 0.003639667 0.05444216 0.021414839
000280 7b e4 1f bd dc 2b 33 3d 06 e3 d7 bc 8b 90 22 3d
       -0.039036255 0.043743 -0.02635337 0.03968863
000290 25 93 54 3d 8d bd 58 3c 64 dc 6b 3d 8f d3 48 3d
       0.05189814 0.013228786 0.057583228 0.049029883
0002a0 36 b8 68 3c 13 35 30 bd 5f 43 c6 bc 29 76 ce bc
       0.014204076 -0.043019366 -0.024202047 -0.025202828
0002b0 0c 30 01 3d e4 80 9f 3c 2d f4 11 3d c8 94 3c 3c
       0.03153996 0.01947064 0.035633255 0.011510082
0002c0 84 02 cf bc 51 5c 33 bc ec fa b1 3c ff bf f0 3b
       -0.025269754 -0.010947303 0.021726094 0.0073471065
0002d0 3e 34 41 3d 01 5d a6 bc 41 7e 38 bc f1 83 33 3d
       0.047168963 -0.02030802 -0.01126057 0.043827
0002e0 78 39 4d bc 09 b0 1e bd fa b3 4f 3c 6b df 26 3d
       -0.012525909 -0.0387421 0.012677187 0.04074041
0002f0 ce c3 14 3c b4 32 dd 3b 5c ec 19 bd 35 38 97 3c
       0.009079887 0.006750429 -0.037578925 0.018459419
000300 a2 0f 09 3d d7 c5 11 3d 97 1d 5f 3d 97 38 e3 3c
       0.033462174 0.035589065 0.05447158 0.027736945
000310 51 49 14 3b 80 cb 81 3d fc 71 db 3c 7b fc 5a 3c
       0.0022626708 0.06337643 0.02678775 0.01336586
000320 fd fa e4 3c 8a 87 47 3c a2 d1 2e bc 3c c9 58 3d
       0.027951712 0.012178311 -0.010670098 0.052926287
000330 76 6a 9f bc f6 60 86 bc ac ca 9f bc ad 3f 2f bd
       -0.019459944 -0.016403656 -0.019505821 -0.042785335
000340 2c cb 19 bd b9 c3 fe 38 af 71 c2 3c dd 1e c7 bb
       -0.037547275 0.0001214812 0.02373585 -0.0060766772
000350 9c 7e c0 3b 43 8c 08 3d d2 28 47 bc 4b cc 80 3c
       0.005874468 0.03333689 -0.012155728 0.015722414
000360 e5 8a 3e 3d 7b ca 09 3c 83 9a 61 3c 56 8a f7 3c
       0.04651918 0.0084100915 0.013769749 0.03021733
000370 f5 17 24 bd 95 8c d6 3c d7 bf fe bc a2 8e bc 3b
       -0.04006191 0.026190082 -0.031097336 0.005754308
000380 f8 2c 02 bc 85 bf 16 3d 74 5a d9 bc 2e 08 ac bc
       -0.007945292 0.03680374 -0.02653239 -0.020999994
000390 40 a4 a6 bb c6 9d 25 bd a8 37 63 3d 78 de 30 bc
       -0.005085498 -0.040433668 0.055473 -0.010795228
0003a0 6c a9 20 bd dc a9 1e 3d c1 29 34 bc 36 1b 7c bc
       -0.039224073 0.03873621 -0.010996283 -0.015387347
0003b0 c8 4c 97 bc c3 1b dc bb 42 b0 26 3d 0a 28 70 3d
       -0.01846923 -0.0067171766 0.040695436 0.058631934
0003c0 3c 69 5a 3d 88 4e b0 3c 23 ca be bb b2 d4 0d bc
       0.053323016 0.021521822 -0.0058224364 -0.008656668
0003d0 f9 f6 5c 3c 7d 86 25 bc b3 dc 35 bd 4f a0 c9 3c
       0.013486617 -0.010102865 -0.04439993 0.024612574
0003e0 7a 0f 3b 3d ae 42 33 3d 4a 34 03 bd 65 ff e0 bb
       0.045669056 0.043764763 -0.03203229 -0.006866383
0003f0 01 81 e8 bc d3 cc c1 3b 5e b7 4e bd cc 69 54 3d
       -0.028381826 0.0059143095 -0.05046784 0.05185871

gconv.0.lins.2.weight f4 [16, 2000]
000000 0c 7c 55 bc 0e db 99 bc c5 ee 07 3d 4e 8c 57 bc
       -0.013030063 -0.018781211 0.033186693 -0.01315601
000010 d3 9e 4e bd e3 ce 05 bd 84 cb 05 3d 8c 42 31 bd
       -0.050444435 -0.032668006 0.03266479 -0.043276355
000020 e3 ed 87 3a ed 84 5a 3d 78 a9 a6 3b 1d 1a 98 bc
       0.0010370578 0.053349424 0.00508612 -0.01856714
000030 b8 93 5b 3c 77 5a 2d 3d e5 d2 02 3b 84 c1 09 bc
       0.013401918 0.042322602 0.0019962129 -0.008407954
000040 97 3a 3b bd 0f 8e 6b 3c 51 5e 8b 3a cd bf 87 b9
       -0.045710173 0.014377131 0.0010632967 -0.0002589211
000050 55 d5 9c 3c 8c 28 77 bc 26 bf a5 3c b9 0d 69 3d
       0.019144693 -0.015085351 0.020232748 0.056897853
000060 3e 51 3c 3d cc fd d1 3c 86 cd 16 bd f6 69 fc 3c
       0.045975916 0.025633715 -0.036817096 0.030812245
000070 6d 5c fc bc 1b af 60 3c ad 2f 22 3d 67 6e 0e bd
       -0.03080579 0.013713623 0.03959625 -0.034773257
000080 72 57 5d 3c f4 d1 16 3d e5 9b 27 bc 91 5e 60 3d
       0.013509618 0.03682132 -0.010230039 0.054777686
000090 c2 36 ed 3b b6 a2 d3 38 24 54 14 bd 00 e6 3f 3d
       0.0072391937 0.00010091571 -0.036213055 0.046850204
0000a0 6e bc 82 3c 92 d2 38 3b 1c 08 de bc ff 1f d6 3c
       0.01595899 0.0028201682 -0.027103476 0.026138304
0000b0 37 4c 45 bd f9 72 de 3c 20 da 6b bd e9 62 d2 3c
       -0.048168387 0.027154433 -0.057581067 0.02568193
0000c0 00 b2 f6 3c 60 67 11 3d af 86 7c bc d6 a1 3a bd
       0.030114174 0.035498977 -0.01541297 -0.045564495
0000d0 47 b5 5c bb 9d de 68 3c 44 b4 fb 3c cd 5d 06 bd
       -0.0033677386 0.014213231 0.030725606 -0.0328043
0000e0 67 a0 8e 3c b6 f6 e3 3c f0 7c 01 bd e2 58 17 3d
       0.01741047 0.027827602 -0.03161329 0.03695
0000f0 21 e5 cb 3c 01 36 73 3c ed f1 38 bc b3 39 11 bd
       0.02488953 0.0148444185 -0.011288148 -0.035455417
000100 f3 99 4d bd 8c ca 59 3c 73 a2 0c bd d0 6e e6 bc
       -0.050195646 0.01329292 -0.03433461 -0.028129011
000110 3e b3 df 3c 02 50 a2 3c 0f 8e 39 3d ab 69 7c bd
       0.027307149 0.019813541 0.045301493 -0.06162421
000120 af 44 4c 3d 58 66 54 38 7a 5f 75 bc bd 54 0f 3d
       0.04987019 5.0640054e-05 -0.014976377 0.034992922
000130 df 55 29 3d ac d8 84 bc 92 a3 2e 3d 76 08 38 bd
       0.04134166 -0.016216598 0.04263646 -0.044929944
000140 e3 34 05 3d f8 9c 1d 3d 70 ca 1c ba 42 7d 49 bd
       0.03252114 0.038479775 -0.0005981093 -0.04919172
000150 ce 10 cb bc 88 b4 00 3b 6e 62 40 3d 3a e4 11 bd
       -0.024788287 0.0019638855 0.04696887 -0.035618044
000160 11 5d 9b bc 3f ef 3c 3d b4 47 1a bc 73 a7 6c bd
       -0.018965276 0.0461266 -0.009416509 -0.05777688
000170 95 41 5f 3c ea b6 56 3d c3 d2 37 bd 0e 64 5a bd
       0.013626476 0.052420534 -0.044878732 -0.053318076
000180 81 41 0e 3d 6d f1 0d 3c 2e 25 58 3c e6 fd 35 bd
       0.03473044 0.008663517 0.013192458 -0.04443159
000190 16 a2 34 3d 6d dc 36 bc 12 bb 2d 3d f4 5a a9 bc
       0.04409989 -0.011160952 0.042414732 -0.020673253
0001a0 79 6a 01 bd 3f d6 b0 bc 63 3f 2b bb 1f ca 13 bd
       -0.03159568 -0.021586535 -0.002613031 -0.03608143
0001b0 30 87 a9 bb fe 2e 8b bc 38 a0 4a 3d f3 07 9e bc
       -0.0051735863 -0.016990181 0.049469203 -0.0192909
0001c0 1a 8c 15 bd e9 e7 cd 3c e8 49 dd 3b dd e2 21 bd
       -0.036510564 0.025134997 0.006753195 -0.039522994
0001d0 f8 4a 2e bc 3f 97 27 bd 25 11 88 ba c1 d5 ed bc
       -0.010637991 -0.040915724 -0.0010381086 -0.02903259
0001e0 88 28 27 bd aa b1 33 bd 9c 84 a8 3c 23 73 f4 3c
       -0.040810138 -0.043870606 0.020571046 0.029840058
0001f0 21 a2 2f bd 6b b2 47 3d 4d 0a b1 bc ff 60 0c bd
       -0.042879228 0.048754137 -0.021611357 -0.03427219
000200 0b c2 f2 bc 98 56 09 bd b5 2a 47 3c 7d c1 25 3d
       -0.029633543 -0.033529848 0.012156178 0.040467728
000210 5d 56 75 bd 18 64 ca 3c 90 e6 2c 3d d5 43 c8 3c
       -0.059896816 0.024705932 0.04221207 0.024446407
000220 b2 87 37 3d 94 23 4f 3d c1 be e5 3c 49 ff 31 3d
       0.044807144 0.05057104 0.02804506 0.04345635
000230 ef a2 18 bd 95 34 07 bc 7a 42 4f 3d 5e 34 c0 3b
       -0.03726476 -0.008252283 0.050600506 0.0058656177
000240 76 60 45 bd 0e e8 01 bd be 6d 64 bd 58 77 4b 3d
       -0.048187695 -0.031715445 -0.05576872 0.049674362
000250 35 55 30 bd 37 ea ea bc 81 47 58 3d 77 40 63 bc
       -0.04305001 -0.028676135 0.052802566 -0.01387035
000260 cd 52 2d 3d 42 46 f1 bb d7 d8 09 3d 18 f2 c8 3c
       0.042315293 -0.0073631117 0.03365406 0.024529502
000270 83 51 5b 3d 48 0e 3e bd 0b f0 68 bc e6 e8 34 bd
       0.053544533 -0.04640034 -0.014217387 -0.04416742
000280 5e 93 92 bc 47 00 81 3c bc c2 2e 3c f0 93 71 bb
       -0.017892536 0.015747203 0.0106665455 -0.003686186
000290 bb a9 eb 3c d3 d4 22 3c 28 86 8e bc 7d bf 62 3d
       0.028767457 0.009938437 -0.017397955 0.0553584
0002a0 68 bc 43 bd 02 4f c2 3c 61 e6 38 bc c3 c2 1c bd
       -0.0477871 0.023719314 -0.011285395 -0.038271677
0002b0 de 51 03 3d f7 63 16 3c a2 56 3e 3d 71 1c 2d bd
       0.032060497 0.009179107 0.04646934 -0.042263452
0002c0 8c 3b ad bc 94 84 01 bc fb 96 54 bc 15 5c 4f 3c
       -0.021146558 -0.007905144 -0.01297545 0.012656231
0002d0 be 84 a4 bb e2 88 31 bd 1e 70 02 bd 7a 78 84 3c
       -0.005020707 -0.043343432 -0.031845205 0.016170729
0002e0 97 e6 12 bc 4b a5 04 3d 5c 03 c6 3c c9 2d a0 3c
       -0.00896611 0.0323842 0.024171524 0.019553082
0002f0 e8 4f 3f 3c 7e fb 6b 3c 01 b2 0a 3d ab c9 8a 3c
       0.011676766 0.014403222 0.033861164 0.016941866
000300 6a 76 23 bd 89 54 e3 3c 8a da 6f bd 02 71 87 bb
       -0.03990785 0.02775027 -0.058558024 -0.0041333446
000310 2f fa f9 bc 6c e2 16 bd fc 3a 31 bd 3c fd 21 3d
       -0.030514805 -0.036837026 -0.043269143 0.039548144
000320 62 27 77 bd 60 e2 8a bc 79 c2 52 3d 95 04 5d 3d
       -0.060340293 -0.016953647 0.051454995 0.053959448
000330 71 cf c0 3b d4 40 30 bd e0 b0 50 3d ec 2c 4e 3c
       0.005884104 -0.043030575 0.05094993 0.012583952
000340 ba 55 52 bd ef 26 9d 3b 2e e6 51 3d 65 90 68 3c
       -0.051351286 0.004795901 0.051244907 0.014194583
000350 0e 03 06 3d 92 5f ee bb 00 af b9 bc 80 7e b8 3c
       0.032717757 -0.0072745765 -0.022666454 0.022521257
000360 dd 36 d9 3c bb ae 0c bc 11 22 39 bb 15 48 91 bb
       0.026515419 -0.008586581 -0.0028249065 -0.0044336417
000370 a1 1c b9 3c 82 b5 07 bc b2 1f 33 3d 15 61 77 3c
       0.02259666 -0.008283021 0.0437314 0.01509883
000380 1e 75 a2 bc cf ea 39 3d e0 35 3c bd 59 5b 6d bc
       -0.019831236 0.045389947 -0.045949817 -0.014487111
000390 98 1c 40 3d b4 f5 ef bc b1 e7 27 3d b9 c0 eb 3b
       0.04690227 -0.029291965 0.040992443 0.007194605
0003a0 1f 2a 50 bd a6 11 71 bd 53 22 f5 bc 8d e1 d5 3c
       -0.05082142 -0.05885472 -0.029923594 0.026108528
0003b0 01 c5 19 3d d3 5c 10 3d 6a a2 7c 3c c6 d0 c4 3c
       0.037541393 0.035244774 0.015419582 0.024025332
0003c0 1f fc 6b bd 13 b6 f8 3c f9 ad 16 3c d7 92 c1 3c
       -0.05761349 0.030360257 0.009196752 0.023629589
0003d0 e0 a7 8b bc f3 82 b4 bc 0b b6 21 3c 81 7c 2b bd
       -0.017047822 -0.022035098 0.009870063 -0.041866783
0003e0 7b 92 80 3c 0f db ae bc 58 e3 19 3c ef e9 1c bc
       0.015694847 -0.02134469 0.009392582 -0.0095772585
0003f0 12 99 42 bc 03 f2 4b bd da d9 87 ba 16 91 42 3c
       -0.011877315 -0.049791347 -0.0010364607 0.0118754115

gconv.1.lins.0.weight f4 [16, 16]
000000 09 60 4f 3e 9c e0 54 bd a7 ce 6e be 76 48 c2 3e
       0.20251478 -0.051972017 -0.23321019 0.37945908
000010 5b fc ae bc d2 88 d6 3d 2e 98 14 bd 87 25 8a be
       -0.021360567 0.10475315 -0.036277942 -0.26981756
000020 5d 1d 8e 3e 08 71 0f bd 12 1f 0e be ec 0c 96 3d
       0.27756777 -0.035019904 -0.1387904 0.073266834
000030 01 aa c2 3d e4 e6 2a 3e aa fa 3d 3e 79 f9 70 be
       0.09505082 0.1668964 0.18552652 -0.23532666
000040 f7 82 75 3e 0f 00 4b bd 90 5e a1 be 78 f3 ae 3d
       0.2397574 -0.049560603 -0.31517458 0.08542532
000050 cf db aa 3e 37 06 4e 3e 6d 1e 19 3e 24 a1 b5 3d
       0.33370826 0.20119558 0.14953013 0.08868626
000060 a9 67 15 be 83 bc 9b be 13 11 d7 3e b9 5f d8 3c
       -0.14590324 -0.3041726 0.42005214 0.026412832
000070 31 3c 38 3e 29 42 98 be d0 cf 98 be 28 ce 9f 3e
       0.17991711 -0.29737976 -0.29846048 0.31211972
000080 46 16 b0 3e 25 bb 55 3d 16 b1 9e bb d7 37 b1 3e
       0.34391993 0.052180428 -0.0048428876 0.34612915
000090 f0 b3 9f 3e 6e 70 18 3e e0 13 a2 3e c2 db 9b bd
       0.3119197 0.14886639 0.31655788 -0.07610275
0000a0 c6 81 99 bd b9 b5 a9 3d 11 77 2c bc d1 82 c7 3e
       -0.074954554 0.08286614 -0.0105264345 0.38966992
0000b0 f6 de 34 be b6 4f a9 3e 27 fb 35 be 41 db 63 be
       -0.17663178 0.33068627 -0.17771588 -0.22251607
0000c0 78 63 25 3d a7 e1 ab 3e f3 54 33 3e e3 01 37 bd
       0.040378064 0.33570597 0.17512874 -0.044679534
0000d0 38 5e c3 3d 23 f6 44 3d 72 f7 a5 3e 8f b8 bd be
       0.09539455 0.048086297 0.32415348 -0.3705487
0000e0 11 50 85 be cf e2 a4 be 57 9f 8a be 52 d9 96 3d
       -0.26037648 -0.3220429 -0.27074692 0.07365669
0000f0 4e 4c 5a 3d fc 4f f2 bd ed 75 a8 3e e6 54 3e 3d
       0.053295426 -0.11831662 0.3290247 0.046467684
000100 dd cf 5b 3e 33 46 f7 bc d0 ad 2f be 09 19 27 be
       0.21466012 -0.03018484 -0.17156148 -0.16318144
000110 e8 5f aa 3c 51 99 a8 3e b5 d9 59 3e 7a cf db 3e
       0.020797685 0.3292947 0.21274455 0.4293173
000120 55 ce ad be 79 8b a1 3e d8 60 b0 be c4 10 8a be
       -0.3394648 0.31551722 -0.34448886 -0.26965916
000130 48 e2 4a be bd d8 8f 3e 1f cb 27 3e 9e 93 2c 3b
       -0.19812882 0.28095046 0.16386078 0.0026333104
000140 c7 4e f3 bd 28 45 50 3d 5f 8a b9 3c 34 c9 8b 3e
       -0.1188026 0.050847203 0.022648988 0.27301943
000150 22 42 68 3e de ac 92 3e 18 b0 1b be 68 eb 51 3e
       0.22681478 0.28647512 -0.15203893 0.20499957
000160 ac b6 a2 3d 25 3c 5a be bf af a1 3d b6 8f 32 bd
       0.07944998 -0.21312006 0.07894849 -0.043594085
000170 21 d3 6c 3c 03 01 51 3e 2e aa 8c be f8 8b c1 3e
       0.014454634 0.20410542 -0.27473587 0.378021
000180 2e e5 8b 3d d7 76 24 3d af 51 13 be c5 5c bc be
       0.06830822 0.040152397 -0.14386629 -0.36789528
000190 50 e2 65 be cc 7f d8 3e e8 c6 b7 be 19 7c 85 be
       -0.22449613 0.42285 -0.3589394 -0.26071241
0001a0 56 18 bc 3e 58 02 54 bc cf cc be be b8 3d 81 be
       0.36737317 -0.012940012 -0.37265632 -0.252424
0001b0 56 63 9f 3e b9 2f 91 3e c2 28 26 be 27 93 8e 3e
       0.31130475 0.28356722 -0.16226485 0.27846643
0001c0 86 0e cd 3e b5 c1 74 be 18 d5 d6 be 10 a4 1b be
       0.40050143 -0.23902018 -0.41959453 -0.15199304
0001d0 6b 43 91 be 64 ca 4a bd 87 16 a6 3d 58 a5 0c bd
       -0.28371748 -0.04950942 0.081097655 -0.03433737
0001e0 59 77 12 3e f7 34 00 be f1 fa 95 3d 61 e5 da 3e
       0.1430334 -0.12520204 0.07323254 0.42753127
0001f0 4b 4e 7f bd 29 f6 3f ba 1a 50 71 3e 5c 0d a4 3e
       -0.062330525 -0.00073227525 0.23565713 0.32041442
000200 a7 55 ab 3e 52 55 1e 3e c7 d5 51 be 83 17 b3 3e
       0.33463785 0.15462235 -0.20491706 0.34978876
000210 a9 ed c8 3e ad fa 06 be 77 b6 f3 bb b0 eb 59 3e
       0.3924382 -0.13181563 -0.007437523 0.21281314
000220 69 97 57 be ea bb 9f be a0 c3 88 be 89 79 d3 be
       -0.21053852 -0.31198055 -0.2671175 -0.4130366
000230 05 64 c6 3e 61 21 62 bd 5e b7 69 3e 5d 53 41 be
       0.38748184 -0.055207614 0.22823855 -0.18879457
000240 70 3d c3 be 47 bd 6d bc b1 c1 0f be 94 42 0a bd
       -0.3813281 -0.014510459 -0.14038731 -0.0337549
000250 eb 55 40 3e 0c 3f 92 3d db dc 8c 3e 62 78 a5 3e
       0.18782775 0.071409315 0.2751225 0.32318407
000260 2d b4 d2 3d 43 b9 63 be 1a 0b 9e be ce 51 31 3e
       0.10288272 -0.2223864 -0.30867845 0.17316362
000270 a3 cc ef 3d 31 a9 06 be 30 a7 25 be 53 fe ad be
       0.11708953 -0.13150479 -0.16177058 -0.33983096
000280 38 64 9b 3e 24 b6 95 be db 03 56 3d c3 20 9c 3e
       0.30349898 -0.29240525 0.05224977 0.30493745
000290 2c 02 cd 3e 25 fb 58 3e 1f 80 2a 3e 88 52 c9 be
       0.4004072 0.21189554 0.16650437 -0.3932078
0002a0 84 01 0b 3e 55 ca 67 be b7 3c 9a 3e cb 05 5d be
       0.13574797 -0.22635777 0.30124447 -0.21584241
0002b0 69 7b 2a 3d c6 2d e6 bd 91 14 cd be 0c a3 b9 3e
       0.0416216 -0.11239199 -0.40054753 0.36257207
0002c0 1e fe 21 3c af b4 04 3e a1 c7 1d 3d dd 2a 3b 3d
       0.009887246 0.1295955 0.03852046 0.045695174
0002d0 ec 54 2d be ad 66 73 be 88 3d 8b 3d 6e cd 82 be
       -0.16926926 -0.23769636 0.067988455 -0.25547355
0002e0 e4 56 05 be 7b 90 62 3a c6 56 c9 3e 33 9f da 3d
       -0.13021427 0.0008642745 0.39324015 0.10674896
0002f0 12 2e 8c be aa d5 8a 3b 7a 18 8e be 8b 91 b8 3e
       -0.273789 0.0042368965 -0.2775305 0.3604854
000300 a1 1f ab 3e 22 db c2 bc df ef 5a be b2 57 a1 be
       0.33422568 -0.023786131 -0.21380566 -0.3151222
000310 07 35 18 3d 3a 44 d0 3d fd fc 42 3e f2 be 0e be
       0.037159946 0.10169263 0.1904182 -0.13940027
000320 56 0d 8f 3e 92 22 fb 3d 56 57 a3 3d 89 c4 1d 3e
       0.27939862 0.12262453 0.079756424 0.15407003
000330 ba af 8f be ab 6d b0 3b 91 d7 26 be 04 9f a1 be
       -0.28063756 0.005384167 -0.1629317 -0.31566632
000340 fa 59 e7 bc 68 f2 a2 be 8b 7f d0 bc cf a5 6f be
       -0.028241146 -0.31825566 -0.025451442 -0.23403095
000350 88 cb 3c 3e d0 15 d0 be 33 e1 73 be 4e 1c 24 bd
       0.18437016 -0.40641642 -0.23816375 -0.040066056
000360 e8 5f ce be c9 da 97 bd fc 4e 5f be 81 13 6e bd
       -0.40307546 -0.07414777 -0.21807474 -0.05812407
000370 eb 97 a2 be 0b bf 1c be 1b 6c 98 3e df 59 65 3e
       -0.3175653 -0.15307252 0.29769978 0.22397564
000380 e3 2e 4e 3e 67 7e a8 3e aa da 99 be cb 23 a3 3e
       0.20135073 0.32908937 -0.3004964 0.31863245
000390 86 d0 cc 3e 46 79 6d 3e c1 7e b1 be 5d 79 59 be
       0.4000284 0.23190793 -0.34667018 -0.21237703
0003a0 3f 15 37 be 69 7c 5c be ce ce 94 3e 33 ac 2d 3e
       -0.17879198 -0.21531834 0.2906403 0.1696022
0003b0 9b fd ac 3e 96 30 41 3c a5 dd 2c bc 7e 2e 96 bc
       0.33787236 0.011791369 -0.010550891 -0.018332716
0003c0 e8 30 44 bd 2e 80 f1 bd 54 93 4b 3e 11 97 d0 be
       -0.047898203 -0.117920265 0.1988042 -0.40740255
0003d0 03 b6 9b 3d d6 2d e8 be 74 33 6f 3e c9 66 1f 3e
       0.07603075 -0.4534747 0.23359472 0.15566553
0003e0 f0 98 39 3e 9f c3 a2 3e 74 a0 ac be 17 9f 22 3e
       0.18124747 0.31789872 -0.33716166 0.15881
0003f0 18 bd 14 3e 4b db 96 3e f8 73 00 be ef 13 b7 3d
       0.14525259 0.29464182 -0.12544239 0.08939349

gconv.1.lins.1.weight f4 [16, 16]
000000 c2 d6 46 3e 48 59 88 be dc 59 35 3e 83 40 58 3e
       0.19417861 -0.26630616 0.1771006 0.2111836
000010 28 5c d4 be 5c 84 f6 bb 26 44 92 be 6f ab cf bd
       -0.4147656 -0.0075231027 -0.28567618 -0.1014012
000020 fc 14 c0 3e 98 c0 a1 3e 80 f1 2b 3e 5f e5 99 3e
       0.3751601 0.3159225 0.16791344 0.3005781
000030 4e c2 9b 3e 8e 2e be 3e 09 69 dc be 30 e0 89 be
       0.3042168 0.37144893 -0.43048885 -0.26928854
000040 02 ac ac 3d dd fe 0c 3d c3 55 d2 3e cb e6 51 bd
       0.084312454 0.034422744 0.41081056 -0.051245492
000050 3c 85 c5 3e 3d 6a c0 3e 80 f8 6b be e0 90 3c be
       0.38578212 0.37581053 -0.23044014 -0.1841464
000060 4d bd a6 bc 2c 05 05 3e c4 c7 6d be 31 63 96 3e
       -0.020353938 0.12990254 -0.23220736 0.29372552
000070 24 9e 52 be 8e 67 a5 3d f2 8a 3a bc 7e c2 01 be
       -0.20568138 0.08076392 -0.011385666 -0.12671849
000080 5c db 83 3e 2e 8e 0d 3e 68 51 b2 3e d3 5e b6 3e
       0.25753295 0.13823768 0.34827733 0.3561922
000090 46 13 bb be c0 fe 99 be 2d b0 ad 3d 10 54 80 bd
       -0.36538142 -0.3007717 0.084808685 -0.06266034
0000a0 4b 2c 9c 3e e9 08 b9 3d 4e 91 93 bd ed 8e df bd
       0.30502543 0.090349026 -0.07205449 -0.10915933
0000b0 49 65 9d be f5 43 e8 3e ef 54 6a be d3 a8 b9 be
       -0.30741337 0.45364347 -0.22883962 -0.36261615
0000c0 f8 d9 85 3e bd e5 9e 3e ef 47 df be 8a d4 19 3d
       0.2614286 0.3103465 -0.43609568 0.03755621
0000d0 27 16 81 be 37 79 93 bd 68 ab e5 3d 31 05 60 be
       -0.25212213 -0.07200854 0.11214334 -0.2187698
0000e0 29 e9 d2 3e 35 36 c4 3e 22 75 a7 be a3 2a ab be
       0.41193512 0.38322607 -0.32706553 -0.33430967
0000f0 93 1b cd 3d b8 63 12 3e b6 18 d1 be 2c fd 9f 3e
       0.10015025 0.14295852 -0.40839165 0.31247842
000100 dd 2f 63 be 63 1c 9a 3e 69 63 15 3e 58 31 be be
       -0.22186227 0.30099782 0.14588703 -0.3714702
000110 eb 35 50 be d3 98 ec bd c7 79 a8 be c1 ca c6 b9
       -0.20333068 -0.115525864 -0.3290541 -0.00037916566
000120 86 01 86 be 1a 45 81 3d 6a 49 b4 be 6d 48 f9 bd
       -0.26173037 0.06312008 -0.3521226 -0.12172017
000130 12 16 a4 be 0d 11 21 3e 12 17 42 3e 94 e8 0e 3d
       -0.32048088 0.1572916 0.18954113 0.034889773
000140 df df 5e 3e 99 f3 36 3e ae 9e e8 3d 4c e4 49 3e
       0.21765088 0.17866363 0.11358391 0.19715995
000150 10 ca a3 be 5a 14 cb 3e f5 b7 9a be 8f 57 f2 bd
       -0.319901 0.39663965 -0.30218473 -0.11833107
000160 3e 1f 99 3e 34 04 80 3d 3c 1c 10 3e e3 51 cf bd
       0.29906648 0.06250802 0.1407327 -0.101230405
000170 eb 03 38 be 22 9a 08 be 13 ad c8 3e 2b 6c 98 3e
       -0.17970245 -0.13340047 0.39194545 0.29770026
000180 49 63 95 3e b5 09 d1 be 08 90 9e 3e bf ae b2 3e
       0.2917731 -0.40827718 0.30969262 0.34898946
000190 83 c8 c4 be 98 b6 bf be d9 ed 6a 3e 77 d6 0d 3e
       -0.38434228 -0.37443995 0.22942294 0.13851343
0001a0 73 09 82 3e c2 12 9c 3d 8b 99 c8 3e 70 a2 1f be
       0.25397834 0.07620765 0.39179644 -0.15589309
0001b0 36 4b c1 3d 9b 3b 97 bd aa b0 92 bd e4 27 63 3d
       0.094381735 -0.07384416 -0.07162602 0.055457965
0001c0 57 09 1f be 7a 1b 1d be 9c 5c b7 3e 9b bd 2b 3e
       -0.15530907 -0.15342513 0.35812843 0.16771547
0001d0 81 54 a3 be f3 5b 27 3e 47 8a c8 be 7b 53 a2 be
       -0.3190041 0.1634367 -0.39167997 -0.31704316
0001e0 2d 0b 88 3e 45 67 d5 bc 28 a8 41 3d 73 2c b6 3d
       0.26571026 -0.02605022 0.047279507 0.08895197
0001f0 d4 76 82 3e d4 8e 7c be 09 d9 90 3d 49 fe 8b 3e
       0.25481284 -0.2466386 0.07072646 0.27342442
000200 47 40 88 be 80 6b 4d 3e 8a f0 ce 3e 17 1d ff 3d
       -0.2661154 0.20060539 0.40417892 0.1245672
000210 47 1f 5f be fa 09 38 be b6 37 8e be 46 d2 85 be
       -0.21789275 -0.17972556 -0.2777688 -0.26136988
000220 04 00 a7 be b0 af a0 be 84 34 8b be 0c c0 25 3e
       -0.326172 -0.3138404 -0.27188504 0.16186541
000230 9b 3d c2 3e 7b a1 7c be ac 1d c0 be 94 77 33 3e
       0.37937626 -0.24670975 -0.37522638 0.17526084
000240 a2 58 4d 3d 2e b7 09 3c 4f 0d 66 be 16 21 af bd
       0.050133355 0.00840549 -0.22466014 -0.085512325
000250 3c f1 8e 3e ba 93 90 3e b4 1c ca 3e 33 44 f9 bc
       0.27918422 0.28237706 0.39475024 -0.030428028
000260 46 86 ef bd 76 a8 51 3e 6b 43 a9 3e 25 f8 00 3e
       -0.116955325 0.20474419 0.33059248 0.1259466
000270 d6 05 b3 3e 2e 9f bd 3e 0d 95 b4 3e 89 e4 a9 3e
       0.3496539 0.37035507 0.35269967 0.3318217
000280 ba 51 ce 3e 1a 86 22 be bc 52 69 bd fc 86 9b 3d
       0.40296727 -0.15871468 -0.056963667 0.075941056
000290 ec 60 9d bc b5 01 55 3e aa 36 f7 bc 06 92 13 be
       -0.019211255 0.20801432 -0.030177433 -0.14411172
0002a0 aa 79 be 3e c2 bc 9f 3e 42 60 70 3e ee 4f 80 3e
       0.37202197 0.31198698 0.2347422 0.25060982
0002b0 43 b6 27 3e 95 56 d6 3e 0b 42 b4 3d 4d 85 bc be
       0.16378121 0.41862932 0.08801659 -0.3682045
0002c0 ae d1 57 be aa 47 b2 bd 83 d5 ac bd fe a3 87 be
       -0.2107608 -0.08705075 -0.08439162 -0.26492304
0002d0 3c c4 c9 3d ad c8 97 3e d6 f8 7a be a3 1d a4 3e
       0.09851882 0.2964529 -0.24508986 0.3205386
0002e0 12 bd d0 3e 25 bc 7d be e2 ba 1d be ac 4d d5 3e
       0.4076925 -0.24778803 -0.15403321 0.4166082
0002f0 92 b9 6d 3e 9c a2 18 be 71 14 96 be 33 43 ca 3e
       0.2321532 -0.1490578 -0.2931247 0.39504394
000300 04 aa b6 be 52 13 16 3e fc b0 ae 3e 39 bb cc be
       -0.35676587 0.14655808 0.34119403 -0.3998659
000310 ba ab 36 3e f6 87 96 3e 1f 6e a9 be a5 c2 62 be
       0.17838946 0.29400605 -0.33091828 -0.22144563
000320 7f 72 1b bd e4 c7 7b 3e db 88 84 3e 36 c0 90 3e
       -0.03795099 0.24587971 0.25885662 0.28271645
000330 57 ee 8f 3e f3 e4 02 3e 51 ac 70 3e 5a 73 3c 3e
       0.28111526 0.1278265 0.23503233 0.18403378
000340 b6 6f 55 be 27 63 09 be 36 e6 07 3e 79 81 90 be
       -0.20843396 -0.1341673 0.13271412 -0.2822378
000350 3d cd 5e be 1c ac 2a 3e 76 1f cd 3d 3e df d3 3d
       -0.2175798 0.16667217 0.10015766 0.103453144
000360 b3 b1 20 3e 62 69 c4 bd 34 d7 d4 3e 79 fb cb be
       0.15692787 -0.09590413 0.41570437 -0.39840296
000370 45 15 98 be 25 98 91 bd a9 e1 dc 3d ae f6 a1 be
       -0.29703727 -0.071090974 0.10785229 -0.31633514
000380 85 31 d9 bc a4 14 e6 3b 96 db af 3e 2e c8 12 be
       -0.02651287 0.0070215035 0.34347218 -0.14334175
000390 6d e4 f7 bb 6a f8 85 be 39 4d 3d be af 4d 2e be
       -0.0075650723 -0.26166087 -0.1848649 -0.17021821
0003a0 ce b1 ed bb 3f 1f 1e 3b 25 05 c8 be 23 76 af be
       -0.007253862 0.002412751 -0.39066425 -0.3426982
0003b0 34 e6 a3 be e0 77 cd 3d ed eb cb be 82 52 d2 3d
       -0.3201157 0.1003263 -0.39828435 0.10269643
0003c0 55 ac 4b bd 07 dd 10 3e 17 a3 65 be aa 60 01 be
       -0.049724896 0.14146815 -0.22425495 -0.1263453
0003d0 1e 57 01 3e 69 44 19 be 43 19 04 3e a7 94 fd 3d
       0.12630889 -0.14967503 0.12900262 0.12381869
0003e0 bc 9f 5b 3e 65 fd 03 be 9d b1 9f 3e ce d3 a7 bd
       0.21447653 -0.12889631 0.31190196 -0.081946954
0003f0 5e 67 83 be 38 3a 4b be f6 55 88 3e 97 a4 00 3e
       -0.256648 -0.19846427 0.26628083 0.12562786

gconv.1.lins.2.weight f4 [16, 16]
000000 a6 84 ad be e6 ab fe 3d 83 9b 9d bd 2f 65 ab 3d
       -0.33890265 0.12435131 -0.07695677 0.083689086
000010 20 a6 b6 be d0 c3 60 bd 0b b0 78 be e7 03 2a 3e
       -0.35673618 -0.05487424 -0.24285905 0.16603051
000020 0a de 90 bd 23 8a d1 3d 04 7a ab be b6 e3 54 3e
       -0.070736006 0.102314256 -0.33491528 0.2078999
000030 e3 b5 eb bd 79 59 8e be 02 f1 ce bd 5b 1e 91 be
       -0.115093015 -0.27802637 -0.10104562 -0.28343472
000040 57 07 cd 3c 33 f5 92 3e db b3 c6 bd 37 58 80 3e
       0.025027914 0.28702697 -0.097022735 0.25067303
000050 98 42 b8 3e 23 e7 d6 3e 1e 65 4a bd 9c 06 98 be
       0.35988307 0.41973218 -0.04941284 -0.29692543
000060 5f 2f 98 bd 11 aa de bd d2 4c ce 3e b3 92 6a 3e
       -0.0743091 -0.10872281 0.40292984 0.22907524
000070 25 16 4c be b3 f4 8d be 04 0f 1b be 96 ed 19 be
       -0.19930322 -0.27725753 -0.15142447 -0.15032038
000080 80 03 99 be 12 9d ab 3d 2f 25 99 3e 87 05 86 bd
       -0.29885483 0.08379568 0.2991118 -0.06544023
000090 5e 87 76 3e 1c 52 6c 3e 40 2b 8e 3e 62 f8 61 bd
       0.24075076 0.23078197 0.27767372 -0.055168517
0000a0 54 e1 6b be af 5d e1 bd bf cf b7 be 47 ef 8a bd
       -0.23035175 -0.11004197 -0.35900685 -0.0678392
0000b0 a5 da 95 be 0f d6 9d bd 3a 94 a3 be bd 8f 80 3e
       -0.29268375 -0.07706844 -0.31949025 0.25109664
0000c0 0b 38 89 3e b3 d0 cd bd af d9 de bd 14 29 aa 3d
       0.2680057 -0.10049572 -0.108813636 0.08308616
0000d0 e1 bb be bd 16 ba b8 bc a6 93 d3 3e a0 7b 9c 3e
       -0.09313179 -0.02254967 0.41323584 0.30563068
0000e0 8d d9 c0 3e 31 89 20 3e ac 94 89 3d d8 21 ad be
       0.37665978 0.15677334 0.0671781 -0.33814883
0000f0 25 95 a6 be 01 06 c6 3e 54 04 99 be 31 e2 32 3e
       -0.32535663 0.38676456 -0.29886115 0.17469098
000100 11 f1 b2 3e 59 17 87 3e d2 b3 d6 3e 06 73 ac be
       0.34949544 0.26385 0.41934067 -0.33681506
000110 2c 78 44 be 25 23 b7 bc b0 07 c3 3e 55 52 a1 be
       -0.19186467 -0.022355625 0.38091803 -0.31508127
000120 c0 ee 57 be 76 00 66 be 3d d3 d5 bd a4 b6 f7 3d
       -0.2108717 -0.22461113 -0.10440681 0.12095383
000130 75 7e c8 be 13 80 a1 bc f6 77 18 3d 92 6d 2a bb
       -0.3915898 -0.01971439 0.03722378 -0.002600525
000140 69 7d 72 3d 48 5b 6f 3e 80 81 04 be 28 f5 6d bd
       0.05920163 0.23374665 -0.12940025 -0.058095127
000150 0b de 22 be ff aa 8f 3e b3 e5 d6 be 79 a5 26 3e
       -0.15905015 0.28060147 -0.41972122 0.1627406
000160 9d 39 7f bd d3 f1 bd be 36 78 8d be 60 3e 4a 3e
       -0.062310804 -0.3709856 -0.27630776 0.19750357
000170 01 12 b3 3e 43 51 2e 3e 3c b0 63 3e 60 bc 55 be
       0.34974673 0.17023186 0.22235197 -0.2087264
000180 7a cc 76 bd 94 70 d4 bd a2 d1 bd 3e 40 85 3a bd
       -0.060253598 -0.10373035 0.37074 -0.045537233
000190 cc 24 20 3e 6c dd 97 3d e2 5b 91 be f3 0e d0 3e
       0.15639037 0.0741528 -0.28390414 0.40636405
0001a0 79 f9 96 3e 42 8e 97 bd 30 55 c6 3d 55 90 3d 3e
       0.29487208 -0.074001804 0.09684217 0.1851209
0001b0 6b 1c 91 3e 8c 91 9e 3c 5f 9f b6 be e6 be a8 3d
       0.28341994 0.019356512 -0.35668465 0.08239536
0001c0 b5 ee 9e be b8 35 2b 3d 7b 92 aa be fb 8e af be
       -0.31041494 0.041799277 -0.3331488 -0.34288773
0001d0 0d a7 d0 be 58 68 a7 be 08 e0 ad be 43 b9 a8 3e
       -0.4075245 -0.32696795 -0.33959985 0.32953843
0001e0 2d c9 2e 3e 58 e7 56 be 07 5d 8a 3e af 78 8c be
       0.1706893 -0.20986688 0.270241 -0.27435824
0001f0 ac fb 4e 3e 5a 19 19 be a8 6d 9d 3d df f4 60 3e
       0.20213193 -0.14951077 0.07686931 0.21968411
000200 d6 6f 78 be be ca a1 be f3 b6 0f bb 74 52 8b 3e
       -0.24261412 -0.31599993 -0.0021929115 0.27211344
000210 9a 4d a9 3d a2 5f 68 bd a9 25 92 be a9 ca c8 be
       0.082667544 -0.056731828 -0.28544357 -0.39217117
000220 2f b2 f6 bd 55 8b af 3e 2c 60 aa be 72 29 a3 3e
       -0.120457046 0.3428599 -0.33276498 0.31867558
000230 78 68 d2 be 76 d3 21 be 0f 3a 9d be 8a a8 aa be
       -0.41095328 -0.15803322 -0.30708358 -0.3333171
000240 b8 44 99 3d 56 1d 92 3b 73 0e 1f be af 5f 82 3e
       0.0748381 0.0044590635 -0.15532856 0.25463626
000250 9a b4 0d 3e df ee 93 3e d4 cf d2 3e 1f b8 99 3e
       0.13838425 0.28893182 0.41174185 0.30023286
000260 14 14 68 be 13 87 43 3e 94 15 61 3d ae 80 4b 3d
       -0.22663909 0.19094495 0.05495222 0.049683265
000270 37 87 02 be 55 3b ac be 80 d0 20 3e 43 51 ce 3e
       -0.12746893 -0.33639017 0.15704536 0.40296373
000280 c1 d0 7e 3e db b0 bc bd 77 aa b7 3d bc f1 86 bb
       0.24884321 -0.0921342 0.089680605 -0.0041181725
000290 bc 43 9f 3e 1c 14 14 3e 6d 11 d5 be dd 32 3e be
       0.31106365 0.14460796 -0.41614857 -0.1857409
0002a0 69 0f 22 bd a3 1c 3c be 3a f6 b7 3c fe 06 bf be
       -0.039565478 -0.18370299 0.022456277 -0.37310022
0002b0 67 6a c2 bd d5 26 a7 bd dd a0 96 3e 71 70 b4 3e
       -0.09492951 -0.081617035 0.29419604 0.35242036
0002c0 8e cb d3 be 9d fa bc 3e 15 b7 24 3e 07 c7 cc 3e
       -0.41366237 0.36909953 0.16085465 0.39995596
0002d0 c2 99 63 bd 4a 97 9c be 15 6f b3 be 37 60 51 be
       -0.055566557 -0.30584174 -0.35045686 -0.2044686
0002e0 0d d5 91 3e 55 2b 21 be 86 7f 0f bc 2c a2 cb 3e
       0.28482857 -0.15739186 -0.008758431 0.39772165
0002f0 63 49 25 3e 9a c9 72 3e 3f a7 3b 3e 65 9e b1 bd
       0.16141276 0.23709717 0.18325518 -0.086727895
000300 7a 85 65 be 5d 3a 8f 3e 11 16 40 3d 45 25 f3 bd
       -0.22414199 0.27974215 0.046896044 -0.11872343
000310 e7 5c de be b6 a0 0f be d8 3b 82 3e e0 c8 50 be
       -0.43430254 -0.1402615 0.25436282 -0.20389128
000320 c8 a7 b6 be 43 b6 d6 bd 3f c6 78 3c 5b b9 89 3e
       -0.35674882 -0.104839824 0.015183984 0.26899227
000330 ac ef b8 3e 51 9b af be 72 f0 48 be a0 9a 12 3e
       0.36120355 -0.34298185 -0.19622973 0.14316797
000340 f1 6b 03 3e 8e 08 1a bd 8a 35 90 be 26 8d b6 be
       0.12834145 -0.037605815 -0.28165847 -0.35654563
000350 89 a7 cf be 83 62 d9 be 7f 04 21 be 71 0f bb be
       -0.40557507 -0.4245797 -0.15724371 -0.36535218
000360 5c 5c 42 bd 5d 20 54 3e 32 c5 3a be 0e c3 6a 3d
       -0.047451362 0.2071547 -0.18239287 0.057314925
000370 21 8d bc 3e c8 c1 59 be 6a a5 9b 3e ea 4c 86 3e
       0.36826423 -0.21265328 0.30399638 0.26230556
000380 46 09 84 3e c3 86 b1 be e5 44 d5 3e 7a 66 b4 3e
       0.25788325 -0.34673128 0.41654125 0.35234433
000390 fa 14 2f be b3 7f 8a 3e 51 35 70 bb 62 99 8d 3e
       -0.17097846 0.27050552 -0.0036652873 0.27656084
0003a0 09 7d 5a 3e c5 5d ab be ad fa 7b bd b1 5b 90 3e
       0.2133676 -0.33469978 -0.06151836 0.28194955
0003b0 bc d6 a9 be bd 67 1d 3e 00 30 cf 3e f8 d8 a7 be
       -0.33171642 0.15371604 0.4046631 -0.32782722
0003c0 2f 61 8c 3e 9b 4a 42 3e 55 a8 96 bd 3a be 7c be
       0.27417895 0.18973772 -0.073563255 -0.2468194
0003d0 88 2e cc 3d 70 2d 68 be e1 d0 14 3e 28 8f 6e 3c
       0.09969813 -0.22673583 0.14532806 0.014560498
0003e0 0d 45 5c 3d 19 2b 6b 3e dc c7 fb bd 63 4d e7 bd
       0.05377679 0.22965659 -0.122939795 -0.11294057
0003f0 86 49 86 3e 6c 97 c7 be 9c 6b 9d be 27 f4 33 3e
       0.2622797 -0.38982713 -0.30746162 0.17573605

gconv.2.lins.0.weight f4 [16, 16]
000000 ce 52 17 bd fe 8a b1 be 68 6a c1 3d 3c 6d 7d be
       -0.036944203 -0.34676355 0.094441235 -0.24748701
000010 c3 20 ae be 19 b4 27 3d 62 9d be 3d bf 35 d1 be
       -0.3400937 0.04094324 0.09307362 -0.40861318
000020 54 44 cc be e1 73 b8 3e 4c bf 70 be 1a 1e 8c 3e
       -0.3989588 0.3602591 -0.23510474 0.27366716
000030 27 1a 18 3e 00 f9 f0 3a d9 d0 bf 3e 7b 78 bf 3d
       0.14853726 0.0018384755 0.37464026 0.09349152
000040 2a f8 79 3e 68 a3 ee 3c e9 3c b7 3e 49 41 a5 bc
       0.24411073 0.029130653 0.35788658 -0.020172732
000050 86 d0 d1 be ae 26 4e 3e 11 6a 9f bd 6b a8 f6 bd
       -0.40979403 0.20131943 -0.077839024 -0.12043842
000060 f9 62 36 bd dc 36 cd 3d b5 bc e1 3e 3f cb 3e be
       -0.04452798 0.10020229 0.44089285 -0.1863222
000070 e1 10 ba 3c 8c 27 70 be 8d b9 9d 3e 31 79 b2 bd
       0.022713127 -0.23452586 0.30805627 -0.08714522
000080 89 33 cc 3e f1 57 91 3e e3 e2 05 3e 71 ad 31 3e
       0.39883068 0.28387406 0.13074832 0.17351319
000090 fe 1a a6 3e 41 73 d1 3e 03 55 c6 3e 02 13 bc be
       0.32442468 0.40908244 0.38736734 -0.36733252
0000a0 b5 8b b2 bd 83 81 95 3d e5 67 06 be a0 3c 82 3d
       -0.08718053 0.07300093 -0.1312557 0.063592196
0000b0 b5 a4 b3 be 5e f2 62 be ac 9b 03 be f9 39 b5 3e
       -0.350866 -0.22162768 -0.12852353 0.35395792
0000c0 aa ff bc 3e e1 d3 09 be 98 3d 14 be 2b 9f 49 3e
       0.36913806 -0.13459732 -0.14476621 0.19689624
0000d0 0d f1 95 3e 60 18 9d 3d e5 97 a6 be e2 6d 9d be
       0.2928547 0.07670665 -0.3253776 -0.30747896
0000e0 27 8f bf be b4 d3 60 3e b5 23 3d 3e 35 2a d0 bd
       -0.37413904 0.21955758 0.18470652 -0.101643
0000f0 4c 4f 21 3e 08 bd 1b 3e 2a 59 a4 3b 93 10 31 be
       0.15752906 0.15208828 0.005015512 -0.17291479
000100 fa 68 a1 3d 4c a1 e3 bc 5d f5 6e be 80 45 a4 be
       0.07881351 -0.027786873 -0.23335786 -0.32084274
000110 f2 e8 7d 3e 08 0b b5 be e3 26 f9 3d a9 db 13 be
       0.24795893 -0.3535998 0.1216562 -0.14439262
000120 04 19 82 be 31 b3 98 be c8 8f eb 3d 9b 15 1d 3e
       -0.2540971 -0.29824212 0.115020335 0.15340273
000130 22 c4 59 3e 60 16 8d 3e 20 59 db 3e f5 69 75 bd
       0.21266225 0.27556133 0.42841434 -0.0599155
000140 86 16 c3 be 75 95 21 be b3 18 3b be 55 65 40 bc
       -0.38103122 -0.1577967 -0.18271141 -0.011742909
000150 2f 33 99 be 0b 4f 8a 3e a4 af cd 3e f6 6b 66 3e
       -0.29921862 0.2701343 0.40173066 0.22502121
000160 d2 ba 9f be 66 2a c0 bc 13 4e 60 be d6 01 1e be
       -0.3119722 -0.023457717 -0.21904783 -0.15430388
000170 2b 72 26 3e 56 dc d7 ba 71 47 fc bd ef 62 3c 3d
       0.16254489 -0.0016468863 -0.12318314 0.045992788
000180 e8 54 96 3e 5e 40 65 be f1 4d cd 3c bb 06 86 3e
       0.29361653 -0.22387835 0.02506158 0.2617701
000190 21 d8 83 3e 0f 48 95 3b ea 2f 40 3e 4a ea a2 3e
       0.2575083 0.004555709 0.18768278 0.31819373
0001a0 b5 37 71 3e 66 26 43 be 2f 8a a4 bd a5 cc 48 3e
       0.23556407 -0.19057617 -0.08034169 0.19609316
0001b0 ae 6d 3f be 7b 45 e5 bd 76 cf a2 be 64 19 e4 bd
       -0.18694183 -0.11194893 -0.31798905 -0.111376554
0001c0 35 df 05 3e 54 1f 39 3d f2 d3 cd be b8 1e 51 be
       0.13073428 0.045195892 -0.40200764 -0.20421875
0001d0 0b ff 20 3d 4a 59 b7 3d ac 9d ab 3e 8c 60 88 3d
       0.039305728 0.089525774 0.33518732 0.0665904
0001e0 d3 b2 c4 3e 41 bf 04 3d 75 cd 0f bd 7c b6 ce be
       0.38417682 0.032408956 -0.03510805 -0.403736
0001f0 d9 76 88 3e f1 a0 a7 bd 7f 64 01 be 45 e0 be 3e
       0.26653174 -0.08184994 -0.12635992 0.3728048
000200 1a 3e b1 be c3 f2 4f 3e 33 72 e5 be b0 b8 a1 be
       -0.34617692 0.2030745 -0.4481369 -0.31586218
000210 21 31 4a 3e b8 4b bb 3d 90 49 8c bd ce 75 a0 be
       0.19745304 0.091453016 -0.068499684 -0.31339878
000220 fc 93 b4 be 1c 7e f0 bd d2 e2 30 3e db 7a f6 3d
       -0.35269153 -0.117428035 0.17274025 0.120351516
000230 11 7b 3d 3e a4 4e 90 3e 9a 3c a7 bd 75 2d db be
       0.18503977 0.28184998 -0.08165856 -0.42808118
000240 73 e6 66 be c1 40 2d be 2a a7 b8 3c 72 33 63 be
       -0.22548847 -0.16919233 0.022540648 -0.22187594
000250 18 c7 45 3d 56 b0 dc 3e 78 2b d5 bc b0 8d a6 3d
       0.048285574 0.43103284 -0.026021704 0.081324935
000260 7a 85 e8 bd 2b b8 c1 3e eb 84 d6 3e cb 16 3a be
       -0.11353584 0.37835822 0.41898283 -0.18172757
000270 b7 12 15 3e e7 f7 dd 3d ed 71 cd bd 8b 38 bb bc
       0.1455792 0.10838299 -0.10031495 -0.02285411
000280 d7 76 f7 3d 7f a1 3b 3e ef e1 e7 3c 6d 86 0f be
       0.12083214 0.18323325 0.028305976 -0.14016123
000290 90 cc b3 be 27 02 fe bd d0 37 be 3e 79 92 fe bd
       -0.35117006 -0.12402754 0.37151957 -0.12430281
0002a0 89 d0 53 be 3a 21 ce be cf 71 5c be bb df d0 3d
       -0.20685019 -0.40259725 -0.2152779 0.10198923
0002b0 9a 33 7f bd f5 f1 05 3c 5c 5e 0f 3e 04 c7 9c be
       -0.06230507 0.008175363 0.14000839 -0.30620587
0002c0 61 6b d8 be 85 b1 5c be 3b 14 26 3c 91 96 3c be
       -0.42269424 -0.21552093 0.010136659 -0.18416812
0002d0 23 11 97 3e f7 a7 83 3e 6f 91 91 3d dc 42 d2 be
       0.29505262 0.25714085 0.071078174 -0.41066635
0002e0 26 3a 28 bd d2 3e a1 bc 72 31 c6 3e 73 4b e8 3b
       -0.04107108 -0.019683275 0.387096 0.0070890724
0002f0 29 0e 9b 3e 9d 04 4f be ee 3c 52 3d a4 cf 57 be
       0.3028424 -0.20216604 0.05132764 -0.21075302
000300 81 d3 41 be 2e d2 19 be 43 8a 5a 3e 9a 43 14 3d
       -0.18928339 -0.15021583 0.21341805 0.036197282
000310 7a 03 2e be cd 64 0a be 82 8e 94 be 37 e5 0b be
       -0.16993514 -0.13515015 -0.29014975 -0.13661657
000320 e9 e5 a1 3e 16 13 c9 3e 0b 79 ca bd 24 42 d8 bd
       0.3162072 0.39272374 -0.09886368 -0.1055949
000330 3b 2e 97 be 3e 65 84 3e 9f ec 9b 3e e6 df b6 be
       -0.2952746 0.25858492 0.30453965 -0.35717696
000340 35 85 97 be 18 44 b6 bd e8 0e 04 bd 94 76 26 be
       -0.29593816 -0.088997066 -0.03224078 -0.16256171
000350 33 4a ca 3e 71 2b c5 ba 7b 00 aa 3d 95 93 ae be
       0.39509735 -0.0015042854 0.08300873 -0.3409697
000360 88 00 66 3e bf bd c9 3e 99 c7 8a be 84 8d 02 3e
       0.2246114 0.39402577 -0.27105406 0.12749296
000370 08 ea cf 3e 3c 2a 0b be 86 db 92 3e b4 fc d2 be
       0.4060824 -0.1359033 0.28683108 -0.41208422
000380 3f 44 8d be c1 67 ad be f9 9d 27 3e 37 4e 91 3e
       -0.2759113 -0.3386822 0.16368856 0.28379986
000390 bf f4 ae bd 0b 9e aa 3e d5 2b b8 be a0 d5 54 be
       -0.08542775 0.33323702 -0.3597094 -0.20784616
0003a0 bf c4 75 bc f9 4f c8 3e 96 8c d4 be 5a 0a 94 3d
       -0.015000521 0.39123514 -0.4151351 0.07228537
0003b0 f8 3b d9 3e be a3 cf be 91 8c 98 bd 24 e3 f8 bd
       0.42428565 -0.40554613 -0.07448686 -0.12152699
0003c0 f2 95 89 3d fb f2 d0 be c5 a7 c0 be c3 9f 9e be
       0.06718053 -0.4081038 -0.37627998 -0.30981264
0003d0 f3 e3 0a 3e 3d b8 bf 3d ba cf 94 be 4f a8 8f 3e
       0.13563518 0.093613125 -0.29064733 0.28058097
0003e0 d5 0f e7 3d ef dc 9b 3e 45 66 6f 3e 4d e1 07 be
       0.112823166 0.30441996 0.23378856 -0.13269539
0003f0 ec 91 85 be b2 50 e3 3d b5 77 66 be cd ed d8 be
       -0.26087892 0.11099376 -0.22506602 -0.42368928
