pth/fold10.pth (torch, 639711 bytes, 46 tensors)

gconv.0.lins.0.weight f4 [16, 2000]
00000000: 0d1f 933c 4556 87bc d9ca 7d3b 7518 233d
00000010: 5aa8 333d 7f15 223d a8d0 89bb 8050 f13c
00000020: b9e1 d83c 47dd 4a3c 9877 5b3c 29fe 09bd
00000030: eef3 d0bb e603 ed3c 43b3 d5bc 0c91 97bb
00000040: c4af efbc c1a7 373c d47c 323d 4019 cbbc
00000050: 613e 8cbc 3f30 723c b1e2 c1bb b37c 4dbc
00000060: 9a50 0c3d 0572 163b e139 b33c d8f6 77bd
00000070: de03 29bd 3bf8 c9bc 6f8c 8b3c 75a7 f0bb
00000080: 93a7 333c 3c53 6d3c 87eb 1e3d 538c 58bc
00000090: bd6a 1cbc 5f9f 813c d5b8 253d bdd3 b33c
000000a0: c871 233d fd18 b93c a701 25bd aa85 7dbc
000000b0: bdfb 693c 5519 113d 3e94 7abc 1d42 14bd
000000c0: f137 0ebd 6baf 17bd 3a63 ffbc 9050 263d
000000d0: 3b1a 353d 08e5 263d a0c4 27bd e7d0 393d
000000e0: 3a93 0dbd ef6e c0bc 2141 89bc 1aa4 a6bb
000000f0: 574b 37bd 4182 6abc c0e9 3cbd 09a6 113d
00000100: f51b 933a c2b6 653c 454e 45bd e660 c7bc
00000110: 005c ddbb edf0 333c c35d ccbc 9761 473d
00000120: 9993 d2bc 0027 e4bc 2088 903c 3cde 93bb
00000130: aa3b 013d 9473 bc3c 1a79 0c3d e753 e7bc
00000140: d0ba 133d c34e 2bbc 9c96 f63c b239 4cbd
00000150: 93d1 b3bc 0c9e 043d 5264 34bc 57f5 ae3c
00000160: e47a c1bc 521c 28bd 7004 50bc d328 0ebd
00000170: eb11 203d 475a b2bb da5b 47bd f210 003d
00000180: 2316 063d 4da5 25bd cd70 9f3a dfaa 7f3c
00000190: 10f9 e9bc afee 41bd 4b0e 5fbd f105 843c
000001a0: babd dfba e7b8 4fbd d61a 44b8 e02b 66bd
000001b0: d9f4 b93c 3cee 58bd a2f0 cebc d4b1 17bd
000001c0: 933b 0abd 8fc9 2f3b 62d6 2e3d 6d51 573c
000001d0: 1406 e7bb 1376 c13c 83e2 5abd 093b dabc
000001e0: f5f2 0abd e33e 8ebc e44e ccbc f162 0e3d
000001f0: c5da 1e3c b937 3cbd d295 c63b 56bd 5c3c
00000200: ba09 fcbb 9a7b 933c bd57 9abc 3d15 603c
00000210: e2a9 153c 029c 823c 5c67 30bd ed7d 27bc
00000220: 491b 283d 1c55 ccbb fd2b 0cbd 1b81 0b3d
00000230: ea24 003c f3fc d83b 772f dc3c 0189 8f3c
00000240: 34c0 c3bc 3cb1 90bc 0197 323d 0820 aebb
00000250: c0b4 88bd d249 213d a559 dc3c 9e7e 8ebc
00000260: c815 c63c 70c5 81bd 3a83 f0bc caca 573c
00000270: 4667 4cbb 8861 0fbd 2ad2 163d b1df 1dbd
00000280: a94b 05bd fa23 e0bb 514b 083c 6188 4f3c
00000290: dceb aabc 4c36 0bbd b594 74bb b538 2e3c
000002a0: 0351 acbc 8841 073d 5345 033c 3539 073d
000002b0: e1fe 583c 9f7a 58bd 183f 0cbd ad25 69bd
000002c0: 4f0b 203d 42dd babc 38e5 e0bb 9503 f7bc
000002d0: 226a 023d 75fa 3dbd bca6 6fbd 4402 87bc
000002e0: e4e5 34bd bd26 05bd e095 6f3c 961a ae3c
000002f0: 789a 943b b3c9 aabc d496 a0bc c1c0 faba
00000300: 6ca7 843c e4af 7bbc 6985 5cbb 6894 7bbd
00000310: 5834 81bc 8855 9a3b ee28 d0bc 4aff ff3c
00000320: 17f6 663c 5bf2 a03c eb8c 223b befc 8c3c
00000330: 80df 29bc a36a 96bc 1d3f d6bb 7471 293c
00000340: 4b9b 97bb 5920 633a fc1c 9a3c 12b5 e2ba
00000350: e194 c43c 65fc 55bd 0d99 50bd ce11 113d
00000360: 0800 6bbd 6f22 09bd dc62 203d ccb6 21bd
00000370: 9e1a 70bc a6f2 ac3b 8785 343d 0305 eaba
00000380: e773 853c 6d03 293d 4641 cdbc 89d1 073d
00000390: b4f4 ea3c 1f05 e33c 7840 8b39 c344 323d
000003a0: 25ff 45bd 35a6 0abb 80d0 50bd 0e22 2a3d
000003b0: da57 653c abdf d1bc 07bb b83c 7c74 83bc
000003c0: e436 583b 0e80 4fbd deea ebbc 2b9a edbc
000003d0: d45c 073d 9861 bc3a 2c0e 193d 4e3d 263d
000003e0: bd9c 1e3b 923c fcbc 5eba 3b3d 5f2f 343d
000003f0: 6bcd c63b 598b 5bbc 54ca d9bb 43df 7cbd
0.017959142 -0.016520629 0.0038725643 0.039818246 0.043861724 0.03957128 -0.004205782 0.02945733
0.02647482 0.012381858 0.013395213 -0.03368965 -0.006376735 0.028932523 -0.026086455 -0.004625445
-0.029258616 0.011209429 0.043576077 -0.024792314 -0.017119588 0.014782011 -0.0059169163 -0.012541938
0.034256555 0.0022956145 0.021878185 -0.060538143 -0.041263454 -0.024654498 0.017034737 -0.007344181
0.010965246 0.014485177 0.038798835 -0.01321705 -0.009546933 0.015823064 0.040459473 0.02195155
0.039903432 0.022594923 -0.04028478 -0.0154737625 0.0142812105 0.03542455 -0.015294133 -0.036195863
-0.03472132 -0.037032526 -0.031175245 0.040604174 0.04421447 0.040745765 -0.040959 0.04536524
-0.034564234 -0.023490397 -0.016754689 -0.0050854804 -0.044749584 -0.0143132815 -0.04612136 0.035558734
0.0011223542 0.014020624 -0.048170347 -0.024338197 -0.006755352 0.010982734 -0.024947053 0.048677053
-0.025705146 -0.027850628 0.017643034 -0.0045125764 0.03155104 0.02300433 0.03429518 -0.02823825
0.03606683 -0.01045579 0.030101113 -0.04985971 -0.021950519 0.032377288 -0.011010246 0.021357222
-0.02361817 -0.041042633 -0.0126963705 -0.0347069 0.039079588 -0.005442891 -0.04867158 0.03126616
0.032735955 -0.040440846 0.0012164355 0.015604704 -0.028561145 -0.047346767 -0.05445699 0.016116114
-0.0017070093 -0.050713446 -4.6755034e-05 -0.056194186 0.02269976 -0.052961573 -0.025261227 -0.037034824
-0.03374822 0.002682302 0.04268492 0.013141972 -0.007050285 0.023615872 -0.053438675 -0.026639478
-0.033923108 -0.017363971 -0.024939962 0.034762327 0.009695713 -0.04595158 0.0060603404 0.013472876
-0.007691589 0.018003274 -0.018840665 0.013676939 0.0091347415 0.015943531 -0.04306732 -0.010222894
0.041041646 -0.0062357318 -0.034221638 0.03405867 0.007821301 0.006621951 0.026878102 0.017521383
-0.02389536 -0.017662637 0.04360104 -0.005313877 -0.066751 0.03937704 0.026898215 -0.01739436
0.024180308 -0.06336486 -0.029359449 0.013170907 -0.0031189485 -0.035005122 0.03682152 -0.038543407
-0.03254286 -0.0068402262 0.008318738 0.012666793 -0.02086442 -0.03398733 -0.0037320082 0.010633637
-0.021034723 0.03302148 0.008012134 0.03301354 0.013244362 -0.052851316 -0.03423986 -0.056920696
0.039073285 -0.022810582 -0.0068632625 -0.030153075 0.031839497 -0.046381433 -0.05850862 -0.016480573
-0.044164553 -0.032507647 0.014623135 0.021252912 0.0045350157 -0.02084813 -0.01960317 -0.0019130931
0.016193114 -0.01536176 -0.0033648855 -0.061420828 -0.01577203 0.004709903 -0.025410142 0.031249661
0.014096758 0.019646814 0.0024803232 0.01721036 -0.010368228 -0.018361395 -0.0065382854 0.010341991
-0.0046266667 0.0008664183 0.018812649 -0.0017296395 0.023996772 -0.052242655 -0.05092721 0.03541737
-0.057373077 -0.033480104 0.03915678 -0.03948097 -0.0146547835 0.0052779494 0.044072654 -0.0017854277
0.016290618 0.041263033 -0.025055539 0.033158813 0.028681137 0.027712403 0.0002656018 0.043522608
-0.048339028 -0.0021156196 -0.05098009 0.041536383 0.013997996 -0.025619349 0.02255012 -0.016046755
0.0032991702 -0.05065923 -0.028798517 -0.029004177 0.033047512 0.0014372347 0.03736703 0.04058581
0.002420231 -0.0307906 0.04583203 0.04399049 0.006066968 -0.013399922 -0.006646434 -0.061736356

gconv.0.lins.1.weight f4 [16, 2000]
00000000: 346d 833d 9d80 12bd e136 e9bc 8beb 3b3d
00000010: 9c3f 3b3d 4754 01bd 8a7d 1a3d 9ff3 863b
00000020: 34a3 483d ec97 473c 626e 763d dba3 933c
00000030: 4b6c 3f3d d8ae 95bc d48f 023d 210b b63c
00000040: a9df d6bc 3d9c a63b 1a40 d83c 264d cabc
00000050: 89d4 e83c 1ccc 8b3c 0ffc 673d f2d1 233d
00000060: 21df 8abc 5fc8 25bd db99 5e3d b96c 0cbd
00000070: afba 7a3d 8b90 383c 3480 af3c 0895 90bc
00000080: ff51 7a3d 2251 cfb8 f8b0 c8bc fcaa 19bd
00000090: 777a 333d 577c 143b 8261 633d bd9a 113d
000000a0: 2b4b 9cbb 21bf 0fbd 1bb4 3c3d 3fad 4d3d
000000b0: 87ea a73c f847 423c faee 743d 74bb 13bd
000000c0: 6e2c 443d da2e c1bc d63f bebb dea2 3a3d
000000d0: 7223 463d e10f d53b 8a75 edbc 38ff 2a3d
000000e0: 8434 09bb fc43 e63b a5a8 2b3d 57ba a5bc
000000f0: 663e 7c3d f547 5e3d f82d 3ebc 005d 343d
00000100: 1c16 02bc e012 473c 480b 2f3d 4c21 de3c
00000110: aa8f cbbc 55f2 253d 9fd8 f13b 57d0 963c
00000120: 9bde 1e3c 62fc 72bc 80a7 793d 7a64 093d
00000130: 6a3a 86bc c915 633d 200e 073d 47b5 2e3d
00000140: 7922 723d 071c 02bc 690b 02bd 5f0c 1e3d
00000150: 36d2 aa3c 1675 e83c 12c8 f5bc 7cb4 14bd
00000160: cf23 02bd 3152 fb3c f8f2 2c3c 1f6b c4bb
00000170: 17a9 3a3d 9811 28bd 584c 873a 44b5 523d
00000180: 45d0 12bc 5e33 2bbd b526 4c3d e74a 383d
00000190: 1b0f 353c e7b2 f3bc b635 04bd abf0 fd3c
000001a0: 6874 f4bc 2f4e 383c a446 0f3d 3b7d 6c3d
000001b0: 0099 bb3c fac6 a1bc 69a7 dcbc ef54 863c
000001c0: 4237 503d 46f6 58bc 0810 aebb 2790 723d
000001d0: 8059 cb3c 3320 15ba 1bef f63c d233 fa3c
000001e0: 0d48 c23c 4c5e 1d3d b066 be3c f1ea 91bb
000001f0: b164 03bc 97f0 6d3d 1f11 8abc 5f39 453d
00000200: a475 7ebc 05b6 c03b 0989 84bc a398 c83c
00000210: 7d70 4d3d 79ef c9bc 17d4 c33c d7e4 5a3d
00000220: 3909 673d dbfe 2abd 84d2 d1bc bec8 83bb
00000230: 0718 ac3c 9561 2f3b 8b57 0abd cd10 713d
00000240: 25f1 413d 2fa9 513c 7320 1dbd f647 533d
00000250: 7a47 713b 61de afbc de22 26bd 28e8 9ebc
00000260: b5c3 e63c 9555 853d ec8e 1fbc 9e11 cbbc
00000270: eae9 103d 0d51 00bd 633f 343a 7dd9 833d
00000280: b49f e6bb b802 023d 18ad d33c b4f3 56bc
00000290: ad2a c03c 38fe ef3c e3e9 99bc d288 70bc
000002a0: 0870 7c3c 4e5f 733d ce32 453d 1831 503b
000002b0: 10d9 e83c 74d2 96bc c49b 1cbc 7487 6c3d
000002c0: 40d3 0c3d 9ad3 93bb 215e 873c a4a8 113c
000002d0: 71f4 393d d48f 0c3d 4ac7 2abd 6e64 d03c
000002e0: 5819 a9bc 4b59 a13b fd0b f9bc 508c dabc
000002f0: e70b 583d 94cf 133d 55bb 823d 5bbf 0c3d
00000300: 4844 4abc 6451 9b3c 02f4 4f3d f4d3 f5bb
00000310: 5d92 8b3c 0683 423d 6314 953c a9b7 2ebd
00000320: 198c 1c3d 66f9 7f3d 9335 673d c7c9 6a3d
00000330: 8157 0cbc 01b6 28bd 4771 223d 7cc2 773d
00000340: 3132 96bc 1090 af3c beba 9f3c 0f91 9f3c
00000350: 0e0c 543c 682f b3bb 6156 9cbc 88dd 6d3d
00000360: 45c5 d93c 1598 443c 57b0 3b3d 8088 e0bb
00000370: 7444 523c f78c d5bc 4e26 0fbc 8f2e 313d
00000380: e6c0 ff3b 3c56 09bd 3ab3 07bd 7a5c 2cbd
00000390: a6bf 95bc 1caf 8abc bfcd 6c3d 618a 30bd
000003a0: 0185 e5bc c7f5 6c3d 49d9 903c 5f45 2fbd
000003b0: 2713 7b3d b2a4 033d 1e0e 92bb 3291 f03c
000003c0: 438d 24bd 84aa 0dbc 32c0 813d 5a02 d43b
000003d0: 6dbd 77bc c575 6c3b 9047 91bc 14bc 2d3c
000003e0: f27f 13bd b14e 62bc 3092 8b3c 6852 9f3c
000003f0: 9018 b23c ee80 843b b4d7 d2bc 1d61 1fbd
0.06417313 -0.035767186 -0.028468551 0.04587893 0.04571496 -0.031574514 0.03771738 0.0041183974
0.048983768 0.012182217 0.060163863 0.018022468 0.046734136 -0.018271849 0.031875446 0.022222104
-0.026229696 0.005084543 0.026397754 -0.02469499 0.028421657 0.0170651 0.056636866 0.03999514
-0.0169521 -0.040474292 0.054345947 -0.034283374 0.06121319 0.0112649305 0.021423437 -0.017649189
0.061113354 -9.885641e-05 -0.024498448 -0.03751658 0.043817963 0.002265712 0.055512913 0.03554796
-0.004769703 -0.035094384 0.0460702 0.05021405 0.020497574 0.011857979 0.05979822 -0.03606744
0.047893934 -0.02358191 -0.0058059497 0.04556548 0.048373647 0.006502137 -0.028986711 0.0417473
-0.0020935843 0.0070271473 0.04190888 -0.020230455 0.061582945 0.054267842 -0.0116076395 0.044034004
-0.007939842 0.012150496 0.042735368 0.027115487 -0.024848778 0.04051431 0.0073805596 0.018409891
0.009696628 -0.014830681 0.060950756 0.033543088 -0.016385276 0.055440698 0.032972455 0.04265335
0.059114907 -0.007941253 -0.031749163 0.038586017 0.02085219 0.028376143 -0.030002628 -0.036304936
-0.03177243 0.03067884 0.010555975 -0.005994215 0.045571413 -0.041032404 0.0010322435 0.0514424
-0.008960788 -0.041797034 0.0498416 0.044993307 0.011050965 -0.029748393 -0.032277785 0.030998548
-0.029840663 0.011249109 0.034979478 0.057736617 0.022900105 -0.0197482 -0.026935296 0.016397921
0.050833948 -0.01324231 -0.0053119697 0.059219506 0.02482295 -0.0005688697 0.030143311 0.030542288
0.023715997 0.038420007 0.023242325 -0.004453056 -0.008019612 0.058090772 -0.016853867 0.048150416
-0.015530977 0.0058810734 -0.016178625 0.024486845 0.050156105 -0.024650322 0.023904843 0.053440895
0.05640528 -0.041746955 -0.025613077 -0.004021733 0.02100755 0.0026761044 -0.033774894 0.058853913
0.047349114 0.012796684 -0.038361024 0.0515823 0.0036816285 -0.021468343 -0.040560596 -0.01939781
0.028169492 0.06510464 -0.009738665 -0.024788674 0.035379328 -0.031327296 0.00068759004 0.06437967
-0.007038081 0.031740874 0.025839373 -0.013119627 0.02345785 0.029296026 -0.018788284 -0.014681058
0.01540757 0.05941706 0.048144154 0.0031767543 0.028423816 -0.018410899 -0.009558622 0.057746366
0.03438115 -0.004511309 0.016524376 0.008890305 0.045399133 0.034316853 -0.041693963 0.025438514
-0.020641968 0.0049239746 -0.030401224 -0.026678234 0.052745726 0.036086634 0.06383387 0.03436218
-0.012345381 0.018959709 0.050769813 -0.0075020734 0.017037565 0.047488235 0.018198198 -0.04265562
0.038219545 0.062493704 0.056447577 0.057321336 -0.008565784 -0.041189197 0.03965881 0.06048821
-0.01833448 0.021430999 0.019498225 0.019478349 0.012942327 -0.0054682977 -0.019084157 0.058072597
0.026583323 0.01199915 0.045822468 -0.0068522096 0.012833703 -0.026068194 -0.00873716 0.043257292
0.0078049777 -0.033529505 -0.03312991 -0.04208038 -0.018279862 -0.016929202 0.057813402 -0.04310072
-0.028017523 0.05785158 0.017681735 -0.042790767 0.061297562 0.032139488 -0.0044572493 0.02936611
-0.04017378 -0.008646611 0.063354865 0.006470007 -0.015120846 0.0036080938 -0.017734319 0.010603923
-0.03601069 -0.013812707 0.017037481 0.019448474 0.021740228 0.00404369 -0.02573762 -0.038910974

gconv.0.lins.2.weight f4 [16, 2000]
00000000: 49ab ef3b 93bd 033d 6b96 9e3c 858a 4b3d
00000010: 0f1d d7bc 75c5 493b 65d6 833c f6d2 c4bc
00000020: b6b8 233d 17e7 053d 862c 1ebd b946 b2ba
00000030: b188 4abd dab0 f63b 46de 523c 67eb 09bd
00000040: a840 40bd 7738 8fbb 41d3 3b3d ffc1 f53c
00000050: 0f31 213d ec3b 47bc 21a2 863c e770 06bd
00000060: ad02 9d3c 514e 11bd a0d8 10bd a102 97bb
00000070: edd9 b23b 1d5c 6c3d e1ab 033d 4f8b 54ba
00000080: 8430 9638 c6d9 d0bc 4579 2e3d 082f bd3a
00000090: 26b0 2bbd efc2 af3c 7f9a 0abb 87b1 ad3c
000000a0: 65b2 063d fb75 cdba de37 ec3c 73ce 693d
000000b0: cea3 fabc 4b65 19bd c52d 523c cb79 6bb9
000000c0: 3a6c 443d 4760 c83c cd63 60bc 7b5a 2c3d
000000d0: 1604 cf3c 8f22 07bd d070 233d 1104 e9bc
000000e0: a6ea 1dbd 0709 2bbc 8f28 6abd 12cf 19bd
000000f0: 9cc4 49bc de60 98bc 8e90 243d 74a8 bdbc
00000100: 6fd5 123d 3f87 35bc 2f0d dcbc 3bb6 53bd
00000110: bc8b 45bc fd23 4abd e983 4dbd 6f6c 69bc
00000120: 6831 6dbd 4cd7 d93c 9721 4cbd 040c 2d3d
00000130: 14e6 573c bca1 01bd b6f0 24bd 724d 2abd
00000140: babe 81bc b24b 15bc 2b6f 45bd a5fb f23c
00000150: 829c fbbb 031d ab3c 1216 e3bc 4e63 2d3d
00000160: a0e5 75bd 770b 233d bd2f 433c 617a ab3a
00000170: f238 63bd 9f15 00bd dc34 023d 91e3 ebbc
00000180: 98a2 db3b 32a3 70bc dfcf 02bd d3aa aabc
00000190: a76c 3a3d 0251 6cba 2d4f 3cbd 31d3 333c
000001a0: a02a 073d 6e65 2bbd 0d78 f63c 18f5 7cbb
000001b0: dd4e 113c 5112 9ebc 21f1 283d 4863 12bc
000001c0: 05bc ea3c 04e3 cb3c 8a0d 823c 2813 8f3c
000001d0: e103 c43b 8288 1fbd ecbe 06bd 679a b4bc
000001e0: 5ea6 3bbd f7bd b83b 0f97 683d 9e08 0ebd
000001f0: 29d3 a6bb a297 51bc d23c 123d 75f4 4f3d
00000200: 2788 343d 649f cdbc 9e91 473d 16e9 023d
00000210: 0352 463c 3a17 413d 1288 0cbd 3330 273d
00000220: 61f5 debc eef5 f13c ec45 bc3c 34ad 883c
00000230: 9a52 0d3d 3b69 59bc 5f86 bcbc 90a1 c13c
00000240: 89aa dbbc 9bb8 a03c ed19 22bd bcb6 2abd
00000250: 5855 1c3d 32a0 df3c 9971 663c fbac c73c
00000260: 772e 8dbb eb1f b8bc 698d 173b 3e01 16bc
00000270: 5f51 363c fa1f 5bbb 1745 0fbd 792d 6fbd
00000280: ff45 3c3c c7e4 e13c 9ad3 563c 1e27 20bb
00000290: b86c 10b9 686f 50bd 6655 b33c 291c 50bc
000002a0: e8b6 493d 564c 3e3d 9eda fe3c 851a 26bd
000002b0: a7cc 2a3d 218a 96bb f2fe c13c c4bc 1dbb
000002c0: a223 123c 7956 90bc 7919 d4bc b8c8 f03c
000002d0: 6454 1e3d e9c9 3abd 4a68 39bd 94ad 52bd
000002e0: 6b90 a9bc f152 f6bc a386 c53b bb9f 0abc
000002f0: 46fe 32bc 8c85 0e3d 2061 48bd 3ce2 32bd
00000300: de9b eebc bead 973c 6477 3a3d add2 773d
00000310: 9611 593c 17c3 c33c 0458 fb3b df40 113d
00000320: d75b 07bd c4a3 f63c a3ab 56bd 466b b9b9
00000330: 09b4 0a3d 97bf 373c c899 1c3d 034d 103d
00000340: 71a5 12bd dead 063d fa64 20bd f509 9bbc
00000350: 8f43 0bbd 134a ba3c 3fdf 4a3d 952c 523d
00000360: 9234 0abd 9ea7 aabc ce2e f83c 381a a2bb
00000370: 0be1 6fbb 4dac e83b 0ccd 2abd ed40 3f3d
00000380: cd1f 323d 296c 083d 88b2 60bd 34fe 2cbd
00000390: 8625 ecbc 61dd ce3c 1a5d 113d 193c 183d
000003a0: 2e40 01bd a202 9ebb b20f fdbc 558c 223d
000003b0: d300 6c3d 413f 2abc 093e 15bd c6fd b03c
000003c0: 1372 18bd c208 13bc 3139 d33c 7204 5cbd
000003d0: 687e eb3c bd4d c93c 79ca 3f3d 8f1a d5bc
000003e0: 54a8 9a38 0fd1 39bd 2d7a b63a aed4 af3c
000003f0: 7896 bbbc 4def 22bc 1a44 02bd eac6 dc3b
0.00731412 0.032163214 0.019358834 0.04969265 -0.026258973 0.003078786 0.016093442 -0.024026375
0.039971076 0.032691088 -0.03861668 -0.0013601399 -0.049446765 0.0075284066 0.012870377 -0.033671763
-0.04693666 -0.004370745 0.045855764 0.029999731 0.039353427 -0.012160283 0.016434731 -0.032822516
0.019166315 -0.03547508 -0.03536284 -0.0046084677 0.0054581077 0.057705034 0.03214634 -0.0008107917
7.161594e-05 -0.025494467 0.04259612 0.0014433572 -0.041916035 0.021455256 -0.0021149216 0.021202816
0.032884974 -0.001567542 0.028835233 0.05708165 -0.030595686 -0.037450116 0.012828295 -0.00022456718
0.047954775 0.024459971 -0.013695669 0.042078476 0.025270503 -0.032991942 0.03990251 -0.028444322
-0.038553856 -0.010439164 -0.057167586 -0.037550993 -0.012314942 -0.018600877 0.04017692 -0.023151614
0.035848077 -0.011079608 -0.026861755 -0.05168746 -0.012057241 -0.049350727 -0.050174627 -0.014247044
-0.057908446 0.02659192 -0.04983672 0.042247787 0.0131774135 -0.031648383 -0.040268622 -0.041577764
-0.015838016 -0.009112285 -0.04820172 0.02966101 -0.0076785693 0.020887857 -0.027720485 0.042331032
-0.06003344 0.039805856 0.011913237 0.0013082736 -0.05547423 -0.03127062 0.031788692 -0.028795036
0.0067027323 -0.014687346 -0.031936523 -0.020833408 0.045513775 -0.00090147567 -0.045973945 0.010975645
0.032999635 -0.041844778 0.030086542 -0.0038598236 0.0088689 -0.019295843 0.041245583 -0.008934803
0.028654108 0.024888523 0.015875597 0.01746519 0.0059819077 -0.038948543 -0.03289692 -0.022046281
-0.045812957 0.00563788 0.056784686 -0.034676187 -0.00509109 -0.0127925 0.035702534 0.05077024
0.044075157 -0.025100417 0.048722856 0.03196057 0.012104514 0.04714129 -0.034309454 0.04081745
-0.027216615 0.029536214 0.02298256 0.016684152 0.034502603 -0.013269718 -0.023013292 0.02363661
-0.026814716 0.019619277 -0.039575506 -0.041678175 0.038167328 0.027298067 0.01406517 0.024374476
-0.0043085176 -0.022476157 0.0023125059 -0.00915557 0.011127799 -0.0033435808 -0.034978 -0.058392975
0.011491298 0.02757491 0.013111973 -0.0024437378 -0.00013773411 -0.050887495 0.021891307 -0.012702026
0.0492467 0.04645952 0.031110104 -0.040552635 0.041699078 -0.004594103 0.023681138 -0.0024068812
0.008919628 -0.017619358 -0.025891053 0.029392585 0.0386547 -0.045602713 -0.045265473 -0.05143507
-0.020698747 -0.030068846 0.006028013 -0.008460934 -0.010924881 0.03479533 -0.04892075 -0.043672785
-0.029127058 0.018515464 0.045524016 0.06050365 0.013248822 0.023896737 0.0076704044 0.035462257
-0.03304657 0.030107386 -0.05240978 -0.00035365875 0.0338631 0.011215112 0.038232595 0.035229694
-0.03580231 0.032880656 -0.0391588 -0.018925646 -0.033999976 0.0227404 0.04952931 0.051312048
-0.03374154 -0.02083188 0.030295756 -0.004946973 -0.0036602642 0.007100618 -0.041699454 0.046692777
0.04348736 0.033306275 -0.05485776 -0.042234614 -0.028826486 0.025252046 0.03548918 0.03716669
-0.031555347 -0.004822091 -0.030891273 0.039684612 0.057617974 -0.0103910575 -0.036436114 0.021605384
-0.037218165 -0.008974256 0.025784107 -0.053715177 0.028746799 0.024573201 0.046823952 -0.02601364
7.374646e-05 -0.04536539 0.0013921909 0.021463718 -0.022898898 -0.009944749 -0.031803228 0.0067375796

gconv.1.lins.0.weight f4 [16, 16]
00000000: e47a 9ebd 9c49 e5bd 88ae 9abe 39df 183e
00000010: d712 0c3d 0f19 debd 9179 b83d 2bff 1f3d
00000020: 7167 a13d 9b2b 0b3e cc79 cbbd 7575 09be
00000030: 49f5 983e 7c7e 58bc d265 583e 519b 94be
00000040: 0005 b23e caf8 a7be 8070 c2be b378 b33d
00000050: 9845 d9bd 14f5 9a3d 7101 983e b58a 86be
00000060: 0f0a 453e e295 07be 433d e1bd 0769 863d
00000070: 6152 68bd 72fa 943e d20e d13d 075e 9a3e
00000080: e200 213d fc69 c83c 8499 8b3d 6d94 9bbd
00000090: b9b3 9c3e 012c b6bd 320c 6dbe 11c3 d3be
000000a0: 2e2a 4d3e fca1 1e3e ea24 0dbe 2dcc 6a3e
000000b0: 0624 88be 177c 403e b3fb cd3e 65f5 aebe
000000c0: 2f8e 83be 9dac 00be c1e3 4abd 6fb2 b53e
000000d0: a5e6 0bbd 23e4 143e 3521 b5be 7520 07be
000000e0: d9b4 56be 564c 52be 0ff2 833b da39 90be
000000f0: b1d8 b1be a2ed 953e 8546 8c3d 28e1 d83d
00000100: 73f4 163e c812 81be 26b3 0c3e 3193 b43d
00000110: 451b b13d d44f 9a3e 1cef 1dbe 9aa8 ea3d
00000120: fe22 a8be f1e9 3abe bace 96bd c781 9d3d
00000130: be4b 173e 6446 b4be 6e5c b63e 9e9b a43e
00000140: 2536 debe 98f1 4f3e 8de1 833e e7b8 a93e
00000150: 1b5c aebd 01ea 6d3e 8a91 b6be 4844 64be
00000160: f63d 9f3e c538 c03e 78ff a8be 0bcc 38bc
00000170: 11c4 1f3e 58b3 e33e 8a54 873d 1674 ab3e
00000180: c568 843e 4e39 babe 03e1 2bbe 54fd a1be
00000190: 581a 01be aad2 d63d 70ee f23d cffe 38be
000001a0: 5daa a4bd c296 acbe 3582 94be 8017 e338
000001b0: 9e2b bbbd d735 9abe d162 adbc bfa9 1f3d
000001c0: c939 b33d 734b 2fbe 554a 21be e504 e2bd
000001d0: 7eed c7bd 112d 86be f994 073e b1e8 c13c
000001e0: 1218 aebe 4bf0 e03c 9be6 9f3e 6154 003d
000001f0: 3795 d6be 673a a83e 06f6 693e 5ca8 d23d
00000200: 5cf5 d1bd 772c 91be a5a1 573e 19aa a1be
00000210: abf7 99bd ae10 843e 31e1 84be 560d b3be
00000220: 20f0 023e 555f 14be 7114 78be 08e5 983d
00000230: 199b 893e 5a8f d23e 1011 563d 92f9 dbbc
00000240: 33d2 e23c a27c 61be f9dc 53be f619 c7be
00000250: 452d 8d3e 5d89 27bd 5a63 363d 838a 953b
00000260: 3ce0 97be 7a2f c8be 3fa2 e63d 4afc 7dbe
00000270: 84dd 10be 031b b03b c017 933e 03c7 a9bd
00000280: 9a83 b13e a322 81be 68ce d53e d597 82be
00000290: 35a4 07be 08cc d4bb 66bd a0bd cfb2 0dbe
000002a0: e0c7 aabd 5772 c0be ff2d 78bd aed0 abbe
000002b0: 121b 633e 36a5 d83d 9fcc 9f3e abaa 633e
000002c0: 47ed babe 2afa 093e 426c afbe b36c 45be
000002d0: fb9f ab3e f71e 8abe 8ce0 d8be 4cf5 f9bd
000002e0: 6d34 8cbe 78fe 583e 4ab2 a7be c66a 013d
000002f0: c344 943e 70df 783e e316 95bd 0880 13be
00000300: 42bf 43be 7e89 a53e 1204 dc3d 1a72 cdbe
00000310: 70d6 92be 4f6a cdbe 11b1 143e 7105 d83e
00000320: 130f 9e3e 84d5 a63e 065d 5c3e c4c7 123d
00000330: 5d4a a63e 64e6 cdbe 8cc4 9b3e 27ba 9d3d
00000340: 9c24 d93d 37c1 933e f6f3 a43e 77a6 d23e
00000350: c8ef 933d c7b2 023e de03 313e e877 513d
00000360: 0452 a03e e87c 8c3e d353 d83d 1bc4 92be
00000370: c50b 57be 9b7d c2be 192f bebe 1ad9 293e
00000380: 99ee 013e e778 1fbc 4927 e43c de14 a6be
00000390: 54f6 97bd 7ea5 7abe 21b5 933d 6aae 883e
000003a0: fff1 babe 30c0 9cbd 49de 4fbe 362c 7a3e
000003b0: 4138 aebe 69b2 aebd f9e8 1cbe 66eb a13b
000003c0: 8955 bcbd 80e0 8f3e 27fc f7bd 8de6 1e3e
000003d0: 9a16 b73e d6f9 d6be a41d 0a3e 6366 7abe
000003e0: 37b2 b2be a987 213c 741a adbe a712 50be
000003f0: 2b97 afbe 5053 bf3e 2f14 88be 9860 463d
-0.07738283 -0.111956805 -0.30211282 0.14928903 0.034197655 -0.10844623 0.09007562 0.039061707
0.07881058 0.13590853 -0.0993534 -0.13423713 0.29874638 -0.01321375 0.21132591 -0.29024747
0.3476944 -0.32806998 -0.37976456 0.08763256 -0.10608977 0.07566276 0.296886 -0.262777
0.19242118 -0.1324077 -0.10998013 0.06563001 -0.056719188 0.29097325 0.10207905 0.30149862
0.039307483 0.0244646 0.0681639 -0.07596669 0.30605868 -0.08895112 -0.23149183 -0.4135976
0.20035622 0.1549148 -0.13783613 0.2292945 -0.26589984 0.18797337 0.40231094 -0.34171596
-0.25694415 -0.12565847 -0.04953361 0.35487697 -0.034155507 0.14540152 -0.35376897 -0.13195975
-0.20967425 -0.20536932 0.0040266584 -0.28169137 -0.34735635 0.29282862 0.06849388 0.1058982
0.14741687 -0.2520964 0.13740215 0.08817137 0.086477794 0.3013903 -0.15423244 0.114579394
-0.32839197 -0.18253304 -0.07363649 0.07690769 0.14774987 -0.35209954 0.35617393 0.32149976
-0.43400684 0.20307004 0.2575802 0.33148882 -0.085136615 0.23233797 -0.35657912 -0.22291672
0.3110196 0.37543312 -0.33007407 -0.011279116 0.15602137 0.44472766 0.066079214 0.33487004
0.25861183 -0.36371845 -0.16785054 -0.31638587 -0.12607706 0.104894 0.118618846 -0.18065952
-0.08040307 -0.3370877 -0.2900559 0.00010828581 -0.09139179 -0.30119202 -0.021165283 0.038980242
0.08751256 -0.17118625 -0.15751012 -0.1103609 -0.09762095 -0.26206258 0.13240422 0.023670526
-0.3400274 0.02745833 0.31230626 0.03133047 -0.41910717 0.32857057 0.22847757 0.10286018
-0.10251877 -0.28354236 0.21057756 -0.31575087 -0.07517942 0.25793976 -0.25953057 -0.34971112
0.12786913 -0.14489491 -0.24226548 0.07465559 0.26876143 0.41124994 0.052262366 -0.026852403
0.027688121 -0.220202 -0.20689763 -0.38886994 0.275736 -0.040902484 0.044528343 0.004563631
-0.29663265 -0.39098722 0.11261415 -0.24803272 -0.14147002 0.005374314 0.28729057 -0.082899116
0.34670717 -0.25221738 0.41759038 -0.25506464 -0.13246234 -0.006494049 -0.07848625 -0.13837741
-0.083389044 -0.37587234 -0.06059074 -0.33557647 0.22178295 0.105783865 0.312108 0.22233073
-0.36509153 0.13474336 -0.34262282 -0.19279747 0.33520493 -0.2697675 -0.42358816 -0.1220499
-0.27383748 0.21190822 -0.3275321 0.031595968 0.2895871 0.24303985 -0.07279756 -0.14404309
-0.19115928 0.3233146 0.10742964 -0.40126115 -0.28679228 -0.4012017 0.1452067 0.4219165
0.30870876 0.32584774 0.2151986 0.035835043 0.3247861 -0.40214837 0.3042339 0.07701521
0.10602686 0.2885835 0.32217377 0.41142628 0.07223469 0.1276351 0.17286631 0.051139742
0.31312573 0.27439046 0.10562863 -0.28665242 -0.21000583 -0.37986454 -0.37145308 0.16586724
0.12688674 -0.009733415 0.027850764 -0.32437795 -0.0742003 -0.24477193 0.07212282 0.26695567
-0.36512753 -0.07653844 -0.20299639 0.24430928 -0.34027293 -0.08530123 -0.15323247 0.0049413918
-0.09196002 0.28100967 -0.12108641 0.15517636 0.3575943 -0.41987485 0.1348787 -0.2445312
-0.34901592 0.009859004 -0.33809245 -0.20319615 -0.3429502 0.3736825 -0.265779 0.048431963

gconv.1.lins.1.weight f4 [16, 16]
00000000: dfaa bdbe 4526 2abe 058e c83e 818d b23e
00000010: 5fae c9be e508 aebd 3dbf 5f3e e3c2 e5bd
00000020: d6fa 053e 97dc b7be cc5d afbd f85b 693e
00000030: e723 863e eb7e eebd f301 adbe d420 973e
00000040: 4f9d 943e 08bd b33e efb0 ab3d b813 aabd
00000050: f80f 033e 135c 823e 9a31 22be 306b 303e
00000060: 55c9 c53e b85e d5be 7a70 b73d 6b72 1f3c
00000070: 3136 ee3d 8efa f4bb 3656 123e e5d3 343e
00000080: 69b0 a73e 6d7d d43e 34b7 bbbd c44e b5be
00000090: bdf7 203d f64d d63c 99d1 b13c 6848 4b3e
000000a0: 41ef 5fbd b3e7 8c3e 568e ad3e ace9 8dbe
000000b0: 445f 81be 7fd5 e43e 84db 813e ee32 bfbe
000000c0: b9c9 babe e5f7 223d dcdd d5bd 2b79 81be
000000d0: 82da b0be eb62 1ebe 5c0b 88be 4750 80be
000000e0: 6a92 e43d 27e7 d0bd d9db 7b3d 76e9 7e3e
000000f0: 4a82 a23e 22f9 843e a1c0 693e 8083 973e
00000100: 0f47 a53e fec0 b2be b87b 393d a645 56bd
00000110: a069 8a3d 177c ca3b 82bc c0be 2d58 c43d
00000120: bd87 31be a2f8 4bbe fe71 bb3e d55c a53e
00000130: dc49 5f3d 73cc 91be afc2 253e a333 8d3e
00000140: 851b bd3e e93d 8a3e 1712 133e eca4 af3e
00000150: 663a 2cbe 9cc9 933e 1933 a4be c70e 3dbe
00000160: fa21 0a3d 33c0 afbe 5acb 8ebe d9f5 3d3e
00000170: 7c10 c53d fc59 1b3e 4eb0 9a3e abce 71be
00000180: 0974 f2bd 3345 c13e b352 e1bd 11f0 0fbe
00000190: 9ea4 8a3e e752 d23e 50e8 9a3e a49b 8dbe
000001a0: e591 8fbc d108 e1bd 025a a1be c298 993e
000001b0: 788b ee3d 47ca 97be 6412 60bc 9d97 a7be
000001c0: 7732 d13c 0cb6 8bbe c674 a83e bb9a bb3e
000001d0: ba1a 3e3e a89d b83e 050d 25bc 8e02 7a3e
000001e0: c1ef 86be efbb bcbe 6245 cd3e 7c80 83be
000001f0: dd8a 573c b1e1 84be a42c c3be 2893 8b3d
00000200: c23b 8bbe b242 90be ba2c bebe bc40 9dbe
00000210: c91f 1b3d b487 203d cfb5 3e3e 7982 123e
00000220: 8df0 573e 4fb8 7fbe 6c5c 4bbe 74cd 973e
00000230: 089b c63e a92c 473d 331a 5e3e 1187 12be
00000240: 3e1f 743e 3acc 8f3e 670f 50bc e0a6 0fbe
00000250: ddc8 353d 1b2a 60be b5e6 56bd dae0 91be
00000260: eceb ce3c 5340 a5be 1c0e 54be e9eb 16be
00000270: 0b9d d7be 2cde ce3d 4197 e8bc d1b2 aabe
00000280: 94f6 f83c a7d9 103e b2e4 d3bd c01a c13e
00000290: fe8a c03d c717 083e f05b 593e 92a8 1fbd
000002a0: a2d3 c9bc a930 d23e ff5b 86be 2f8d 0b3e
000002b0: c52a 8a3d aefa 553d 1061 d1be 205a 88be
000002c0: 7ee5 36be 6a96 3ebd 6262 19be ca6e 7f3d
000002d0: 35ae 4d3c 8c8c ccbe d4e5 dbbd 9392 94be
000002e0: 32fc ac3e acd2 c03e 77fc b8be 4719 f03d
000002f0: 26eb e83d b52b 70be 310b 88be 22c2 d0be
00000300: c4b7 c9be bf4b 893e 7ce7 a3be 6ef5 9d3e
00000310: 8f56 95be bb10 8ebe 9143 523e ab93 17be
00000320: ae7e dd3e 8153 a2be 9563 913e 257d 13be
00000330: d7f5 7cbe 8d97 003e 13f7 933e 5243 403c
00000340: d4db ddbe 4bdb b5be fcc9 b23e 10a1 593d
00000350: 107d 83be 80f7 d73d 6295 86be 8799 d03e
00000360: 0352 babe 4713 9e3e 5f5e 4b3e 3611 a73d
00000370: efb9 bdbe 75ca 9e3e 0c13 c23e 8231 c73e
00000380: 2d8f adbd 7b58 913e 7fbb bebe 72c2 ad3d
00000390: cb49 a73e b746 e6bd d35b 1ebe f9c9 81bd
000003a0: 539a 38be 7290 89be ba0c 5dbe 9e28 e13c
000003b0: 506d ca3e 2044 8b3d f069 9ebd a0ff 473e
000003c0: 77fd 043d a9dd 8c3e 2e51 a4bd e06b ad3e
000003d0: f78a dfbd ff14 a9bd 8492 053e 1719 dabe
000003e0: b559 4fbe 46ae d03b 5541 91be b014 bf3e
000003f0: a24b af3e 0243 e53e bb13 50be 9f42 89be
-0.37044427 -0.16616161 0.39170852 0.34873584 -0.39390847 -0.0849779 0.21850295 -0.11218812
0.13083968 -0.35910484 -0.08562812 0.2278899 0.26199266 -0.116453014 -0.3379055 0.29517233
0.29026267 0.35105157 0.08383357 -0.08304542 0.1279906 0.25460872 -0.15839234 0.17228389
0.38630167 -0.41673827 0.08957 0.009731869 0.1163143 -0.0074761575 0.142907 0.17658956
0.32751778 0.41501942 -0.091658026 -0.35411656 0.03929876 0.026160222 0.02170639 0.1985184
-0.05467153 0.27520522 0.33897656 -0.2771734 -0.25267994 0.44694135 0.2536279 -0.37343544
-0.36482027 0.039787192 -0.10442707 -0.25287756 -0.34541708 -0.15467422 -0.26571167 -0.25061247
0.11160739 -0.10200339 0.06148896 0.24893746 0.31740028 0.25971323 0.22827388 0.29592514
0.32280776 -0.34912866 0.045284003 -0.052312516 0.067584276 0.0061793434 -0.3764382 0.09587131
-0.17336936 -0.19919065 0.36610407 0.32297388 0.054513797 -0.28476295 0.16187547 0.27578458
0.36935058 0.2700036 0.1436237 0.34305513 -0.16819152 0.28864753 -0.32070234 -0.18462668
0.03372381 -0.34326324 -0.2788952 0.18550815 0.09622285 0.15171045 0.30212635 -0.23613994
-0.11838538 0.37748107 -0.11002102 -0.14056422 0.27078718 0.41078874 0.30255365 -0.27657807
-0.017525623 -0.1098801 -0.31513983 0.29999357 0.11647695 -0.29646513 -0.01367626 -0.3273286
0.025536759 -0.27287328 0.3290159 0.36641487 0.18564883 0.36057782 -0.010073905 0.24415037
-0.26354793 -0.36862132 0.40091997 -0.25683963 0.013155666 -0.2595344 -0.38119996 0.06815177
-0.2719403 -0.28175884 -0.371435 -0.3071345 0.03787211 0.039191917 0.18624042 0.14307584
0.21087857 -0.24972652 -0.19859475 0.29648936 0.38790154 0.048626576 0.21689682 -0.14309336
0.23840043 0.280855 -0.012698985 -0.14028502 0.04438101 -0.21891062 -0.052466113 -0.2849186
0.02525898 -0.32275638 -0.20708507 -0.1473843 -0.42112002 0.1010097 -0.028392436 -0.3333955
0.030391015 0.14145528 -0.103463545 0.3771572 0.09401511 0.1329032 0.21226478 -0.03897912
-0.024637047 0.4105275 -0.26242062 0.13628076 0.06746439 0.05224102 -0.40894365 -0.2663126
-0.17860982 -0.046530165 -0.14978936 0.062361516 0.012553741 -0.3995098 -0.107371956 -0.29018077
0.3378616 0.3766073 -0.36130115 0.11723571 0.11372976 -0.23454173 -0.26571038 -0.40773112
-0.39398015 0.26815602 -0.32012546 0.3085131 -0.291676 -0.2774714 0.20533587 -0.14802425
0.4326071 -0.31704333 0.28396288 -0.14403208 -0.24703155 0.12557812 0.2889944 0.0117348
-0.43331778 -0.3551887 0.34919727 0.053132117 -0.25681353 0.10545254 -0.26285845 0.40742132
-0.36390695 0.30874082 0.19860218 0.081575796 -0.3705592 0.31013837 0.37905157 0.3890496
-0.08474574 0.28387818 -0.37252423 0.08484353 0.32673487 -0.112439565 -0.15464716 -0.06337351
-0.1802762 -0.26868016 -0.21586886 0.027485188 0.39536524 0.06800103 -0.0773505 0.19531107
0.032468285 0.27512863 -0.08023296 0.33871365 -0.10915177 -0.08255958 0.13044173 -0.42597267
-0.20249064 0.0063684313 -0.28370157 0.3732047 0.3423739 0.44777685 -0.20320027 -0.2680864

gconv.1.lins.2.weight f4 [16, 16]
00000000: 946f db3e 86df 9e3e dcad 6a3c b630 2d3c
00000010: fbe1 50be b0ec 6dbe c7f1 6a3e 1150 98be
00000020: c04d 4dbe 2154 bdbe 37dc aa3e 0836 91bd
00000030: 09d7 783e 9619 e33c fc90 4c3d d34e a83e
00000040: 180d 9dbe 2131 b93e 08d6 cc3a 6df4 893d
00000050: f25a ba3e f531 c73c c9aa debd d346 80be
00000060: 7131 053e b0fb 88be f77e 333e 881f 223e
00000070: 77ab 8bbd 01a1 b2be cb10 a7be a7af be3d
00000080: b1cc cbbe 2a57 e03c f388 a33e 1414 5c3e
00000090: 1089 5a3e de02 d53e 009f 6bbc 1e5c d6bc
000000a0: 0601 48be 9eb4 73be f8db d7be a627 2f3d
000000b0: 893c 1e3e 32bf 77be b3cc 75bd 9259 d13d
000000c0: d69c fdbd 3515 3ebd 82a4 a73e 30f7 113e
000000d0: f324 f3bc ff4d 093e 6c28 46bd c34b 303e
000000e0: fdaf fa3d 76bf 413e 068c 903c b5f1 d0be
000000f0: 9c9a 403e 90c7 9f3d 09a3 87be e712 84bd
00000100: 6f8a 9ebe b288 a03d a1b3 063e 4c23 e43e
00000110: 4f1f c93e 390d d83e 63a4 8c3e a5cd 8abc
00000120: 27ca 073e 2147 1dbe f2a2 b83e 175a 80bd
00000130: a6d4 c4be 92f7 afbe 01ca 913e 16df 6f3e
00000140: 70d8 8abe 2136 183d ab48 ccbb 61d4 83be
00000150: a02f 10be 7aad 8f3e 4c8e cf3e d8b6 5f3d
00000160: 2266 a8be 236b b03e 42ca 9d3d 76bf 1abe
00000170: d097 0d3c 771f a23d a47d 56be 3777 ca3e
00000180: a60e 223e 2b69 893b 0241 a73d 56c9 0bbc
00000190: 9149 213e ff06 cf3e d002 34be 92c2 56be
000001a0: 2772 2ebe a0b0 5c3d e175 193e 9548 91be
000001b0: 17e1 c9be 701b cbbe d9cd b5be b492 a83e
000001c0: 0626 693e ee77 6b3e daec 7dbe 19cd 44be
000001d0: 4347 793e 5a77 94be 0102 83be 4e71 bb3d
000001e0: 86a1 593e 30de 353e c9cf 21be 4418 4ebe
000001f0: 8158 243e 90c3 7ebe c309 47bd ea53 b13e
00000200: 7cec a93d 27cd 62bc 7ddd 9ebb bbd9 1bbe
00000210: 69ff b6bd 9096 68be 1c44 9b3d 3e32 aebe
00000220: 2e77 8b3e 8521 0abe a362 823e b3fb 6e3e
00000230: 4367 73bd ae17 a4be 700f f43d c473 043c
00000240: 9683 b9be 8930 6ebe 9f57 71be 0d81 d5be
00000250: 4e83 97be afc9 093e a03e 083e 9ede c83e
00000260: 4d46 cbbe 0c91 803d 4b6f bebe 10c3 ef3d
00000270: 1ea8 ce3e 54e2 95be b95b f63d dbef da3d
00000280: d53a 64bd 5ef8 d43e 393b d2bb a13e 97bd
00000290: 6a13 783e f692 6cbe 5c4a 733e 59b6 c5be
000002a0: 81ba 7e3d 2246 293c 473e df3d 3466 0f3c
000002b0: c75a c43d fd57 b4be 3491 80be 64ad 8d3e
000002c0: 3de7 b73e 5e93 22be dac2 04be c596 b2be
000002d0: 4085 303e 5517 b6be e2c5 94be 7181 2cbe
000002e0: 3462 503e e185 ce3e ce5a aa3d 6a81 19be
000002f0: f111 003e 03a6 83be a2f8 8b3e 6d34 ac3e
00000300: 0289 91bd 3da3 a93e c078 aabe 0460 983d
00000310: 8733 afbd 7f07 ca3d 1335 c5be 116e da3e
00000320: a13a 83be 136b 513e d084 8bbe 2678 82be
00000330: ca8a 50bd 1fb6 bd3e 00b1 0fbe fae4 2b3d
00000340: c45e adbc 73ca df3e dec7 e33c 0c3d 00bd
00000350: c9ac 5b3e e90b 6ebe 239e 863e ee46 493e
00000360: c57e e03e 3c5b 473e 8b9b 923e 04e4 0cbe
00000370: 7aec 04be 81da 2cbe d0f5 24bd d3a7 72bd
00000380: 2e06 7cbe 49c2 293e b99e 80bd 1d8f a7be
00000390: 73f2 22be d80b c9be 10e4 c0bd f198 25be
000003a0: 196d c6be a8b5 cb3d dad5 15bd 52fb 8ebe
000003b0: 132f 29be c1fa 5d3d f1d6 b93e 3da9 9a3e
000003c0: c6a3 97be 6a88 c53e a6a7 b1be 4495 5b3d
000003d0: edec be3e fa78 1d3e 37a8 943e 69c4 883e
000003e0: 5fc1 67be 31cb 113e d989 123d 74fc 8b3e
000003f0: b070 7ebe f593 92be a610 69bd 924c af3e
0.42858565 0.3102991 0.014323678 0.010570696 -0.20398705 -0.2323482 0.22943793 -0.29748586
-0.2004919 -0.36978248 0.33371136 -0.07090384 0.2430078 0.027722161 0.049942955 0.32872638
-0.30674052 0.36170295 0.0015627751 0.06736074 0.3639751 0.024315814 -0.108724184 -0.25054035
0.13007142 -0.26754522 0.17528902 0.1583234 -0.06819814 -0.3488846 -0.3263 0.09310847
-0.39804605 0.027385313 0.3194042 0.21492034 0.21341348 0.4160375 -0.01438117 -0.026166972
-0.1953164 -0.23799369 -0.4216001 0.04276242 0.1545278 -0.24194029 -0.06000967 0.10222162
-0.1238343 -0.046406943 0.32742697 0.14254451 -0.029680705 0.1340866 -0.048378393 0.17216401
0.12240598 0.18920693 0.017644893 -0.40809408 0.18808979 0.078017354 -0.26491573 -0.06448918
-0.3096499 0.078385726 0.1315446 0.4455818 0.392817 0.42197588 0.27469167 -0.016943762
0.13260709 -0.15359165 0.36061817 -0.06267183 -0.38443488 -0.3436857 0.2847443 0.23424944
-0.27118254 0.037160996 -0.0062342486 -0.2574797 -0.14080667 0.2806204 0.4053825 0.054617733
-0.3289042 0.3445674 0.07704593 -0.15112099 0.008642152 0.07916158 -0.20946366 0.3954408
0.158259 0.004193445 0.08166696 -0.008531889 0.1575072 0.40435025 -0.17579198 -0.2097266
-0.17035733 0.05387938 0.14986373 -0.28375688 -0.39429542 -0.3966937 -0.35508612 0.32924426
0.22768411 0.22994968 -0.24797383 -0.19218864 0.2434359 -0.28997308 -0.25587466 0.091524705
0.21253023 0.17760539 -0.1580192 -0.20126444 0.16049387 -0.24879289 -0.048593294 0.34634334
0.08297059 -0.013842857 -0.004848181 -0.15219776 -0.08935434 -0.22713685 0.0758135 -0.34022707
0.27239364 -0.13489349 0.2546588 0.23338203 -0.05942465 -0.32049316 0.11917007 0.008084241
-0.36233205 -0.23260702 -0.23568581 -0.4170002 -0.29592365 0.13455842 0.1330514 0.39232343
-0.39702073 0.062776655 -0.37194285 0.11707127 0.40362638 -0.29274237 0.120292135 0.1069028
-0.05572017 0.4159574 -0.0064157513 -0.073849924 0.24226156 -0.23102936 0.23758835 -0.38615683
0.062189583 0.010331662 0.1090055 0.0087523945 0.09587627 -0.3522338 -0.2511078 0.2767135
0.35918608 -0.15876529 -0.12964955 -0.34880653 0.17238331 -0.35564676 -0.29057223 -0.16846253
0.20349962 0.40336516 0.08318101 -0.14990774 0.12506844 -0.25712594 0.2733813 0.33633748
-0.0710621 0.33132353 -0.3329525 0.074401885 -0.0855475 0.09864711 -0.38517055 0.426621
-0.25630668 0.20451002 -0.27249765 -0.2548229 -0.05091361 0.3705301 -0.14032364 0.041966416
-0.021163352 0.43709144 0.027805265 -0.03130822 0.21452631 -0.23246731 0.26292524 0.19655964
0.43846717 0.19468397 0.28634295 -0.13758856 -0.12980834 -0.16880228 -0.040273488 -0.05924208
-0.24611732 0.1657802 -0.06280274 -0.32726374 -0.159128 -0.3926685 -0.094184995 -0.16171624
-0.3875511 0.099467576 -0.036580898 -0.27926117 -0.16521864 0.054194216 0.362968 0.30207244
-0.29617137 0.38580638 -0.34698218 0.053609148 0.37290135 0.1537818 0.29034588 0.2671235
-0.22632359 0.14237668 0.035775993 0.27341044 -0.24847674 -0.28628507 -0.056900643 0.34238106

gconv.2.lins.0.weight f4 [16, 16]
00000000: ffc5 91be 84bd cd3e dbdf 003e 19f6 ac3e
00000010: 7949 833e 5907 b13c cc73 08be d8e5 c8be
00000020: 6227 e23e d463 8ebe affe 8fbe e928 583d
00000030: ac9e 66be f6fb 94be 36db 1fbe b975 bdbe
00000040: c462 fa3d af49 ff3c faba dfbe f8cc 973e
00000050: 7843 0a3e a5e5 b33d 1b89 94be 3a8c 243e
00000060: 0746 41be 9ee4 3e3d f919 923e 0922 dabd
00000070: 8d17 7fbe bf65 cfbe 90a7 a2be 0a96 adbe
00000080: 7c24 c5be 8e90 07bd 7b55 993e 83ad a9be
00000090: cffc 823d 6d94 e23d e725 d5bd c0bb bcbe
000000a0: 1dc9 003e 130d abbe dc44 bdbe c1a0 a03e
000000b0: 480a c43e 6e71 0bbe d334 8f3e c32b b7be
000000c0: e58d bd3e dad8 65be 0325 3bbe 7f83 c13e
000000d0: deef 893e 6f82 8cbe 9ede fcbd b091 9b3e
000000e0: ae81 94be 9083 843e 4ef8 cbbe b5ce cd3e
000000f0: 0b08 703e 58c8 4abd 6283 ac3d 56f2 443e
00000100: cdf8 a23e 7b15 e8bd cbb7 cfbd 3906 8bbe
00000110: e305 acbc 1fcf d23e d9a1 d7be a2c1 2fbe
00000120: e322 c3be 0fff 9fbe acec 04be bbfa cb3d
00000130: d5e7 bebe 5f12 94be 2443 8e3d a07f b53e
00000140: 00c8 ac3e 33ef 983e 9507 06be 87a8 c23e
00000150: 52a4 1c3d f885 413e 1c07 9bbd c298 a23e
00000160: ed3d 91bd f245 1d3d 44ff 9cbe 4fc1 853e
00000170: 0cdc cebe e720 90be cabb 53be 40b3 fbbd
00000180: 8896 a3bd 8489 cbbe 089d a13e e365 a8be
00000190: 6cc7 93bc e60c 96be f566 8e3d 5b1c ddbd
000001a0: 0c89 a1bd 9d4a d63d 0921 3ebd 4d30 68bc
000001b0: a094 933e 59ad 143e 3dd4 a4bd 6d5a a6be
000001c0: 0ef9 ff3d b114 eebe 6c1d bdbe a656 9d3e
000001d0: 7379 f1be a50a b93e a28b 11be be03 73be
000001e0: 4c19 c6be 6460 2c3e de7d 6dbe a93a 303e
000001f0: 42b1 f53c 7d01 5d3e 3c80 73bd ef63 103e
00000200: f0f5 1dbe 2940 163e b737 8e3e cd6a c13e
00000210: f26a d93c 9637 94bd 3101 15be f9f3 983e
00000220: 6c3d 85bd 85e5 edba daa8 51be 9d53 4f3d
00000230: 4864 13be 03a8 97be 568b 8b3d 2039 6d3e
00000240: cc9f c1be f8a5 99bc d755 e9bd 4a97 cd3e
00000250: 4e1b 3f3e cad2 9fbe 2504 153e cda2 b9be
00000260: 4a12 923c f24e 01be c639 15be 3de0 903d
00000270: 2b70 da3d 860d 1cbe c3a0 9d3e 69b0 093c
00000280: abbe 22be ccad 4cbd 2ee8 ba3e 707c 863e
00000290: 16d0 78be 87b9 863c 68f1 13be ab12 cf3e
000002a0: 9fa9 af3e 2fa5 263e 390c a23e 610c a3bd
000002b0: a43f 52be 955a 303e 6702 37be 153e abbe
000002c0: 32f8 eebb 1a06 783e e7fe 1b3e 4bf2 58be
000002d0: 41b8 3e3e 9476 bfbe 3224 8b3e d488 863e
000002e0: e2e5 c33e 605f 9cbe f5a8 adbe 40f2 e0bd
000002f0: 34cb 9d3e b0f4 b13e 9d48 a2be 8494 853e
00000300: 545b 413e 4320 95be 92ff b6be 6074 27be
00000310: 759c cabe be04 dfbe 6d2a 6abe d585 d93e
00000320: 4e3a b2be 92f2 8abe 7429 10bc 252a 28be
00000330: 6d32 0f3e cd48 f8b9 d8d3 833e c0c6 c6be
00000340: bbc3 cc3e ddb9 e8bd f571 713e b7a8 a53e
00000350: 3fc5 673e ac0f 9c3e 6264 853d 0959 a43e
00000360: c779 a6bd 05da 683d bdd8 cc3c acc2 a03d
00000370: 7f85 52bc 5782 713e 40c9 8abc bbd1 65be
00000380: 4ef6 41be 871f c33e 37de 0fbd b393 853e
00000390: b973 c03e 3452 303e 005c d2be c44c a9bc
000003a0: f25d d3be f778 2e3e a306 da3b 4f20 913d
000003b0: 66c0 da3e 4f67 3b3e 313a 023e 748e 123e
000003c0: 6014 cb3d 390a 563c 867e cc3e 817c c9be
000003d0: c19f a63e 4cb5 a53b 1cdd 9abd 0cd7 e2bd
000003e0: 2bb5 25bd 5ebc 7d3e 1729 c0be 6133 6f3e
000003f0: 58bf 8d3b d78b cdbe ac65 21be 39aa 41bc
-0.28471372 0.4018365 0.12585394 0.33781508 0.25641993 0.021609949 -0.13325423 -0.39237857
0.44170672 -0.27810538 -0.28123996 0.05277339 -0.22521466 -0.2909848 -0.15610966 -0.37003878
0.12225869 0.031163065 -0.4369734 0.29648566 0.135023 0.087840356 -0.29010853 0.16069117
-0.1887437 0.046604745 0.2853544 -0.10651023 -0.24911328 -0.40507314 -0.31768465 -0.33903533
-0.38504398 -0.033096842 0.2994803 -0.3314019 0.06395876 0.11063466 -0.1040762 -0.36861992
0.12576719 -0.33408412 -0.36966598 0.31372645 0.38289094 -0.13617489 0.2796999 -0.35775575
0.3702232 -0.22446004 -0.18275838 0.37795636 0.26940817 -0.27443263 -0.12347148 0.30384588
-0.29005188 0.25881624 -0.3983788 0.40196767 0.23440568 -0.04950747 0.08423497 0.19233069
0.31830445 -0.11332222 -0.101424776 -0.27153185 -0.0209989 0.41173646 -0.42115667 -0.17163709
-0.38112554 -0.31249282 -0.12980908 0.099599324 -0.3728625 -0.28920266 0.069464 0.35448933
0.33746338 0.29869995 -0.1308883 0.380192 0.038242646 0.18898761 -0.075697154 0.3175717
-0.070918895 0.038396783 -0.30663502 0.26124045 -0.40402257 -0.28150102 -0.20677105 -0.122900486
-0.07987696 -0.39753354 0.31565118 -0.32890233 -0.018039428 -0.29306716 0.06953231 -0.10796424
-0.07887468 0.1046345 -0.046418224 -0.014171672 0.2882433 0.14519252 -0.08048294 -0.32490864
0.12498675 -0.4650016 -0.3693651 0.3073017 -0.4716297 0.36140934 -0.14213422 -0.23731896
-0.38691175 0.16833645 -0.23192546 0.17209877 0.02999175 0.21582599 -0.059448466 0.14100622
-0.15425849 0.14672913 0.27776882 0.37776795 0.026540253 -0.07237165 -0.14551236 0.29873636
-0.06505856 -0.0018150067 -0.20474568 0.05061685 -0.14393723 -0.2962037 0.068136856 0.23166323
-0.37817228 -0.018755898 -0.11393326 0.40154487 0.1866276 -0.31215507 0.14552362 -0.3625702
0.017830987 -0.12627771 -0.1457282 0.0707402 0.106659256 -0.15239534 0.30786714 0.008403876
-0.15893047 -0.049970433 0.36505264 0.26266813 -0.24298128 0.016445888 -0.14447558 0.4044393
0.34309098 0.1627395 0.3164995 -0.079613455 -0.2053209 0.17222054 -0.1787201 -0.33445802
-0.007292771 0.24221078 0.15233956 -0.21186177 0.18624975 -0.37395155 0.27176052 0.26276267
0.38261324 -0.30541515 -0.33917966 -0.109837055 0.30819094 0.34756994 -0.31696025 0.2608987
0.18882495 -0.29126176 -0.3574186 -0.16352987 -0.39572492 -0.43558306 -0.22867747 0.42484918
-0.34810108 -0.2713819 -0.008798946 -0.16422327 0.1398408 -0.00047356487 0.2574756 -0.3882351
0.3999308 -0.113635756 0.23578627 0.32355282 0.22633837 0.30480707 0.06513287 0.32099178
-0.08128696 0.056848545 0.025005693 0.07849631 -0.012849211 0.23584877 -0.016941667 -0.22443287
-0.18941614 0.3810999 -0.03512403 0.26089248 0.3758829 0.17218858 -0.41085815 -0.020666488
-0.41282612 0.17038332 0.006653623 0.070862405 0.42724913 0.18301128 0.12717511 0.14312154
0.099159956 0.013063961 0.3994028 -0.393528 0.32543758 0.0050570127 -0.075617045 -0.11076173
-0.04045598 0.24778888 -0.3753135 0.23359443 0.0043257885 -0.40145752 -0.15761441 -0.011820369

gconv.2.lins.1.weight f4 [16, 16]
00000000: 5b53 dc3e eae0 7cbd b2a2 8b3e 7c85 3dbe
00000010: eb67 a33d d9b4 7ebe 640d 633e 5cb3 153d
00000020: abd4 75be 44bf 26bc 8de6 683d 53b3 ac3e
00000030: efe0 313d 9094 32be e882 2b3e fe4e 0f3e
00000040: 44c4 80be ebd0 143d 85c8 d1bc 7f53 143e
00000050: e202 9bbe d39e 4e3e f081 c3be df4f 99bd
00000060: e4f7 a4be 27a8 74be e0b3 263e f3e1 c63e
00000070: 64e3 cfbe 4713 a9be c7df 9cbe 9aa3 833e
00000080: 14f6 f8bd 1df3 af3e 3886 a0be 9e4f 8fbc
00000090: d6b0 c8be ad9c 2cbe a6ff b03e cac0 3b3e
000000a0: 1326 0abe 6be3 ac3d 5a2f 893e c872 ff3c
000000b0: 9a8c be3e e5ea 1e3e eaee 7c3e 0e47 a33e
000000c0: cf6e 02be 0846 b8be dfa2 f8bd 77b0 9a3e
000000d0: 23ff 013e fb50 afbe 69c9 15be 77d5 49bc
000000e0: 8b8c 7fbe 131a 773e af8c b4be 396e a8bc
000000f0: 2341 c0be ae1e a53e fbd3 273e c704 c0be
00000100: eb1c 203e 4421 7b3e f3d3 a73e b3fd 623e
00000110: ca40 75bd 8d35 48bd 9fb8 bcbe dc0b 70be
00000120: 2e3f 323e 9386 2cbe 13d9 a0be abaa 45be
00000130: 52c8 97be f068 d23e 2519 433e 1762 63bd
00000140: 515f eebd 90f7 af3e 4738 983e d48f 37bd
00000150: cee8 b2be b030 8abe 054b b7be 945d 6f3e
00000160: 94f4 f33d d576 bb3e 276c 89be 574c 8abe
00000170: c9fa 293e 3ab2 b2be 990c 35bc 067f b43e
00000180: 5286 99bd 7754 a4be 441a 9dbd 2733 8fbe
00000190: 714b a93d 62e5 c7be 330b 8cbe 6ce1 b4be
000001a0: 3c6d 803e 8c4f 6c3d 7199 ca3e 081d 81be
000001b0: 9df8 a63d 8242 063e 5d7a b93d e036 263e
000001c0: 4d46 27be c366 efbc 8581 d9ba 6d87 93be
000001d0: 0fd3 c4be a870 abbe 32d9 bdbe 7dbd d4be
000001e0: 0798 b1be f052 e33d 11fd 263c 42af 3e3e
000001f0: 850e 043e a1ed e43e cb35 9dbe 75a3 0ebe
00000200: ea7e f83d 9708 c83e 9d4d c2be 1414 913c
00000210: ba6f 833e 5d32 c83e 0a4c 20be 5193 b0be
00000220: 0a17 d33b a186 b63d 8bcb 6ebd ff2a cc3d
00000230: 9020 35bd 3527 bc3e 27de 0bbe 8c18 b9bd
00000240: c42c c43d 7645 b03e 80fa d23d 7431 093e
00000250: 1cb9 9f3e 0654 cf3e 2c88 813e 605b d93e
00000260: 4941 0a3e 8270 b0bd f601 933e c73d c43e
00000270: 018c 693e 6916 82be 3abc 15be 2740 7abe
00000280: c222 dd3c b395 6ebe fc66 97be 44bc 24bd
00000290: 953c c93e a8d6 923e 91bb c83d 8662 d13e
000002a0: 6345 7ebe 37ea 883e 451e 07be 6b15 9abe
000002b0: 9ea5 af3e 971b 963e 890a 253e 3e18 1c3d
000002c0: 71a5 afbe f947 883c 8831 bebe a629 7ebd
000002d0: ca74 363c 4d58 19bc 5d12 c1be 0472 b73e
000002e0: d39a 9f3d 025a 503e 7b72 e1bc 7e77 153e
000002f0: 5930 c1be 8563 33be 7c21 43be 5c7c 94be
00000300: 101d 9abd 5b43 633d 1c2d 9fbe 153a 30be
00000310: bc8c 273e 7994 b7be 49da 0abd 9e7f 04be
00000320: fbda 93bd a6d9 b73e d7a8 2cbe 57e5 d3be
00000330: 4fb5 8abe e0e3 93be c912 a7bc eb33 2c3e
00000340: f151 bc3e 8782 b93e 2523 61be fe6f c03d
00000350: 9eb8 a53d ce00 893e b690 bdbd 962c dbbd
00000360: 647d 423e 67aa dfbd 5db5 dcbe 4cd0 aa3e
00000370: f43e d43e 692f 043e e422 3b3e 1d36 013e
00000380: 8daf f5bd c532 5a3e e554 aebd df45 85be
00000390: 9ddf 393e 56f0 9c3e 278f debc ac56 45be
000003a0: a467 3f3e 574a 8c3c acb5 c33d 8cda 8dbe
000003b0: 4647 eebd d556 6b3e 2d86 81be ed54 5fbd
000003c0: a394 2d3e 3328 b93e 2553 9ebd a439 033e
000003d0: 3e94 c83d 7aae 383e 3c01 69be e102 a63d
000003e0: 8493 a8be e87a e9bb b863 d2bd 5e66 df3e
000003f0: 22e4 073e 6b14 54be 0cd6 cd3d a3cc 86be
0.43032345 -0.061737932 0.27272564 -0.18507951 0.07978805 -0.24873675 0.22173077 0.036548004
-0.24006908 -0.010177437 0.056860495 0.33730564 0.043427404 -0.17439485 0.16749156 0.13994977
-0.2514974 0.036332052 -0.02560831 0.14484976 -0.30275637 0.20177774 -0.38185072 -0.07485937
-0.32220376 -0.2389227 0.16279554 0.3884426 -0.40603173 -0.3302252 -0.3063948 0.25710756
-0.12156311 0.34365168 -0.313524 -0.01749402 -0.39197415 -0.16856642 0.34570044 0.18335262
-0.13491087 0.08441814 0.2679394 0.031182662 0.37216645 0.15519293 0.24700513 0.31890148
-0.12737583 -0.3599093 -0.1214044 0.30212757 0.12694983 -0.3424147 -0.14627613 -0.01231896
-0.24955957 0.2413104 -0.35263583 -0.02056037 -0.37549695 0.3224997 0.16389458 -0.37503645
0.15636031 0.24524409 0.32778892 0.22167091 -0.05987624 -0.048879195 -0.36859605 -0.23442024
0.17406914 -0.16848211 -0.31415614 -0.19303386 -0.2964502 0.41095686 0.1905256 -0.055513468
-0.11639274 0.34368563 0.29730436 -0.0448149 -0.3494324 -0.2699027 -0.35799423 0.23375541
0.11911884 0.366141 -0.26840326 -0.27011368 0.16599573 -0.349016 -0.011050367 0.3525316
-0.07496323 -0.32095692 -0.076710254 -0.27968714 0.082663424 -0.39042193 -0.27352294 -0.35328233
0.2508334 0.05769305 0.39570192 -0.25217462 0.08152888 0.13111308 0.09056542 0.1623187
-0.16335411 -0.029223805 -0.0016594386 -0.2881426 -0.38442275 -0.33484387 -0.3707977 -0.41550818
-0.346863 0.110998034 0.010192172 0.18621543 0.12896164 0.44712546 -0.30705103 -0.13929541
0.12133582 0.39069054 -0.3794984 0.01770977 0.25671178 0.39100924 -0.15654007 -0.34487393
0.0064419555 0.08912397 -0.058299582 0.09969138 -0.044220507 0.36748663 -0.13658963 -0.09037885
0.09578851 0.34427994 0.10301685 0.13397771 0.31195915 0.40493792 0.25299203 0.42452526
0.13501467 -0.08615209 0.28712434 0.38328382 0.22807314 -0.25407723 -0.14622584 -0.24438535
0.026994113 -0.23299293 -0.29570758 -0.040218607 0.39304033 0.28679395 0.098014005 0.4089548
-0.24831156 0.26741192 -0.1319514 -0.30094466 0.34306043 0.29317924 0.161173 0.038109057
-0.3430591 0.016635882 -0.37147164 -0.062051438 0.011136243 -0.009359431 -0.37709323 0.35829175
0.07793202 0.20346835 -0.027520409 0.14596364 -0.377322 -0.17518432 -0.19055742 -0.2900113
-0.075250745 0.055484157 -0.31089103 -0.17209657 0.1636228 -0.35855463 -0.03389958 -0.12939307
-0.072195016 0.3590824 -0.16861282 -0.4138591 -0.27091452 -0.28884792 -0.0203947 0.1681668
0.36781266 0.36232397 -0.21986063 0.09396361 0.080918536 0.26758426 -0.09256117 -0.107018635
0.18993145 -0.109211735 -0.4310712 0.33362043 0.4145428 0.1290871 0.18275028 0.12618299
-0.11996374 0.2130843 -0.08512286 -0.2602987 0.18151708 0.30652112 -0.02716787 -0.19271344
0.1869188 0.017125292 0.095561355 -0.277058 -0.11634688 0.22982343 -0.2529768 -0.05452435
0.16951232 0.36163482 -0.07730702 0.12814957 0.097939 0.18035308 -0.22754377 0.08106018
-0.32925045 -0.0071252473 -0.10272926 0.43632787 0.1327062 -0.20710914 0.10050592 -0.26328
