pth/fold2.pth (torch, 639596 bytes, 46 tensors)

gconv.0.lins.0.weight f4 [16, 2000]
0.032199368 0.053034898 0.017040437 -0.0073495572 0.009148162 -0.01616823 -0.051461898 -0.03144532
0.029664513 -0.00053453335 0.020259425 -0.051941503 0.020969898 -0.026055459 0.034261376 -0.037322175
-0.052969318 0.0056572086 -0.0070679593 -0.014619801 0.02414233 -0.035012394 -0.03405571 -0.004653972
0.036914784 -0.033820473 -0.03414965 0.018654997 -0.00072432455 -0.058695506 0.0027641372 -0.021323672
-0.050593283 0.024486333 -0.01096358 -0.053597603 -0.05909719 0.0093096085 0.048840642 -0.04347464
0.022497954 -0.059246015 -0.032014694 -0.026051056 -0.01918227 -0.057096273 -0.040417653 0.025959227
-0.031208435 -0.010373567 0.034328982 -0.051238894 0.039583053 -0.03618395 -0.024274377 0.023038248
0.04628371 0.025820514 -0.056293793 -0.057232082 0.010040851 -0.008388901 -0.00797425 -0.033568263
-0.059111245 0.041049354 -0.03121593 -0.01473272 0.03526702 -0.014977143 0.040752158 0.028718151
-0.016288865 -0.022162752 0.037052456 0.012964674 0.022749996 -0.037574414 -0.024226733 -0.033477228
-0.030058028 0.031447522 -0.005621817 -0.0015113587 -0.01146109 -0.04690639 0.0013155633 0.039019186
0.028408276 -0.015384213 -0.029693093 0.03065229 0.011579934 -0.042711895 0.0030846086 0.028045375
-0.028014638 0.04059118 0.03246096 0.009216578 0.019646857 0.0545875 -0.013685803 -0.046960656
0.031977918 -0.054357532 -0.0058988645 -0.024873033 -0.03791563 -0.014826617 -0.0018361992 -0.001075568
-0.00738073 -0.013353949 0.04269508 -0.03053038 -0.019485852 0.014031774 -0.048079774 -0.015084531
-0.023591004 0.005368151 -0.01136014 -0.016155155 -0.019057956 0.027457222 0.023265254 0.032054927
0.047210425 0.01836969 -0.0256428 0.04181749 0.028905157 -0.018641325 0.034498222 0.03645015
0.002308616 -0.003591111 0.01250972 -0.037645787 -0.058159046 0.03681016 0.0005115478 0.033710916
0.05174594 0.025767412 -0.018501157 -0.014679369 0.027260486 0.016592477 -0.045407962 -0.020044882
-0.055224113 -0.059304487 -0.033406325 0.03547384 0.03997671 0.035531413 -0.048059143 -0.0029324705
0.034749612 -0.003829355 0.025713524 -0.027239656 0.0019971437 0.027805002 -0.038924873 -0.023724157
0.025020529 0.011543475 -0.02462532 0.026601264 -0.024949197 0.0175744 -0.03552124 -0.036070142
0.02111409 -0.057008028 -0.0008132466 -0.05323864 -0.033769954 -0.020153414 -0.0128484415 -0.041875128
0.041908473 0.022871599 -0.00037592265 -0.042803887 0.006575241 -0.014278258 0.011468553 0.0071119196
0.032775678 -0.053020593 -0.03401097 -0.011972991 0.027580263 0.024737433 0.0023374385 0.007665752
0.0066666272 0.03838169 -0.027929287 0.014941923 -0.016499693 -0.019402632 -0.055225067 -0.011463588
-0.032388046 0.00087221357 0.013236473 0.043872047 0.038328424 0.019465428 -0.054749366 -0.0019090895
-0.06050778 -0.022687154 -0.02813006 -0.054689944 0.007202941 -0.059189048 0.00032300616 0.006227301
-0.025565881 0.03209 -0.01899155 0.04430398 -0.01673939 -0.042195205 0.043739513 0.007364224
-0.0038973086 0.049387533 -0.03411885 0.04158188 0.050755538 0.028085599 0.006670882 0.042014763
-0.0050468505 0.012750684 -0.0005509366 0.009483714 -0.062068105 0.012159972 -0.01970742 0.033693198
-0.008205042 0.027227301 -0.04093469 -0.062120978 -0.0051865913 0.047244612 0.03386327 0.02127438
00000000: 7ce3 033d 1f3b 593d 6398 8b3c 8ed4 f0bb
00000010: 2ce2 153c 3c73 84bc b6c9 52bd cfcc 00bd
00000020: fe02 f33c ed1f 0cba 18f7 a53c 9dc0 54bd
00000030: 10c9 ab3c 4272 d5bc a855 0c3d 23df 18bd
00000040: 5bf6 58bd 1b60 b93b 579a e7bb e487 6fbc
00000050: 23c6 c53c 2869 0fbd 007e 0bbd 5980 98bb
00000060: f533 173d 5687 0abd 81e0 0bbd 5dd2 983c
00000070: 99e0 3dba b36a 70bd 8726 353b fbae aebc
00000080: e73a 4fbd 9097 c83c 96a0 33bc 2989 5bbd
00000090: e50f 72bd 5487 183c 200d 483d 7712 32bd
000000a0: a14d b83c f3ab 72bd d721 03bd 0669 d5bc
000000b0: 2324 9dbc c8dd 69bd fb8c 25bd 72a8 d43c
000000c0: d5a8 ffbc e5f5 29bc 8c9c 0c3d e0df 51bd
000000d0: d721 223d 9f35 14bd 0fdb c6bc b5ba bc3c
000000e0: fd93 3d3d 8b85 d33c 5294 66bd 306c 6abd
000000f0: 6282 243c 9a71 09bc 6ea6 02bc e07e 09bd
00000100: a21e 72bd 5e23 283d 8db8 ffbc 8261 71bc
00000110: 2774 103d b162 75bc bceb 263d 5442 eb3c
00000120: 3a70 85bc a98e b5bc 51c4 173d c969 543c
00000130: 335e ba3c a1e7 19bd 2477 c6bc 6b1f 09bd
00000140: 413c f6bc 1ecf 003d 3837 b8bb c818 c6ba
00000150: 4cc7 3bbc ea20 40bd fb6e ac3a 95d2 1f3d
00000160: 79b8 e83c 110e 7cbc ee3e f3bc 831a fb3c
00000170: c3b9 3d3c abf2 2ebd 2527 4a3b 6abf e53c
00000180: f47e e5bc f042 263d c9f5 043d 2101 173c
00000190: 72f2 a03c 2497 5f3d 6b3a 60bc d159 40bd
000001a0: 47fb 023d 01a6 5ebd 434b c1bb 88c2 cbbc
000001b0: 6b4d 1bbd 57eb 72bc 9fac f0ba 13fa 8cba
000001c0: 0dda f1bb 86ca 5abc 09e1 2e3d d91a fabc
000001d0: cba0 9fbc 87e5 653c 4cef 44bd 1c25 77bc
000001e0: ec41 c1bc 50e7 af3b e11f 3abc d157 84bc
000001f0: 6e1f 9cbc f8ed e03c c696 be3c 074c 033d
00000200: b85f 413d 087c 963c d910 d2bc d148 2b3d
00000210: 82ca ec3c b1b5 98bc 024e 0d3d c14c 153d
00000220: 264c 173b d858 6bbb 92f5 4c3c 7832 1abd
00000230: 2e38 6ebd 40c6 163d 6419 063a 7514 0a3d
00000240: 8df3 533d 2e16 d33c bd8f 97bc bc81 70bc
00000250: 6251 df3c f2ec 873c b3fd 39bd 2a35 a4bc
00000260: ae32 62bd 43e9 72bd 12d5 08bd 044d 113d
00000270: 9ebe 233d 6389 113d aad9 44bd b12e 40bb
00000280: 9c55 0e3d eaf5 7abb 2ba5 d23c b325 dfbc
00000290: 83e2 023b 51c7 e33c b06f 1fbd 2a59 c2bc
000002a0: daf7 cc3c d820 3d3c 0abb c9bc e5ea d93c
000002b0: 4262 ccbc 30f8 8f3c b87e 11bd 49be 13bd
000002c0: 75f7 ac3c 4081 69bd 0e30 55ba c310 5abd
000002d0: 5d52 0abd c618 a5bc 4582 52bc 4185 2bbd
000002e0: 38a8 2b3d 385d bb3c 7c17 c5b9 2153 2fbd
000002f0: 1f75 d73b 5bef 69bc 99e6 3b3c 1b0b e93b
00000300: ca3f 063d 1f2c 59bd 164f 0bbd 5d2a 44bc
00000310: 01f0 e13c 28a6 ca3c b62f 193b fd30 fb3b
00000320: b973 da3b 1e36 1d3d f6cb e4bc f8ce 743c
00000330: 5d2a 87bc 45f2 9ebc ae33 62bd c6d1 3bbc
00000340: 54a9 04bd 43a5 643a cbdd 583c 2db3 333d
00000350: 44fe 1c3d f675 9f3c df40 60bd 6a3a faba
00000360: 02d7 77bd 69da b9bc 0371 e6bc 9002 60bd
00000370: a606 ec3b 3770 72bd 2759 a939 630e cc3b
00000380: 8a6f d1bc ce70 033d 2b94 9bbc 1778 353d
00000390: 0c21 89bc e1d4 2cbd 3428 333d 974f f13b
000003a0: fd69 7fbb 954a 4a3d 35c0 0bbd c351 2a3d
000003b0: 0ae5 4f3d c513 e63c 6a97 da3b ac17 2c3d
000003c0: 0d60 a5bb 3fe8 503c bb6c 10ba 9461 1b3c
000003d0: 203b 7ebd 9f3a 473c 7571 a1bc e101 0a3d
000003e0: 716e 06bc ca0b df3c 22ab 27bd 9172 7ebd
000003f0: 48f4 a9bb 9183 413d 36b4 0a3d 9c47 ae3c

gconv.0.lins.1.weight f4 [16, 2000]
0.021748262 -0.026644172 0.029058667 -0.040718056 0.036598325 -0.03443347 -0.009494798 -0.015725479
-0.045178987 0.052858528 -0.041422486 -0.019156098 0.05332216 0.035576515 -0.022494256 0.028715618
-0.042570967 -0.017369285 0.02670219 0.03403869 -0.038053278 -0.029657502 -0.015581501 -0.019452794
-0.040286977 0.026883692 0.041845404 -0.03414025 -0.0075722784 -0.03805667 0.056923818 -0.018109847
0.0036306523 -0.003275951 0.03484389 -0.032812033 0.0053327475 0.010062293 0.051554605 0.062088113
0.0019601246 0.014138011 0.021220185 0.027735332 0.022756953 0.012730328 0.01566001 -0.019752776
-0.0048200437 0.052855987 0.056070775 0.0048357337 -0.016062463 -0.02629438 -0.03296554 0.03407175
0.0046301587 0.04729395 0.06039035 -0.0045311605 -0.022052271 0.014589779 0.035661303 0.058533803
0.044920802 -0.033054184 0.011651609 0.020184454 0.04108568 -0.043444566 -0.030418323 -0.01932616
0.007145042 0.06166612 -0.04000168 0.022853468 0.043296255 0.05807261 -0.012806543 -0.044835944
-0.040862564 -0.0015614512 0.011457398 0.056682788 0.055385232 -0.02205725 0.014540391 0.036892388
-0.023164235 0.025932 -0.03638632 0.03762328 0.028239207 -0.019633984 0.043383583 0.055663742
-0.04519605 -0.0134232445 0.027519599 0.02410973 0.03588464 0.018837906 0.037312325 0.004190919
0.029614286 -0.011608504 -0.037509456 0.019759728 0.050762355 -0.042763427 0.035878282 -0.030938223
0.042753853 0.013764396 0.0057722237 0.021397322 -0.005471543 0.025622096 0.0075110053 -0.03853861
0.028718546 0.0019396499 0.0126560815 0.0048209447 0.0471755 0.054346483 -0.0014983896 -0.037886936
-0.03796877 0.03611397 -0.011627566 -0.018007673 -0.04008198 0.04497487 0.021723581 -0.027513565
0.037505258 0.04916899 0.039939594 0.0061322288 0.027551282 0.0470567 -0.016188357 0.017312545
-0.04083301 0.05065472 0.039369095 0.014052423 -0.01708394 -0.035668496 0.03851562 0.017644051
-0.01846687 -0.005823335 0.031720925 -0.0018129218 0.048330516 0.02882147 -0.04102489 0.00077233027
-0.019085247 0.056399602 -0.043225862 -0.026585057 -0.00842679 0.04537482 -0.007972659 0.037591733
0.015731031 -0.004300534 -0.008867251 0.031400528 -0.039647046 -0.028563205 0.047948916 -0.005090929
-0.031795174 -0.043773808 0.0053641363 0.034703575 0.026279652 0.048109423 0.016277988 -0.047817197
-0.04014023 -0.0018785038 0.03821506 0.0031377713 0.018454177 0.038463626 0.0014478265 -0.04270847
-0.033819277 0.055094674 -0.017821252 0.009841484 0.058072183 0.039066546 0.051556185 0.03641899
0.040626176 -0.042936675 0.020834789 -0.03509478 -0.028498521 0.056395933 0.059909232 0.027440902
0.02431473 0.05772179 -0.04670681 -0.0026504318 0.030718071 0.059422433 -0.011941948 0.043216553
0.060187567 -0.012262648 0.007836388 0.010073888 0.022421276 -0.015382986 -0.027641037 0.057759404
0.004340679 0.018513203 0.0026987898 -0.015326115 -0.022600306 0.044783413 0.0030514225 0.053751823
0.057644393 0.02487875 0.058405507 0.055789623 -0.003801984 0.055666737 0.043374848 0.011313446
0.009795909 -0.03141497 -0.020957028 0.05068315 0.021553976 -0.03857814 0.0055671036 0.029509986
-0.00093941856 0.03464292 0.016859462 0.00090529537 0.048582513 -0.023977328 -0.028209604 0.05739012
00000000: 6929 b23c e144 dabc 710c ee3c fac7 26bd
00000010: 20e8 153d 1c0a 0dbd 1290 1bbc b8d2 80bc
00000020: 9a0d 39bd 2f82 583d a0aa 29bd 40ed 9cbc
00000030: 5668 5a3d aeb8 113d e045 b8bc 043d eb3c
00000040: e55e 2ebd 084a 8ebc 8dbe da3c 276c 0b3d
00000050: c1dd 1bbd 4af4 f2bc 8d49 7fbc 775b 9fbc
00000060: f503 25bd 303b dc3c 1666 2b3d a6d6 0bbd
00000070: e020 f8bb 50e1 1bbd f328 693d 1a5b 94bc
00000080: 3df0 6d3b 56b1 56bb 78b8 0e3d e965 06bd
00000090: 54be ae3b 51dc 243c ec2a 533d 1b50 7e3d
000000a0: 6f75 003b 1ea3 673c f4d5 ad3c 3535 e33c
000000b0: ca6c ba3c de92 503c 6c49 803c 93d0 a1bc
000000c0: 75f1 9dbb 857f 583d 78aa 653d 1375 9e3b
000000d0: 6d95 83bc 5067 d7bc e006 07bd d28e 0b3d
000000e0: 96b8 973b 4db7 413d df5b 773d 217a 94bb
000000f0: f7a6 b4bc f809 6f3c 9611 123d 24c1 6f3d
00000100: e0fe 373d d363 07bd 64e6 3e3c de59 a53c
00000110: 7549 283d eef2 31bd d92f f9bc e551 9ebc
00000120: f520 ea3b 9d95 7c3d cdd8 23bd 3237 bb3c
00000130: 6a57 313d 8cdd 6d3d 89d2 51bc e5a5 37bd
00000140: 815f 27bd 9ca9 ccba cfb7 3b3c 362c 683d
00000150: a0db 623d 68b1 b4bc d23a 6e3c 791c 173d
00000160: ecc2 bdbc 586f d43c d209 15bd de1a 1a3d
00000170: e955 e73c 73d7 a0bc fcb2 313d aaff 633d
00000180: 7e1f 39bd 2bed 5bbc c870 e13c c581 c53c
00000190: c6fb 123d f451 9a3c cfd4 183d fa53 893b
000001a0: a999 f23c 9831 3ebc 84a3 19bd 27df a13c
000001b0: 30ec 4f3d b428 2fbd 1bf5 123d 2872 fdbc
000001c0: aa1e 2f3d 1084 613c ec24 bd3b 7049 af3c
000001d0: a14a b3bb 6ee5 d13c e11e f63b a9da 1dbd
000001e0: 2843 eb3c da3b fe3a 745b 4f3c 04f9 9d3b
000001f0: 193b 413d 6b9a 5e3d 9d65 c4ba 552f 1bbd
00000200: 2485 1bbd 3eec 133d 8c81 3ebc d484 93bc
00000210: 012d 24bd 9237 383d a7f5 b13c 2164 e1bc
00000220: 1d9f 193d 6c65 493d b397 233d ddf0 c83b
00000230: 3ab3 e13c 87be 403d 729d 84bc 0ad3 8d3c
00000240: 8440 27bd 537b 4f3d 7d41 213d 223c 663c
00000250: 9ef3 8bbc 2119 12bd 8ec2 1d3d 428a 903c
00000260: d547 97bc add1 bebb cded 013d 909f edba
00000270: 38f6 453d 011b ec3c b709 28bd 3576 4a3a
00000280: aa58 9cbc 4503 673d 9a0d 31bd e8c8 d9bc
00000290: 8510 0abc f2da 393d c19f 02bc caf9 193d
000002a0: 5dde 803c 7eeb 8cbb f247 11bc d79d 003d
000002b0: f164 22bd 62fd e9bc 1566 443d cfd1 a6bb
000002c0: a83b 02bd 2a4c 33bd a3c5 af3b 5625 0e3d
000002d0: 6d48 d73c 630e 453d 6a59 853c f7db 43bd
000002e0: 156a 24bd 2138 f6ba 6587 1c3d 11a3 4d3b
000002f0: 372d 973c 098c 1d3d ffc4 bd3a 14ef 2ebd
00000300: 1586 0abd f4aa 613d e0fd 91bc 2d3e 213c
00000310: 19dd 6d3d 3e04 203d 942c 533d 142c 153d
00000320: a267 263d 5ede 2fbd b8ad aa3c 8bbf 0fbd
00000330: bb75 e9bc 6cff 663d 6263 753d becb e03c
00000340: af2f c73c af6d 6c3d a44f 3fbd deb2 2dbb
00000350: 77a4 fb3c f064 733d 29a8 43bc d703 313d
00000360: 3d87 763d 46e9 48bc 3264 003c f30c 253c
00000370: d3ac b73c eb08 7cbc 756f e2bc 2095 6c3d
00000380: 413c 8e3b 00a9 973c 2ede 303b 631a 7bbc
00000390: 4724 b9bc d06e 373d 60fa 473b df2a 5c3d
000003a0: 871c 6c3d 85ce cb3c 9d3a 6f3d a983 643d
000003b0: b52a 79bb ce02 643d d3a9 313d 085c 393c
000003c0: 057f 203c fcac 00bd 13ae abbc 2299 4f3d
000003d0: f791 b03c 1d04 1ebd 406c b63b edbe f13c
000003e0: 5043 76ba bce5 0d3d db1c 8a3c 5851 6d3a
000003f0: 75fe 463d 1a6c c4bc d417 e7bc e711 6b3d

gconv.0.lins.2.weight f4 [16, 2000]
0.041620877 -0.039838932 0.041874267 -0.0051041883 -0.0488805 -0.017096154 -0.025340458 -0.027499916
0.048242044 -0.015480087 0.00028514295 0.045522753 -0.057773385 -0.023867026 0.046912484 -0.051343646
0.012606629 0.022359824 0.010552219 0.0047072563 0.016151907 -0.0038465178 0.02489111 -0.012674264
-0.020543106 -0.040241573 -0.038101275 0.012055736 0.009828888 0.042898685 -0.029154155 -0.047613885
0.03308359 0.047866475 0.009553174 -0.0025610493 -0.007949934 0.049373 0.045492172 -0.021107618
-0.037570525 0.038162157 0.0440128 -0.047847714 0.018775683 -0.01681606 0.026135292 -0.020146715
-0.019295556 -0.020828033 0.039321244 0.013136639 0.03699612 0.004428444 0.018341862 0.0037784004
-0.009049004 -0.015802145 0.0240523 0.055061698 -0.04750877 -0.049283434 0.0011228235 -0.0190932
-0.004747503 -0.0184675 0.0292771 -0.028815348 0.0073397015 0.0068621165 0.04420657 0.019540306
-0.0029629215 0.014302773 0.047034636 -0.05370207 -0.04905825 -0.050384827 0.014329603 -0.012958701
0.011753989 -0.042485286 0.033553563 0.037745457 -0.04784962 -0.0008558329 0.027853085 0.00884809
-0.03894381 -0.043812938 -0.0008760559 -0.050807554 0.005396867 -0.049712718 -0.056184392 -0.01367692
-0.04523794 0.046370804 -0.029787265 -0.05917081 0.03166365 0.013255579 0.03487839 -0.050520416
-0.034030303 -0.03338367 -0.024814134 0.029531958 -0.013636444 0.034526475 -0.028926212 -0.047410734
0.023466317 -0.007003103 -0.03287353 0.008592306 -0.036636747 0.043935914 -0.037576973 0.029831134
0.03566888 0.04717313 -0.048927505 0.037776917 -0.033152435 -0.003692632 0.03612642 -0.017054414
-0.055445824 -0.009202974 -0.009443371 -0.029072184 -0.02896687 0.040276006 0.033829376 -0.034043577
-0.03277899 -0.050794046 0.037790477 0.038999807 0.03475584 0.014467628 0.0320721 0.017761255
-0.038329758 0.01493041 0.045131374 7.1804956e-05 0.0054147528 -0.05138429 0.0060992925 -0.025370665
0.013422024 0.03071762 0.04747655 0.003111962 0.029261017 0.042243794 0.017807206 0.04231159
-0.05110852 0.031594805 0.035108104 0.003864495 -0.038324732 -0.0020259246 0.0074148728 -0.010378729
-0.018010933 -0.0032504036 0.046140246 -0.048226584 -0.029554775 0.026945854 0.04133808 -0.05350552
0.02311901 0.014524987 0.031054832 -0.0050219386 0.047281697 -0.025985891 -0.052533407 0.04012986
0.010968611 -0.044705942 0.040130682 -0.025988093 0.01999684 0.029674426 -0.05524468 0.017275922
0.020603608 -0.0017585972 -0.04266612 0.0021087949 0.008375546 0.046016917 -0.0048189336 -0.021368256
0.011071474 0.0067921137 -0.034506608 0.009622137 -0.018967602 -0.04064779 0.020019906 -0.005248309
-0.047138907 0.035617128 0.010690128 0.045379464 0.017194748 0.020613667 -0.029306952 0.013878896
-0.0052070115 0.04479384 -0.05262031 -0.017076729 0.010411582 0.028250735 -0.0028683676 -0.02638687
-0.056004222 0.03354316 0.02147721 -0.025847258 0.03522535 -0.006351116 0.025774088 -0.054078266
-0.052381545 0.009788439 -0.038472086 0.0074486327 -0.016455067 -0.008396177 -0.009518063 0.0325829
-0.0498861 0.028635554 0.011911478 -0.044204585 -0.03382028 -0.06007551 0.037459563 0.0004268919
0.020459281 -0.046011716 -0.051860135 0.025393877 0.04583365 -0.0050054477 -0.039892945 0.0053088176
00000000: a77a 2a3d 262e 23bd 5a84 2b3d 0941 a7bb
00000010: eb36 48bd 3c0d 8cbc cb96 cfbc 8147 e1bc
00000020: 7399 453d 31a0 7dbc 3d7f 9539 1176 3a3d
00000030: c9a3 6cbd c884 c3bc 4e27 403d b74d 52bd
00000040: 098c 4e3c f32b b73c 37e3 2c3c 543f 9a3b
00000050: 0151 843c dc15 7cbb 71e8 cb3c b7a7 4fbc
00000060: 044a a8bc 59d4 24bd 1510 1cbd 6c85 453c
00000070: 5809 213c 88b6 2f3d b2d4 eebc c706 43bd
00000080: a982 073d a30f 443d ea84 1c3c 47d7 27bb
00000090: 7140 02bc 583b 4a3d 0056 3a3d e2e9 acbc
000000a0: 8de3 19bd ec4f 1c3d c446 343d f7fb 43bd
000000b0: 76cf 993c d5c1 89bc ae19 d63c b90a a5bc
000000c0: b711 9ebc 8d9f aabc 500f 213d 0f3b 573c
000000d0: 3e89 173d 7b1c 913b ac41 963c 0a9f 773b
000000e0: 4642 14bc 8073 81bc 5409 c53c 6088 613d
000000f0: 8e98 42bd 6ddd 49bd b42b 933a 5869 9cbc
00000100: f190 9bbb 2849 97bc 87d6 ef3c 2a0e ecbc
00000110: e181 f03b 9bdb e03b f311 353d fe12 a03c
00000120: 932d 42bb 2e56 6a3c 64a7 403d b4f6 5bbd
00000130: 4ef1 48bd 5260 4ebd b6c6 6a3c bb50 54bc
00000140: ce93 403c 0d05 2ebd 766f 093d fb9a 1a3d
00000150: f7fd 43bd f959 60ba 272c e43c 94f7 103c
00000160: 8b83 1fbd 3275 33bd 1ea7 65ba 951b 50bd
00000170: 34d8 b03b 909f 4bbd 9b21 66bd 2915 60bc
00000180: 6b4b 39bd 50ef 3d3d 6c04 f4bc 175d 72bd
00000190: beb1 013d ee2d 593c a5dc 0e3d 7fee 4ebd
000001a0: 5c63 0bbd 51bd 08bd 0347 cbbc 01ed f13c
000001b0: 646b 5fbc a26b 0d3d aaf6 ecbc c231 42bd
000001c0: 6f3c c03c 497a e5bb 65a6 06bd bec6 0c3c
000001d0: 6a10 16bd 25f6 333d 50ea 19bd 6c60 f43c
000001e0: 8819 123d 9d38 413d 3568 48bd f8bb 1a3d
000001f0: d9ca 07bd 1600 72bb 4cf9 133d b3b5 8bbc
00000200: 291b 63bd 12c8 16bc 5eb8 1abc ca28 eebc
00000210: ee4b edbc 74f8 243d ac90 0a3d 4771 0bbd
00000220: 4343 06bd 6b0d 50bd 30ca 1a3d 43be 1f3d
00000230: 245c 0e3d a109 6d3c 095e 033d 0d80 913c
00000240: aaff 1cbd ae9e 743c addb 383d fe95 9638
00000250: 3d6e b13b 5578 52bd 93dc c73b 24d6 cfbc
00000260: 0de8 5b3c 85a3 fb3c c576 423d 0ff2 4b3b
00000270: cdb4 ef3c d407 2d3d 6be0 913c eb4e 2d3d
00000280: 2b57 51bd 8e69 013d 84cd 0f3d 7843 7d3b
00000290: 65fa 1cbd 60c5 04bb 76f8 f23b 8b0b 2abc
000002a0: aa8b 93bc b904 55bb 8efd 3c3d 3d89 45bd
000002b0: db1c f2bc 8dbd dc3c 1e52 293d 9b28 5bbd
000002c0: 1464 bd3c 36fa 6d3c b466 fe3c 138f a4bb
000002d0: 74aa 413d 5de0 d4bc 452d 57bd 355f 243d
000002e0: b0b5 333c 941d 37bd 1260 243d fbe4 d4bc
000002f0: 6ad0 a33c c817 f33c 3f48 62bd 3c86 8d3c
00000300: e6c8 a83c bb80 e6ba abc2 2ebd b533 0a3b
00000310: 9639 093c 3c7c 3c3d 25e8 9dbb 7b0c afbc
00000320: 2165 353c 6190 de3b cd56 0dbd 2ba6 1d3c
00000330: f261 9bbc 4c7e 26bd c900 a43c 02fa abbb
00000340: ba14 41bd 44e3 113d a625 2f3c d1df 393d
00000350: 00dc 8c3c fedd a83c 2215 f0bc 4f64 633c
00000360: 949f aabb bf79 373d 6588 57bd 7fe4 8bbc
00000370: 5795 2a3c 166e e73c 39fb 3bbb 4729 d8bc
00000380: af64 65bd 8d64 093d f9f0 af3c a1bd d3bc
00000390: 7548 103d 061d d0bb 2e24 d33c 2c81 5dbd
000003a0: 088e 56bd b05f 203c e894 1dbd a913 f43b
000003b0: c7cc 86bc 1e90 09bc a6f1 1bbc a675 053d
000003c0: 5e55 4cbd 1c95 ea3c 5c28 433c de0f 35bd
000003d0: 2287 0abd bd11 76bd 336f 193d 76d0 df39
000003e0: 399a a73c c876 3cbd 4b6b 54bd d206 d03c
000003f0: 11bc 3b3d bd04 a4bb c966 23bd 97f5 ad3b

gconv.1.lins.0.weight f4 [16, 16]
0.2739782 -0.24790406 0.12075211 0.09821133 0.3371129 -0.16615544 0.015088125 -0.4098557
0.11408694 -0.36223608 0.11886096 -0.35574442 0.38678554 0.075641856 0.12671976 0.1492037
0.12787268 0.23055132 0.42377833 0.26704144 0.0652941 -0.07419179 -0.29732168 -0.004778063
0.24575317 -0.3688627 -0.22178844 -0.03652975 -0.056265987 -0.283331 0.044310376 -0.28957185
-0.38352877 0.34415784 -0.139713 -0.011307063 -0.06941053 -0.042071883 -0.09670823 0.31630924
0.31189114 -0.38366252 0.060419798 0.41997564 0.20313495 -0.11891004 0.41035718 -0.33555046
0.06405883 0.17119622 -0.22831887 0.042977232 0.037184928 -0.2616142 0.24123774 -0.00052791846
-0.2259917 -0.31227395 0.2458353 -0.093812965 -0.2787238 -0.26827028 0.25357476 -0.3823942
0.3988038 -0.14133856 0.06840325 -0.09242479 0.33430684 -0.20902584 -0.3059935 0.075305164
0.22518025 0.09593526 0.20525225 0.16661307 0.047094833 0.32622156 0.40688607 -0.41854596
-0.24433434 -0.3036594 -0.43566313 0.2150988 -0.119910225 0.15442434 -0.0404911 -0.338674
0.32524005 -0.35667777 0.14678793 0.26026103 -0.2611401 -0.11011961 0.36054304 0.021667227
-0.059032183 -0.38829914 0.07985548 0.15822716 -0.21371539 0.26102725 0.16885431 -0.24494894
-0.3973216 0.32856858 -0.3422663 -0.085971326 -0.09465973 -0.3158826 -0.35988522 0.1962524
0.024386276 0.24262764 -0.010631829 0.34419945 -0.11207246 -0.2333573 0.123361476 -0.3185689
-0.1214533 0.08242955 -0.29300544 -0.05100739 0.24072127 -0.29247794 0.14459218 -0.25076923
-0.24220945 -0.08950152 0.13919961 -0.09664947 0.14414793 0.1959022 -0.14245391 0.015934303
-0.36201206 0.20052862 -0.37689522 0.39792827 0.15290877 -0.306829 -0.37004274 -0.34030715
0.2831419 0.17849226 -0.33102995 -0.09600721 -0.18867503 0.43400225 -0.02663708 -0.1538427
-0.092820235 -0.23371857 0.16470285 -0.11970644 -0.08281055 0.36619136 0.19507879 -0.40389842
0.11176536 0.28117782 0.29586753 -0.26653636 0.20443417 -0.31231937 0.240927 0.131856
-0.03333063 -0.3849053 -0.21268134 -0.37861416 -0.39425987 0.33578205 -0.19065571 0.058344025
-0.42921883 0.16944125 -0.29503116 0.34051663 -0.4078326 0.10972967 -0.30339548 -0.2705293
-0.30378 0.20837572 0.29775748 -0.07806156 0.2938637 0.3100053 0.10309538 0.28337756
-0.16257875 -0.10347575 -0.28850302 0.10504323 -0.3538776 0.041847307 -0.09291366 -0.34501925
0.41656712 -0.28553686 0.0049569374 0.2564023 -0.1889132 0.043105572 -0.3851481 -0.21645753
0.35744625 0.42134094 -0.24100487 0.28674257 -0.26100165 -0.41440228 -0.21566649 -0.18310827
0.10793608 -0.3174878 -0.06409441 0.19013643 0.119885065 -0.22968177 -0.25708994 0.038045615
0.25705376 0.23303548 0.23248816 -0.033792783 0.4047346 0.21951465 -0.16935137 -0.11693336
-0.43750772 -0.0032155993 -0.32693976 0.25903714 -0.046691474 -0.28596604 -0.0321933 0.15855752
0.37635335 0.15094689 0.36564142 -0.2830359 -0.10298 0.0937307 -0.21107078 -0.3108851
0.025706153 0.22172713 0.20894554 -0.112303495 -0.28020915 0.21005304 -0.11668486 0.38457248
00000000: df46 8c3e 90da 7dbe e24c f73d 0623 c93d
00000010: 109a ac3e a724 2abe 2f34 773c 9bd8 d1be
00000020: 6aa6 e93d 0277 b9be 606d f33d 2224 b6be
00000030: c108 c63e 1eea 9a3d d3c2 013e dbc8 183e
00000040: 0ef1 023e a515 6c3e 79f9 d83e a8b9 883e
00000050: eab8 853d ddf1 97bd 8c3a 98be 4c91 9cbb
00000060: b8a6 7b3e 92db bcbe 821c 63be 38a0 15bd
00000070: 2a77 66bd c310 91be cc7e 353d c342 94be
00000080: e25d c4be 7535 b03e ed10 0fbe 4241 39bc
00000090: 1c27 8ebd 9153 2cbd f70e c6bd 49f3 a13e
000000a0: 32b0 9f3e 6a6f c4be c07a 773d 0c07 d73e
000000b0: 9c02 503e 1b87 f3bd 561a d23e 45cd abbe
000000c0: 4731 833d 104e 2f3e 6ccc 69be e508 303d
000000d0: 394f 183d 4cf2 85be 0707 773e 0264 0aba
000000e0: 5e6a 67be 5fe2 9fbe 40bc 7b3e 0321 c0bd
000000f0: e3b4 8ebe b95a 89be 8dd4 813e 2cc9 c3be
00000100: 0330 cc3e 0ebb 10be 0117 8c3d 3549 bdbd
00000110: 442a ab3e df0a 56be 2eab 9cbe 9839 9a3d
00000120: a795 663e b579 c43d a52d 523e 9e9c 2a3e
00000130: 83e6 403d 8306 a73e 5f53 d03e a84b d6be
00000140: c832 7abe 3f79 9bbe 3d0f dfbe dc42 5c3e
00000150: 7e93 f5bd 6a21 1e3e ffd9 25bd ae66 adbe
00000160: dd85 a63e 789e b6be 934f 163e ef40 853e
00000170: 28b4 85be 6486 e1bd 1999 b83e 787f b13c
00000180: bbcb 71bd 25cf c6be 458b a33d 4d06 223e
00000190: 35d8 5abe 5da5 853e 25e8 2c3e e5d3 7abe
000001a0: bd6d cbbe 243a a83e 873d afbe bc11 b0bd
000001b0: f6dc c1bd 5dbb a1be e042 b8be 64f6 483e
000001c0: bac5 c73c 6173 783e 1f31 2ebc e93a b03e
000001d0: 3f86 e5bd 37f5 6ebe f1a4 fc3d 761b a3be
000001e0: 82bc f8bd d3d0 a83d cf04 96be 20ed 50bd
000001f0: a37f 763e abbf 95be f90f 143e d364 80be
00000200: c105 78be 934c b7bd 588a 0e3e 28f0 c5bd
00000210: 849b 133e 969a 483e 70df 11be a888 823c
00000220: a559 b9be 6057 4d3e 69f8 c0be 41bd cb3e
00000230: 1e94 1c3e b118 9dbe 3e76 bdbe bd3c aebe
00000240: faf7 903e adc6 363e c27c a9be 6e9f c4bd
00000250: 0734 41be 8b35 de3e 0136 dabc f188 1dbe
00000260: 8918 bebd ec53 6fbe dda7 283e a628 f5bd
00000270: 9498 a9bd 6f7d bb3e bcc2 473e c6cb cebe
00000280: 3de5 e43d 8af6 8f3e f37b 973e 7477 88be
00000290: 3157 513e 53e8 9fbe 91b5 763e 4205 073e
000002a0: b385 08bd 4f12 c5be 23c9 59be b7d9 c1be
000002b0: 6edc c9be a0eb ab3e 403b 43be 25fa 6e3d
000002c0: 92c2 dbbe 0282 2d3e 530e 97be 3258 ae3e
000002d0: 6fcf d0be f3b9 e03d a756 9bbe d182 8abe
000002e0: 0d89 9bbe 7260 553e ab73 983e bdde 9fbd
000002f0: 4e75 963e 04b9 9e3e ac23 d33d dd16 913e
00000300: 0b7b 26be 18eb d3bd abb6 93be e820 d73d
00000310: 722f b5be 1568 2b3d 8449 bebd 5da6 b0be
00000320: 4948 d53e e331 92be ce6d a23b 2a47 833e
00000330: 7672 41be 788f 303d 2232 c5be 0ba7 5dbe
00000340: 3203 b73e 00ba d73e fbc9 76be eccf 923e
00000350: 02a2 85be 892c d4be add7 5cbe bc80 3bbe
00000360: 970d dd3d c38d a2be ee43 83bd 20b3 423e
00000370: 4d86 f53d b331 6bbe 4ba1 83be b8d5 1b3d
00000380: 8d9c 833e daa0 6e3e 6011 6e3e 4d6a 0abd
00000390: 6039 cf3e 73c8 603e 726a 2dbe c27a efbd
000003a0: 0301 e0be cebc 52bb a664 a7be 84a0 843e
000003b0: 8f3f 3fbd 246a 92be 1fdd 03bd e75c 223e
000003c0: 63b1 c03e d291 1a3e 5a35 bb3e 15ea 90be
000003d0: 2ee7 d2bd e2f5 bf3d f022 58be 552c 9fbe
000003e0: b695 d23c 700c 633e d2f5 553e 60ff e5bd
000003f0: 9377 8fbe 2518 573e 79f8 eebd afe6 c43e

gconv.1.lins.1.weight f4 [16, 16]
0.23517035 -0.24092445 0.24244666 -0.098314494 0.06965008 -0.28989366 -0.120515175 -0.044639017
-0.3209226 0.2396835 0.4014488 0.29708764 -0.3622241 0.22276963 -0.164313 -0.28619578
-0.20071058 0.27720726 -0.3923411 0.3880086 -0.2531046 0.27330568 -0.17589514 0.032871168
0.16420603 0.32665768 -0.349211 0.2533668 -0.38444805 -0.33055383 -0.27025357 0.30206442
-0.37101153 -0.06596192 0.0087456275 0.4120516 0.38330483 0.29994652 0.14240474 -0.21649891
-0.11597377 0.105919264 -0.08756908 -0.21000047 0.2836424 0.1628634 -0.4267065 0.25712928
0.36738753 0.27117315 0.04635513 0.27810267 0.14697064 -0.034704354 -0.38334036 0.31590396
0.20012313 0.35840023 -0.23523863 -0.24137436 0.032326497 -0.18541901 0.3104494 0.16117324
-0.25822753 0.14436758 -0.10211969 -0.012959262 0.29324007 -0.07136672 0.006899066 -0.20439969
0.033920515 -0.20788857 0.29908133 0.0078003746 0.34919903 0.2946422 -0.19694063 -0.15750457
-0.05407056 -0.10542789 0.030652475 0.34278497 0.25669155 0.25023943 0.26944697 -0.15325499
-0.16727647 0.17396861 0.26678705 0.14371452 -0.40904635 0.21214771 -0.20646581 0.029896066
-0.103935264 -0.2200903 -0.2893407 -0.27878535 0.41811344 -0.20786695 0.05279443 0.27398282
-0.17752549 -0.34290457 0.24239781 0.026157904 0.27043462 0.03951583 0.14579995 -0.28652462
0.2358272 0.061176676 -0.19590041 -0.25515273 -0.17754687 0.29082477 -0.39143157 0.020972675
-0.059720993 -0.11547261 0.37902674 0.4387067 -0.30108362 -0.14712667 0.10590808 0.25074685
0.088427104 0.30608585 -0.101719305 0.010195173 -0.42726567 0.37022862 0.28204748 0.35234863
0.23412557 -0.0314199 -0.053399347 -0.03680381 -0.14404456 0.0016285816 -0.35417107 -0.033098705
-0.16371211 0.42552462 -0.1566628 -0.0905847 0.33454683 0.27973223 -0.32073757 -0.24700534
0.31833205 0.016375545 -0.108029 -0.21691458 -0.25257677 -0.16372605 0.22014165 -0.17444994
0.3806314 -0.25171483 0.14505635 -0.3077591 -0.3479011 -0.2669637 -0.0196477 -0.006349245
-0.25702968 -0.22881785 -0.09828651 -0.3567165 -0.186888 0.0037914896 -0.15156023 -0.24859865
-0.3749323 -0.25423914 0.4267764 0.27908537 -0.36100852 0.40839842 -0.3490426 -0.3033621
-0.23438227 -0.14142637 0.05022626 -0.060229924 -0.3044675 -0.3693266 0.30957842 -0.24538188
0.07091756 0.21213053 -0.29318824 -0.22633082 0.14921758 -0.33449522 0.14681381 -0.09618386
0.3378607 0.34157977 0.0010093235 -0.14565313 -0.19767962 0.28078303 -0.34678158 -0.39589238
-0.31284377 0.27194175 -0.1183263 0.29341343 0.029520683 -0.25922748 -0.16484849 0.4070762
0.31637573 0.038248733 -0.2959419 0.14336844 0.090964906 0.091006815 0.15452512 0.11761108
0.36124206 -0.31782025 0.4054013 0.21441509 -0.2242684 0.31368983 -0.10429348 -0.06739972
-0.14114398 -0.054656386 0.41302243 -0.18009108 0.41541463 0.0068047214 -0.34995937 -0.24297442
0.29242676 -0.35285115 -0.0834009 0.06401132 0.3678062 0.07912959 0.20286544 0.42832094
0.26626945 0.24800813 0.060824584 0.22517473 -0.029926443 -0.31221735 -0.1631463 0.26573902
00000000: 7fd0 703e e6b4 76be f043 783e 1c59 c9bd
00000010: b3a4 8e3d f16c 94be a9d0 f6bd 67d7 36bd
00000020: f84f a4be 976f 753e b28a cd3e df1b 983e
00000030: 7075 b9be b91d 643e ab41 28be 4188 92be
00000040: 1387 4dbe 1cee 8d3e efe0 c8be 10a9 c63e
00000050: ed96 81be b9ee 8b3e db1d 34be eba3 063d
00000060: a025 283e ad3f a73e c9cb b2be 4bb9 813e
00000070: 60d6 c4be 5a3e a9be ad5e 8abe 30a8 9a3e
00000080: 39f5 bdbe 0b17 87bd d249 0f3c 6df8 d23e
00000090: 8840 c43e 9792 993e 8cd2 113e e4b1 5dbe
000000a0: a883 edbd 33ec d83d 6b57 b3bd 5d0a 57be
000000b0: 9439 913e aac5 263e 4679 dabe 73a6 833e
000000c0: 381a bc3e 35d7 8a3e e0de 3d3d 7963 8e3e
000000d0: 797f 163e 2726 0ebd 3045 c4be 2abe a13e
000000e0: 14ed 4c3e 3c80 b73e 65e2 70be d72a 77be
000000f0: ca68 043d 7bde 3dbe 39f3 9e3e 990a 253e
00000100: 6636 84be 18d5 133e 2124 d1bd 1653 54bc
00000110: 9023 963e b728 92bd 8f11 e23b 274e 51be
00000120: 3df0 0a3d bee0 54be 3021 993e 499a ff3b
00000130: 37ca b23e 58db 963e ceaa 49be e148 21be
00000140: 1779 5dbd 94ea d7bd e61a fb3c 8381 af3e
00000150: 136d 833e 621f 803e f4f4 893e e0ee 1cbe
00000160: 864a 2bbe d424 323e 5098 883e e629 133e
00000170: 866e d1be 403d 593e c66b 53be 98e8 f43c
00000180: 03dc d4bd 5a5f 61be 7724 94be f4bc 8ebe
00000190: f712 d63e 13db 54be f93e 583d 7a47 8c3e
000001a0: 3ec9 35be 3091 afbe 2237 783e 1a49 d63c
000001b0: 6876 8a3e 5adb 213d 954c 153e 5bb3 92be
000001c0: af7c 713e 6594 7a3d 1e9a 48be 61a3 82be
000001d0: d9ce 35be fce6 943e b869 c8be e3ce ab3c
000001e0: 009e 74bd e77c ecbd cb0f c23e 2a9e e03e
000001f0: a227 9abe 60a8 16be 56e6 d83d e461 803e
00000200: 4519 b53d 49b7 9c3e 3652 d0bd a809 273c
00000210: 91c2 dabe 9b8e bd3e 8768 903e 0a67 b43e
00000220: 9dbe 6f3e 27b2 00bd 46b9 5abd 98bf 16bd
00000230: 6b80 13be 2176 d53a e955 b5be 8292 07bd
00000240: 26a4 27be 5dde d93e 376c 20be 7984 b9bd
00000250: b949 ab3e 1039 8f3e b737 a4be f8ee 7cbe
00000260: 6bfc a23e 0226 863c 4f3e ddbd db1e 5ebe
00000270: be51 81be cda7 27be d06c 613e 01a3 32be
00000280: 1ee2 c23e c4e0 80be a789 143e 9a92 9dbe
00000290: 1820 b2be 77af 88be 37f4 a0bc 540d d0bb
000002a0: 6599 83be 3a4f 6abe 704a c9bd 8ca3 b6be
000002b0: 915f 3fbe a47a 783b 9b32 1bbe a590 7ebe
000002c0: 20f7 bfbe a22b 82be 7082 da3e 47e4 8e3e
000002d0: 1cd6 b8be 9919 d13e b6b5 b2be 4752 9bbe
000002e0: e801 70be 13d2 10be 0dba 4d3d a7b3 76bd
000002f0: 2ae3 9bbe 6018 bdbe 1081 9e3e 6345 7bbe
00000300: 3a3d 913d bf38 593e c51c 96be 44c3 67be
00000310: 7ecc 183e f542 abbe 5c56 163e 0bfc c4bd
00000320: 14fc ac3e 8be3 ae3e 474b 843a 1826 15be
00000330: 876c 4abe cbc2 8f3e 5b8d b1be 68b2 cabe
00000340: 0f2d a0be f33b 8b3e 0f55 f2bd 493a 963e
00000350: 5cd5 f13c 77b9 84be 0bce 28be 4b6c d03e
00000360: 00fc a13e b4aa 1c3d b285 97be 2dcf 123e
00000370: cf4b ba3d c861 ba3d d53b 1e3e 14de f03d
00000380: b8f4 b83e 56b9 a2be c290 cf3e a18f 5b3e
00000390: 9ea6 65be f49b a03e d297 d5bd dd08 8abd
000003a0: 0c88 10be 60df 5fbd ad77 d33e cc69 38be
000003b0: 3ab1 d43e 24fa de3b e02d b3be 49ce 78be
000003c0: f6b8 953e e8a8 b4be 17ce aabd 5e18 833d
000003d0: 1851 bc3e b20e a23d f5bb 4f3e e24c db3e
000003e0: 7854 883e d8f5 7d3e 3323 793d 3494 663e
000003f0: 4d28 f5bc f4da 9fbe d30f 27be f20e 883e

gconv.1.lins.2.weight f4 [16, 16]
-0.0029551103 0.026708113 0.046687122 0.1844252 0.2930773 -0.2655912 0.052028596 -0.19501871
0.13844794 0.22881967 0.19652784 -0.1603062 -0.37706602 0.077183224 -0.4106626 0.048971523
-0.028826652 -0.14636965 0.27679497 0.12782349 0.39902374 -0.28315994 0.41185847 -0.31981665
-0.36009556 -0.33372685 -0.21553804 0.37236863 0.03040135 -0.38673812 0.42600238 -0.29905906
-0.24267814 0.15071006 -0.27391273 0.17647013 0.25425845 0.4230184 0.3213354 0.015293305
-0.3710802 -0.28866184 0.0062273387 -0.41226095 -0.25916493 -0.22148697 0.18566033 0.3619289
0.11409717 -0.15246384 -0.33613712 -0.19769076 0.14859849 -0.093773894 0.047209125 -0.42309916
0.11541912 -0.37441033 -0.19343716 0.1661168 -0.0132202925 0.11103549 -0.17031369 0.14975686
0.40187705 -0.09305341 0.13060851 0.11310429 0.07678077 0.29283816 0.039294276 0.008180737
-0.38088715 0.12260481 -0.19490634 0.18295625 0.23108195 0.36944148 0.24237736 -0.09560591
0.23229595 -0.110559694 0.07868345 -0.16744064 0.26190367 0.19110903 -0.41019064 0.37387052
0.34608364 -0.33956942 -0.06702876 -0.044603672 0.20942877 0.20684981 -0.2722002 0.19423501
-0.2814597 -0.09293872 -0.38745075 0.2931803 -0.19933634 -0.2867153 0.19119854 -0.0047086864
0.24871743 0.073438555 0.017059527 -0.3083755 -0.3254288 -0.35832748 -0.3254976 0.31683546
0.29942554 0.26081273 -0.0880556 0.31290746 -0.26474097 -0.08485365 -0.2769561 0.11670793
-0.2528536 -0.2682842 -0.22848852 0.38871747 -0.29768568 0.26587084 -0.23454084 0.106470324
-0.23354243 0.19438735 0.031109553 -0.28462574 -0.4069366 -0.10103772 -0.32419908 0.1317125
-0.28247818 -0.11569907 0.27846092 -0.34082693 -0.24171607 0.12440297 0.27000785 -0.34827277
0.19512099 -0.16217248 0.04524016 0.26483896 -0.07985152 0.10838725 -0.23088358 -0.34796843
-0.3587185 -0.15952474 0.26444614 0.24906641 -0.14131144 -0.25928423 -0.25739133 -0.33087847
-0.056255773 0.2843979 0.15626712 0.32829836 0.39137384 0.17561395 -0.23624474 -0.09673368
0.006977875 0.02705989 0.0677916 0.20819204 -0.3264506 0.040306143 -0.33462334 -0.20008773
0.38888288 0.19585815 0.34362632 -0.1433178 0.33084938 -0.40096265 -0.38821447 0.07383387
0.08176182 -0.23220499 0.022904444 -0.38910174 0.3821312 -0.25145158 -0.34504786 0.2677538
-0.30104476 0.02786817 0.19795054 -0.2895645 0.13510835 -0.051628876 -0.37980422 0.056519084
-0.08522534 0.016910553 0.10491783 0.075914085 -0.16360028 -0.18302141 -0.022775533 -0.16830353
-0.21133316 0.2623614 0.020628067 -0.3854122 -0.29749167 0.37187666 0.12993449 -0.24644482
0.41174406 -0.106567904 0.35791332 0.20975453 -0.41337338 0.35128614 -0.16084436 0.347544
-0.044484973 0.25507882 0.29114336 -0.19713892 -0.2727021 -0.41136107 -0.13597146 0.43055567
-0.28555885 0.12730567 -0.09645399 0.3131761 -0.2488499 0.16057792 -0.15614377 0.26545665
0.09286246 -0.34762454 0.28055945 -0.004441282 0.3050722 -0.29421386 -0.29692808 0.30895674
0.12285115 0.1060144 0.30231255 0.04333103 0.37518844 -0.3503725 0.013849872 0.25829527
00000000: 86aa 41bb f9ca da3c ff3a 3f3d f6d9 3c3e
00000010: 3a0e 963e 92fb 87be f01b 553d fcb2 47be
00000020: 4cc5 0d3e b44f 6a3e 983e 493e 4f27 24be
00000030: cc0e c1be 3d12 9e3d 5e42 d2be 5d96 483d
00000040: df25 ecbc ede1 15be 12b8 8d3e 29e4 023e
00000050: d74c cc3e 57fa 90be 1ddf d23e 02bf a3be
00000060: 725e b8be 3fde aabe 01b6 5cbe 1aa7 be3e
00000070: 410c f93c 8a02 c6be fc1c da3e 451e 99be
00000080: 9e80 78be bd53 1a3e 4a3e 8cbe 96b4 343e
00000090: 2a2e 823e de95 d83e 1386 a43e c590 7a3c
000000a0: 39fe bdbe 7ccb 93be b40e cc3b de13 d3be
000000b0: 44b1 84be 7bcd 62be be1d 3e3e bf4e b93e
000000c0: c7ab e93d 7b1f 1cbe 2a1a acbe 726f 4abe
000000d0: 342a 183e 870c c0bd 5b5e 413d 74a0 d8be
000000e0: dc60 ec3d b6b2 bfbe 6414 46be 861a 2a3e
000000f0: ed99 58bc 9366 e33d b666 2ebe dd59 193e
00000100: d4c2 cd3e c992 bebd 3dbe 053e 39a3 e73d
00000110: 3d3f 9d3d e2ee 953e 09f3 203d 7f08 063c
00000120: a403 c3be 3b18 fb3d 8795 47be e258 3b3e
00000130: bfa0 6c3e 6f27 bd3e c531 783e 08cd c3bd
00000140: fdde 6d3e 1f6d e2bd ca24 a13d 8f75 2bbe
00000150: 3d18 863e 16b2 433e 8204 d2be f56b bf3e
00000160: e031 b13e 0bdc adbe 6046 89bd 57b2 36bd
00000170: 7f74 563e 70d0 533e d35d 8bbe 8be5 463e
00000180: 7c1b 90be a856 bebd f25f c6be ba1b 963e
00000190: d31e 4cbe 59cc 92be 8dc9 433e 534b 9abb
000001a0: c8af 7e3e f466 963d 6cc0 8b3c 65e3 9dbe
000001b0: 9b9e a6be b376 b7be 9fa7 a6be 4238 a23e
000001c0: 4e4e 993e 3f89 853e 7f56 b4bd 6835 a03e
000001d0: 218c 87be c0c7 adbd 31cd 8dbe 9104 ef3d
000001e0: 0776 81be 8c5c 89be e5f8 69be fa05 c73e
000001f0: 426a 98be 3920 883e 792b 70be 1d0d da3d
00000200: bf25 6fbe 7a0d 473e 76d9 fe3c 77ba 91be
00000210: fe59 d0be ddec cebd 6cfd a5be a4df 063e
00000220: fba0 90be a2f3 ecbd 6e92 8e3e de80 aebe
00000230: 6b84 77be fcc6 fe3d 783e 8a3e cf50 b2be
00000240: cccd 473e 8b10 26be bf4d 393d f998 873e
00000250: 3289 a3bd 22fa dd3d bf6c 6cbe eb28 b2be
00000260: f4a9 b7be 745a 23be 7c65 873e 440b 7f3e
00000270: f2b3 10be e7c0 84be ccc8 83be e768 a9be
00000280: 746c 66bd 9a9c 913e 7d04 203e b916 a83e
00000290: 2762 c83e 25d4 333e 24ea 71be 4f1c c6bd
000002a0: a8a6 e43b b4ac dd3c 53d6 8a3d 4b30 553e
000002b0: 8824 a7be 0e18 253d c053 abbe cce3 4cbe
000002c0: a81b c73e 0a8f 483e caef af3e e7c1 12be
000002d0: 1765 a93e fa4a cdbe 0cc4 c6be 3636 973d
000002e0: be72 a73d 25c7 6dbe 1aa2 bb3c 5838 c7be
000002f0: b3a6 c33e 43be 80be 1daa b0be 0717 893e
00000300: 8a22 9abe ca4b e43c 8cb3 4a3e cc41 94be
00000310: d859 0a3e cd78 53bd b375 c2be 8e80 673d
00000320: a08a aebd 0088 8a3c 29df d63d d878 9b3d
00000330: d586 27be f769 3bbe c193 babc c357 2cbe
00000340: b867 58be 3c54 863e 31fc a83c bf54 c5be
00000350: d450 98be 9e66 be3e 8c0d 053e 085c 7cbe
00000360: 1ed0 d23e 4640 dabd 6a40 b73e e4c9 563e
00000370: ada5 d3be c7db b33e 62b4 24be 4af1 b13e
00000380: e035 36bd b199 823e be10 953e c9de 49be
00000390: 9c9f 8bbe eb9d d2be 1a3c 0bbe cb71 dc3e
000003a0: c534 92be 6b5c 023e ab89 c5bd 9e58 a03e
000003b0: 82d2 7ebe 8a6e 243e 27e4 1fbe efe9 873e
000003c0: ac2e be3d d8fb b1be 7da5 8f3e 2c88 91bb
000003d0: 6c32 9c3e 33a3 96be f506 98be 942f 9e3e
000003e0: 6299 fb3d 141e d93d b6c8 9a3e e17b 313d
000003f0: b318 c03e 0664 b3be 93ea 623c 473f 843e

gconv.2.lins.0.weight f4 [16, 16]
0.15471902 0.42694467 0.3739793 0.12104487 -0.17881535 0.12757936 -0.28192592 -0.3975478
0.26206836 0.38885874 -0.32262504 -0.27551022 -0.17765556 0.27813518 -0.08124501 0.17642541
0.17431882 -0.14139564 0.18147245 -0.3068044 0.23463297 0.341502 -0.14732058 -0.1605284
-0.17602961 0.20053995 -0.025168298 0.0450002 0.09475654 -0.0969772 0.1728825 -0.09198996
-0.06769416 -0.15774246 -0.107285276 -0.2929732 0.04120877 -0.35098684 -0.07322742 -0.31970376
-0.18822362 0.14796193 0.28036368 -0.05979864 0.19419469 0.2857 0.17326812 0.06264603
-0.064502195 -0.15263487 0.41663364 0.19193913 0.11704966 -0.24265648 0.34897524 -0.018323828
0.047588583 -0.053247083 -0.20336437 0.15001807 -0.13334987 -0.13852638 -0.012458794 0.2736809
0.068126924 0.15540652 0.40996814 -0.11161535 -0.2627402 -0.11282116 0.21187791 0.28692836
-0.34824583 0.097637646 0.15554675 0.43489957 -0.048490223 -0.20944564 -0.21413858 -0.049526986
-0.1433111 0.14896606 -0.26447406 -0.40418246 -0.057304885 -0.35143816 0.021947227 0.2609483
0.09943419 -0.19202077 0.0020676607 0.32491276 0.1628626 0.011580557 0.14535736 0.260237
-0.15820567 0.23817869 -0.06290442 -0.16532783 -0.049084585 -0.37330377 0.10804823 -0.096219406
0.3107222 -0.3765055 0.09146291 0.38497436 0.04877377 0.35463575 -0.39370763 0.2370996
0.21820644 -0.3723471 0.34896514 -0.07721633 0.34953657 0.06511526 0.31693682 0.267359
0.38534942 0.25393412 0.3214365 -0.12189945 -0.38118958 -0.046450026 0.3215304 -0.14291804
0.3503097 0.01280162 -0.15084174 0.07008178 0.011961502 0.10411054 -0.38066414 0.0368581
0.30393258 -0.14152291 -0.09800613 -0.07097958 -0.06817902 -0.13060208 -0.1746553 -0.25291204
-0.17709121 -0.004913342 -0.36380023 -0.32749423 0.022408545 -0.40737754 0.21415564 -0.22522296
0.3988965 -0.051722027 0.1809839 -0.078239694 0.17102686 -0.17481782 -0.31169707 0.010652819
-0.4160539 -0.18045107 0.32857567 -0.094883464 0.10906587 0.36078694 0.30987927 -0.3593655
0.2772016 -0.06565225 0.06482946 0.19993623 -0.09620563 0.14932922 0.22951958 0.4175867
-0.014634557 0.036239896 0.24470285 -0.13334098 -0.0551888 0.1620109 0.38489127 0.16229184
-0.1317797 -0.25662524 0.271588 0.14831182 0.051496018 -0.2735314 0.18197507 -0.09848764
0.19635774 0.30057374 0.18788919 0.16864157 -0.090167254 -0.35380408 -0.14571641 -0.18109873
-0.3203902 -0.021648737 0.0040083644 0.28348467 0.046129834 0.22573386 0.1917849 -0.14364885
0.20695893 0.41294196 0.26015425 -0.42225653 0.29933748 -0.1752981 0.35519904 -0.016331162
-0.3083479 -0.0048912875 0.16883732 0.31949472 0.19113292 -0.09133919 -0.33312225 -0.039548133
0.09664867 0.25074494 -0.103371724 -0.18448617 -0.3124723 -0.44957083 0.013314275 -0.38409573
-0.20714931 0.21270166 -0.2017344 -0.35658348 -0.024550201 -0.20594634 0.32480088 0.24870911
-0.39240053 0.36173543 -0.31857574 0.2973871 -0.4417286 0.19419575 0.08923618 -0.11745637
-0.24055104 -0.037693758 -0.07611679 0.36994085 -0.067819364 -0.17635131 -0.2720968 0.383446
00000000: aa6e 1e3e 7e98 da3e 377a bf3e 5fe6 f73d
00000010: 5f1b 37be 2aa4 023e 9858 90be 638b cbbe
00000020: d32d 863e 7e18 c73e 1c2f a5be ad0f 8dbe
00000030: 57eb 35be bc67 8e3e c963 a6bd dda8 343e
00000040: a280 323e 05ca 10be ead3 393e 7715 9dbe
00000050: a043 703e 5ad9 ae3e 35db 16be 8f61 24be
00000060: 1b41 34be 585a 4d3e bf2d cebc 2152 383d
00000070: b80f c23d fb9b c6bd 1c08 313e 3b65 bcbd
00000080: 3ca3 8abd 3d87 21be 62b8 dbbd 9500 96be
00000090: 87ca 283d 8cb4 b3be 42f8 95bd 36b0 a3be
000000a0: b1bd 40be 5583 173e d48b 8f3e 6bef 74bd
000000b0: f9da 463e 4547 923e 336d 313e 904c 803d
000000c0: ba19 84bd 514c 1cbe 0151 d53e b18b 443e
000000d0: bbb7 ef3d f17a 78be e2ac b23e da1b 96bc
000000e0: 3fec 423d 9d19 5abd c03e 50be 569e 193e
000000f0: de8c 08be dcd9 0dbe f81f 4cbc e71f 8c3e
00000100: 2186 8b3d e322 1f3e 58e7 d13e 9796 e4bd
00000110: e285 86be c80e e7bd 86f6 583e 46e8 923e
00000120: 474d b2be 3ff6 c73d a647 1f3e 28ab de3e
00000130: af9d 46bd eb78 56be 2547 5bbe cfdc 4abd
00000140: 25c0 12be 8f8a 183e 2569 87be 01f1 cebe
00000150: 87b8 6abd b4ef b3be acca b33c 049b 853e
00000160: 27a4 cb3d 18a1 44be 9781 073b f75a a63e
00000170: 74c5 263e 60bc 3d3c 8fd8 143e c93d 853e
00000180: ab00 22be 1de5 733e 08d4 80bd b34b 29be
00000190: eb0c 49bd ac21 bfbe 6448 dd3d ae0e c5bd
000001a0: fb16 9f3e 54c5 c0be e850 bb3d 5c1b c53e
000001b0: 01c7 473d d192 b53e 0c94 c9be 3dca 723e
000001c0: 8271 5f3e 47a4 bebe 8fab b23e 9823 9ebd
000001d0: 75f6 b23e 265b 853d 8b45 a23e 47e3 883e
000001e0: 854c c53e a703 823e 5393 a43e 6ba6 f9bd
000001f0: 482b c3be 6242 3ebd a29f a43e 1b59 12be
00000200: cb5b b33e e3bd 513c 4276 1abe 0987 8f3d
00000210: 2dfa 433c e837 d53d 69e6 c2be 85f8 163d
00000220: 0d9d 9b3e 62eb 10be 70b7 c8bd be5d 91bd
00000230: 71a1 8bbd 8dbc 05be d7d8 32be b07d 81be
00000240: 6657 35be 1a00 a1bb 0644 babe 53ad a7be
00000250: 2092 b73c ca93 d0be 9e4b 5b3e d9a0 66be
00000260: 293c cc3e 7ada 53bd d853 393e 223c a0bd
00000270: aa21 2f3e 7103 33be c296 9fbe 2989 2e3c
00000280: 0405 d5be 2ac8 38be 123b a83e 4352 c2bd
00000290: ed5d df3d 11b9 b83e 7fa8 9e3e c1fe b7be
000002a0: 5eed 8d3e b074 86bd 4fc5 843d 15bc 4c3e
000002b0: 7507 c5bd c2e9 183e 2e07 6b3e edcd d53e
000002c0: c8c5 6fbc 4970 143d 6293 7a3e 8a8a 08be
000002d0: a70d 62bd 2fe6 253e 7810 c53e d52f 263e
000002e0: 42f1 06be 6264 83be 950d 8b3e 0edf 173e
000002f0: 7ded 523d 4f0c 8cbe ac57 3a3e e3b3 c9bd
00000300: 0112 493e cde4 993e 0666 403e 60b0 2c3e
00000310: 9ca9 b8bd cf25 b5be af36 15be f271 39be
00000320: 2f0a a4be b158 b1bc 9958 833b e724 913e
00000330: a3f2 3c3d c726 673e 4363 443e af18 13be
00000340: 0bed 533e 216d d33e f032 853e 0232 d8be
00000350: c342 993e 5881 33be a6dc b53e eec8 85bc
00000360: c7df 9dbe 1847 a0bb b1e3 2c3e d094 a33e
00000370: 59b8 433e 0b10 bbbd 008f aabe 39fd 21bd
00000380: bdef c53d a461 803e 8eb4 d3bd f1e9 3cbe
00000390: 5ffc 9fbe 262e e6be 1e24 5a3c 32a8 c4be
000003a0: f31e 54be 77ce 593e 7693 4ebe 1c92 b6be
000003b0: 811d c9bc 99e3 52be 4d4c a63e 9aad 7e3e
000003c0: b9e8 c8be 6335 b93e 5c1c a3be 1f43 983e
000003d0: 402a e2be 40db 463e 75c1 b63d f78c f0bd
000003e0: 0353 76be c564 1abd 1fe3 9bbd e368 bd3e
000003f0: e1e4 8abd 7095 34be 4650 8bbe 0953 c43e

gconv.2.lins.1.weight f4 [16, 16]
0.35469428 0.31391498 0.22868297 0.22927126 0.1307618 0.25499776 -0.11471381 0.12649107
0.26776698 -0.40782014 -0.15008277 0.16522351 -0.18401784 -0.32545137 -0.3392475 -0.030850971
0.12272922 -0.09585309 0.40234178 -0.09676132 -0.27246758 -0.13938522 0.16495493 0.31012008
0.3834468 -0.40911725 0.018112788 -0.015668023 0.13554065 -0.3992666 -0.2603598 -0.34729728
-0.24002188 -0.13474593 0.18407997 0.057101127 0.19266291 -0.042474434 -0.02520818 0.31189194
-0.36205736 -0.029830942 0.06771232 -0.16878857 -0.073150665 -0.42345163 -0.10317386 0.3312517
0.36253244 -0.39558813 -0.4194027 -0.009153831 -0.16711545 -0.23149665 0.15696844 -0.22349675
0.023799513 -0.35253155 -0.40687636 0.050694916 -0.32908034 -0.07635481 0.16561857 0.2038809
0.2263486 -0.13528039 0.020372445 -0.09999803 0.18438354 0.27708206 -0.35151404 -0.29586545
0.17065462 0.12949225 -0.3672388 -0.25504687 0.24305126 -0.2911743 -0.27744997 -0.35055736
0.39728618 0.13939615 -0.26968223 -0.010381401 -0.122219406 -0.26278737 0.25942323 0.40035775
0.020653898 -0.18823826 0.3099957 0.13587083 -0.089131795 -0.29835954 0.0010675555 -0.20348403
-0.24719538 0.09117596 -0.22295082 -0.24031118 0.10663227 -0.39567062 -0.36748347 0.19126306
0.0357957 0.116679825 0.025737038 0.24060194 0.42301068 0.036876388 -0.061726756 -0.36494222
-0.05874387 0.38651663 0.079560645 -0.25027537 0.10513717 -0.35869434 0.36894983 0.41502288
0.26361454 -0.22570121 0.19423634 0.13641451 0.41214883 0.016759047 -0.3415881 -0.16670047
-0.32991356 -0.14938563 0.17371355 -0.030834183 -0.18776849 0.1323412 -0.18614618 0.36009255
-0.3956647 -0.28565452 -0.41069013 0.12396042 0.07118608 -0.09563029 0.24590708 -0.3801515
-0.3747938 -0.20796092 -0.020847656 -0.114726126 -0.3438735 0.20119381 -0.28235358 -0.3177238
0.16048934 -0.24806917 0.08993105 0.10849226 -0.20966725 -0.022128858 -0.23996164 -0.3372622
-0.2725019 0.34355593 -0.29165542 -0.16905792 0.35173488 0.14625652 0.10949193 0.28709102
-0.10397634 0.23235668 0.006224299 -0.42941248 0.3138578 -0.28696138 -0.383352 -0.04817891
0.26797536 0.118191905 0.21443592 0.42281112 0.40856215 0.29495934 0.34552816 0.21990909
0.3690788 0.061348654 0.27921417 0.16618273 0.3433004 -0.20039977 0.18076622 0.2475431
-0.0999298 0.33273166 -0.24456891 0.15425202 -0.4045001 -0.2942418 -0.14421271 0.27882117
-0.22237721 0.32901326 -0.11531682 -0.3652761 0.21597764 -0.042198326 0.2738373 -0.2585254
0.23793443 0.35591695 -0.13872096 0.36498177 -0.13180256 -0.1094345 0.22300597 0.056252494
-0.13297461 -0.3521802 -0.2638024 0.0023441466 -0.13224764 0.3039783 -0.003931341 -0.18775558
-0.21505338 -0.2997561 -0.3403464 -0.24589764 -0.14934267 0.32551247 -0.38717246 0.14663795
0.23835506 -0.23041897 -0.2614489 0.055289395 0.3839317 -0.4007361 -0.06954406 0.28642192
0.095456064 -0.41472495 -0.16930857 0.36099848 0.33714327 -0.3157159 -0.1791468 -0.10427406
-0.11349257 0.057183236 -0.30201477 -0.20575505 -0.02965431 0.36339048 -0.25145996 0.1761658
00000000: 7d9a b53e 77b9 a03e de2b 6a3e 16c6 6a3e
00000010: 6ce6 053e 118f 823e 13ef eabd e086 013e
00000020: c118 893e cdcd d0be 4caf 19be 5a30 293e
00000030: 2c6f 3cbe 90a1 a6be d9b1 adbe 2dbb fcbc
00000040: 7559 fb3d a04e c4bd beff cd3e cd2a c6bd
00000050: df80 8bbe 00bb 0ebe f2e9 283e 0fc8 9e3e
00000060: 2453 c43e d177 d1be 4561 943c 3a5a 80bc
00000070: 2bcb 0a3e ac6c ccbe e14d 85be f3d0 b1be
00000080: 4cc8 75be d6fa 09be 767f 3c3e dfe2 693d
00000090: 6d49 453e acf9 2dbd 6381 cebc 4db0 9f3e
000000a0: 955f b9be 0560 f4bc c2ac 8a3d e9d6 2cbe
000000b0: 04d0 95bd a7ce d8be d14c d3bd d399 a93e
000000c0: da9d b93e 878a cabe f3bb d6be f3f9 15bc
000000d0: 5020 2bbe 750d 6dbe 56bc 203e 55dc 64be
000000e0: 32f7 c23c 047f b4be 1952 d0be 79a5 4f3d
000000f0: 387d a8be e95f 9cbd ea97 293e 28c6 503e
00000100: edc7 673e f186 0abe 1de4 a63c c4cb ccbd
00000110: 0acf 3c3e b3dd 8d3e a6f9 b3be ad7b 97be
00000120: 16c0 2e3e 9e99 043e b906 bcbe 8195 82be
00000130: 6ee2 783e cc14 95be ec0d 8ebe 417c b3be
00000140: 1869 cb3e ddbd 0e3e ca13 8abe c016 2abc
00000150: 2b4e fabd 118c 86be 1fd3 843e b1fb cc3e
00000160: 5d32 a93c 88c1 40be c2b7 9e3e b921 0b3e
00000170: bb8a b6bd 95c2 98be 38ed 8b3a 1e5e 50be
00000180: c920 7dbe 76ba ba3d 384d 64be 2214 76be
00000190: 0562 da3d 5795 cabe cb26 bcbe 77da 433e
000001a0: 839e 123d d5f5 ee3d 7bd6 d23c 5b60 763e
000001b0: db94 d83e b20b 173d 32d5 7cbd b5d9 babe
000001c0: 6a9d 70bd 82e5 c53e b1f0 a23d 1824 80be
000001d0: 2852 d73d c9a6 b7be fee6 bc3e e17d d43e
000001e0: 7cf8 863e 381e 67be e4e5 463e 3fb0 0b3e
000001f0: 2c05 d33e 454a 893c a3e4 aebe 87b3 2abe
00000200: 6eea a8be 8cf8 18be f7e1 313e f897 fcbc
00000210: 6246 40be 7484 073e 1b9d 3ebe 0d5e b83e
00000220: 9094 cabe 4f41 92be fa45 d2be f6de fd3d
00000230: 02ca 913d d0d9 c3bd 11cf 7b3e 38a3 c2be
00000240: f9e4 bfbe b5f3 54be b4c8 aabc 88f5 eabd
00000250: 3010 b0be c005 4e3e a690 90be b2ac a2be
00000260: 5157 243e d805 7ebe c52d b83d 3131 de3d
00000270: 03b3 56be 9447 b5bc 81b8 75be a2ad acbe
00000280: 5e85 8bbe 90e6 af3e dc53 95be 851d 2dbe
00000290: 9816 b43e 45c4 153e 4e3d e03d 98fd 923e
000002a0: 8cf1 d4bd e9ee 6d3e 34f5 cb3b f4db dbbe
000002b0: f8b1 a03e 9aec 92be b746 c4be 4057 45bd
000002c0: 1134 893e 990e f23d 1795 5b3e b37a d83e
000002d0: 0f2f d13e e904 973e 11e9 b03e d92f 613e
000002e0: e5f7 bc3e ba48 7b3d 29f5 8e3e ce2b 2a3e
000002f0: 12c5 af3e 9935 4dbe c81a 393e f07b 7d3e
00000300: ffa7 ccbd ce5b aa3e 4670 7abe 3ef4 1d3e
00000310: a31a cfbe dca6 96be 7fac 13be a6c1 8e3e
00000320: dab6 63be 6d74 a83e 3a2b ecbd 7805 bbbe
00000330: 3e29 5d3e 27d8 2cbd 6734 8c3e 715d 84be
00000340: 15a5 733e bf3a b63e de0c 0ebe e4de ba3e
00000350: 40f7 06be 321f e0bd ad5b 643e 0469 663d
00000360: 7f2a 08be f750 b4be 1c11 87be 41a0 193b
00000370: ed6b 07be 0ba3 9b3e 7bd2 80bb 0043 40be
00000380: f436 5cbe a279 99be e241 aebe 97cc 7bbe
00000390: 49ed 18be 92a9 a63e 783b c6be 4228 163e
000003a0: 5913 743e f3f2 6bbe a1dc 85be 2277 623d
000003b0: b292 c43e 482d cdbe 1e6d 8ebd e5a5 923e
000003c0: 787e c33d d456 d4be 3a5f 2dbe cbd4 b83e
000003d0: 0b9e ac3e 84a5 a1be 4272 37be a38d d5bd
000003e0: cb6e e8bd f838 6a3d aea1 9abe 74b1 52be
000003f0: 98ed f2bc 510e ba3e 5cbf 80be cf64 343e
