pth/fold5.pth (torch, 639596 bytes, 46 tensors)

gconv.0.lins.0.weight f4 [16, 2000]
00000000: f5aa a2bb 856a 28bd a820 aabc 21bd 853c
00000010: b503 a6ba 9ad8 0cbd 690c a2bc b4ee 34bd
00000020: 4603 62bd 650c 92bc cbbf 26bd b9aa 21bd
00000030: 11af 0bbd 94a9 c23c ea3f 9e3c 3b90 06bd
00000040: f5eb db3b 29d5 7b3c cbb3 3ebd 9c95 8b3c
00000050: 9951 10bd 9753 08bd c1cb e73c ea0c 70bd
00000060: 0217 8cbc 56fc 8ebc 0cf9 bcbc 48e8 c33c
00000070: 1c21 8e3c 18db 5f3c bd1d 263d 6763 5ebd
00000080: 59ac 52bd c390 debc 778c 05bd aef4 b73c
00000090: faeb 1d3c 1764 efbc 8776 c3bb a946 99bc
000000a0: 571f 353c 9dfb 383b ed11 2cbd 64ca 7abd
000000b0: 8d19 2139 2460 ac3c 3b76 083d 1a2c 5dbb
000000c0: 8d64 803c 9eb1 2d3c 97e1 dc3c bfae a5bc
000000d0: 8752 f1bc 63c6 0c3d 9df3 b13c 0f9d 503c
000000e0: beeb 21bc c26e 03bd 0390 cf3c 8fc4 2abd
000000f0: 3f82 d93c 912c 0abd f49a f5bb 1e6d 62bd
00000100: 5c95 043d cfd7 92ba 5ff3 423b 9c0f d73c
00000110: 6a5a 5dbd 2930 4cbc d155 18bd 5ea9 de3c
00000120: 7786 0dbd 83fb debc 2644 5abd 50d3 49bc
00000130: 5105 3c3d 6d72 35bd 6de4 9a3c ee32 2cbd
00000140: 2daa 2bbd e9df c03b b728 e13c 31f0 103b
00000150: bf5f e93b 6354 6c3c 6e59 0b3d 5bac 06bd
00000160: 4548 31bd 38d9 fb3c 9e1a 82bd 3ba5 a7bc
00000170: 3ed1 bc3c 1196 32bd d31f 063d 79c8 c93b
00000180: 58b5 d4bc aa33 b9bc aa7d 0d3c 0b1a 59bd
00000190: 115d 42bd dc0a a2bc 6b4a 2ebd c28c 61bd
000001a0: f81b 72ba 3b57 52bd 7bc4 4bbd ddfb dbbb
000001b0: 91e7 45bd 958d 44bc 2bf3 46bd b087 dfbc
000001c0: 2fff 46bc aa62 653c 471b e33c c364 353d
000001d0: c176 e7bc 7eb0 f9bc b0b0 05bd f1a6 053d
000001e0: 60d7 c33c da18 64bd ac29 103d 451e 67bd
000001f0: 7b63 b03a 2c08 25bb 0c46 45b9 a7f1 8b3c
00000200: 497a c7bc e811 68bb 7896 a2bc 57a7 4a3b
00000210: 692c 1dbd f1af 903c 06e0 0a3c 0966 81bc
00000220: 14b4 15bd df98 d83c 1ed2 babb b620 a83c
00000230: a1d7 2dbd 5cdd 6ebd 63dd f83c 6f7f b03c
00000240: a1c1 57bd e2af 0dbd 77ce 37bd 9d17 64bc
00000250: 3d4e a13c 2ee6 1cbd ed99 0ebd 5cc7 64bc
00000260: 021f e5bc d54a 5f3c d7f4 b9bc 14fd 2bbc
00000270: 582a 15bd c5d2 333d fcc5 883b 237e 6dbd
00000280: 8f22 c9ba df2c 61bd f9c3 46bd b83a 3d3d
00000290: cb2c 6bbc fcae 073d 81e3 2ebd 9ba9 2cbd
000002a0: ee02 cd3c b11e 66bd 462b d0bb d44b 22bd
000002b0: ae0f 193c bea7 d6ba df7a ebba 22e1 9b3c
000002c0: 4b2b 4d3d 0ab8 5abd 93f8 63bd f50a fa3c
000002d0: 2538 dc3c 5402 9c3a 2166 513a 4b2c 56bd
000002e0: deff a33c 5bd7 fdbc 1627 fa3c 4615 ff3c
000002f0: 6084 6cbd 8980 6cbd 9404 31bc 1485 18bc
00000300: 4c6e f6bb d51e 8cbc 4b65 cb3c 0c84 2a3c
00000310: ec37 183c ad1b 113c aa36 e3bc 66e1 993c
00000320: ba7f 62bc 31d3 73bd cc1f 36bd 8278 13bd
00000330: f81f fa3b 38f3 973b 90f8 3c3d 3e2e d63c
00000340: 14c1 8abb 1520 0bbd 4183 843c f5b8 e6bb
00000350: 83c0 72bd 1c6b babc 17ad 3fbd a097 913c
00000360: 3dea 5f3c b25a 20bc 6ee5 74bc 8e8e e23c
00000370: 555b d4bc 5767 2cbb 2b5d 0dbc 0176 563c
00000380: 8183 9d3c e4d8 233d f37c e6bc 3e2a 7d3c
00000390: f878 0d3d f4c8 0dbd dee8 0ebd 7d63 1ebd
000003a0: ac6e 22bd 32d0 f53c ee46 003d 3d48 2c3c
000003b0: 5d86 0cbd 6da3 ac3c 3d45 02bc 3b17 96bc
000003c0: aebc f0bc 3524 97bb 498c 2dbd 635c 01bd
000003d0: f193 4b3b 8b89 86bd 34ed 20bd 39dc 1fbc
000003e0: db89 143d a70f 06bd 8f69 f63c 6c5a 5b3b
000003f0: 2935 57bc 560b 053d cd80 a837 97ab bf3c
-0.0049642273 -0.04111721 -0.020767525 0.016325535 -0.00126659 -0.034386255 -0.019781308 -0.044172958
-0.055178903 -0.017828176 -0.04071025 -0.039469454 -0.034102503 0.023762502 0.019317586 -0.032852393
0.006711478 0.015370646 -0.046558183 0.017039113 -0.035234068 -0.033282842 0.0282954 -0.058606066
-0.017100815 -0.017454308 -0.023067974 0.023914471 0.017349772 0.013663076 0.040555704 -0.054294016
-0.051433895 -0.027168637 -0.03260466 0.02245554 0.009638781 -0.029222531 -0.0059650573 -0.018710451
0.011054835 0.0028226145 -0.042009283 -0.06122817 0.00015363675 0.021041937 0.03331588 -0.003374821
0.015672946 0.010601429 0.026963038 -0.020224927 -0.029458297 0.034368884 0.02172261 0.012732758
-0.0098828655 -0.03208805 0.025337225 -0.04169136 0.026551364 -0.033733908 -0.0074952785 -0.055279844
0.032369003 -0.0011203232 0.0029747111 0.02625256 -0.054041304 -0.012462654 -0.037191216 0.02718037
-0.034552064 -0.02721954 -0.053287648 -0.012318447 0.045903508 -0.044298578 0.01890775 -0.042040758
-0.04191034 0.005886067 0.027485235 0.0022115821 0.0071220095 0.014424416 0.034020834 -0.032879215
-0.043281812 0.030743226 -0.06352733 -0.02046453 0.023048993 -0.043600146 0.032745194 0.0061579314
-0.025965378 -0.022607643 0.008635918 -0.053003352 -0.047452036 -0.019780569 -0.04255144 -0.055065878
-0.0009235735 -0.05135272 -0.049747925 -0.006713374 -0.048316542 -0.011996646 -0.048571747 -0.02728638
-0.012145801 0.014000574 0.027722968 0.044285547 -0.028254868 -0.030479666 -0.032639205 0.03262991
0.02390641 -0.055687763 0.03519599 -0.05642535 0.0013457382 -0.0025181873 -0.00018813479 0.017083002
-0.024350302 -0.0035411064 -0.01984714 0.0030922496 -0.03837243 0.01766202 0.008476263 -0.015795724
-0.03654869 0.026440082 -0.0057013175 0.02052341 -0.042441968 -0.058316574 0.030379003 0.02154514
-0.052674893 -0.034591563 -0.044874635 -0.0139216455 0.019690627 -0.038305454 -0.034814764 -0.013963547
-0.027968887 0.013628681 -0.022699757 -0.01049735 -0.036417335 0.043902177 0.004173992 -0.05798162
-0.0015345382 -0.054974433 -0.048526738 0.046198577 -0.014353941 0.033125862 -0.042697433 -0.042153936
0.025025811 -0.056181613 -0.006352815 -0.039623097 0.009342117 -0.0016376895 -0.0017965696 0.01902825
0.050090116 -0.05339817 -0.05565698 0.030522803 0.02688224 0.0011902549 0.00079879357 -0.052288335
0.020019468 -0.030986479 0.030536216 0.031138074 -0.05774343 -0.05773977 -0.010804314 -0.009309072
-0.0075204726 -0.017104546 0.024828574 0.010407459 0.009290677 0.008856696 -0.027736027 0.018784236
-0.013824398 -0.05952758 -0.044463918 -0.036003597 0.0076332055 0.004637148 0.046135485 0.026145097
-0.0042344425 -0.033966143 0.016175868 -0.0070410916 -0.059265625 -0.022756152 -0.04679593 0.017772496
0.013666687 -0.009787248 -0.014947278 0.027655866 -0.025922457 -0.0026306713 -0.00862817 0.013089658
0.019227745 0.040001765 -0.028135752 0.015451966 0.034539193 -0.034615472 -0.03489005 -0.0386691
-0.039656326 0.030006502 0.031317644 0.01051527 -0.034307826 0.021074021 -0.007951078 -0.018321624
-0.029386844 -0.0046124705 -0.042370114 -0.031582247 0.0031063522 -0.06569203 -0.039288715 -0.009757095
0.03626428 -0.03272977 0.030079631 0.0033470644 -0.013135233 0.032481514 2.0087138e-05 0.02339725

gconv.0.lins.1.weight f4 [16, 2000]
00000000: e8dc d8bb d5f0 4bbc 69dc b4bc c6c2 3a3d
00000010: ac7b 3bbc 7c23 113d 3006 13bd 099d 16bd
00000020: 1bff 553d a696 323d 3a2d de3a 9677 893c
00000030: 77b8 673c c481 2e3b 2a44 d83c 17e5 af3b
00000040: 4efa 84bc 0a0a f0bc 4038 493c 0058 f7bc
00000050: ee3d c4bc fa62 19bd 9c74 b13a 9110 09bc
00000060: 5ce2 90bc c906 403d 2dba 1b3d ecfe de3c
00000070: ec1e da3c 7cc3 24bd 9f89 de3c 49ce 06bd
00000080: a94a 793c 5eec 643d 4cca 693d 18a9 26bd
00000090: 7d77 423d b6ff ad3b 1a2b 403d 13a8 ccbb
000000a0: df28 0cbc 3473 c8bc 804a 04bd 37f7 693d
000000b0: 8e69 0f3d c326 1e3d b3de 24bc 4603 4bbc
000000c0: 41cb 66bc 845d e73b 2cb6 cd3c f949 0ebd
000000d0: b581 fb3c cd3c 31bd 669a 973c ba36 f6bc
000000e0: 71db 1fba 8c82 55bc 8a01 9abc 395f 3abd
000000f0: 485d 8d3c a89b 17bc bce2 2e3d c871 1f3d
00000100: 240d 8dbb ebdd dcbc f0a1 80bb 2fe0 6fbc
00000110: 6f33 2bbd 4358 5d3d 48f6 e4bc a8b8 45bc
00000120: 1ba7 123c 0eef d0bc e085 d8ba 0951 603d
00000130: c4e4 51bd 3c3a 4b3d a9f6 173c e3bc 3cbd
00000140: 1ad6 143d bfb4 3d3c f4fb 15bd f8a8 253c
00000150: 36e8 2cbd ff14 753c 76ce 4f3d 2512 303d
00000160: c454 56bc 16a8 133d ddb3 49bd 935f f73c
00000170: 9c2b 423d 3c37 8f3c 356c 10bd 6085 2ebd
00000180: b7e5 aebc 8ba0 3e3d 0fd3 ff3c dae0 1d3d
00000190: d476 273b a8df 4d3c 4763 99bc 13e1 133c
000001a0: df62 3d3b 9b64 0cbd 97f7 2fbd e898 16bc
000001b0: cbb6 443d 11fb d9bc b826 4d3d 5c8d 093d
000001c0: 3f31 4cbd ed02 47bd 2a45 cd3c d52d 17ba
000001d0: 1219 49bb 952c e93c a61b 23bd c360 213d
000001e0: 008b 1dbd 09ab 0fbd 45f7 6f3d ce9b b0bc
000001f0: b05c 80bc 509e 643c 5e71 4fbd 6cb3 ae3c
00000200: 50d6 3bba 921d 753b 5fae 94bc 5676 8e3c
00000210: 87e1 063d 674f bfbc ff07 583d a440 2dbd
00000220: 9f17 1a3d 333f 143c 22cb f3bc d09d 75bc
00000230: c41d 3ebd 8839 5b3d c9ba b73c b220 3cbc
00000240: 9050 063c 8cee 95bc 76b5 3a3d a6c6 1fbd
00000250: d692 a4bc 37ab 83bc 5b95 3fba ee60 5fbc
00000260: ed4f 2c3d 90c0 10bd 7d44 163d 4fb3 1cbd
00000270: 7668 5bbb bd11 74bc 4176 a1ba 9cfb 11bd
00000280: 41d3 b8bb cab2 ccbb f3be 573d 16db e53c
00000290: b046 45bd 8de3 e8bb c53a 2ebc 9621 2b3d
000002a0: 6560 d43c 06c3 05bd 92ff 49bc af73 e63c
000002b0: 3c40 ed3b 8105 793c e3e8 29bc bb24 38bd
000002c0: 4d0a 9ebc 2668 da3b 08aa a33c ab04 ce3c
000002d0: ba71 08bd 0f22 91bc 4be0 80bc 0ab2 fabc
000002e0: b736 66bc ff61 293c e6a9 383c 947c 003d
000002f0: f0ea 693b aba4 f23b 3da7 d23c d8eb 24bd
00000300: 1bc9 05bd 476e b6bc 06cb e23c e531 37bd
00000310: 3524 38bd 0f3c 053c f8a3 bc3c cbe1 a6bc
00000320: a25a f0bb b865 2abd 16d7 ea3c 3ce1 d03c
00000330: 8c28 303d 304c 2cbd 1a15 0a3d 4132 9a3c
00000340: a76e d5bb 11b1 43bc f61e dd3b c204 1fbd
00000350: 3e22 ab3c 6435 043d 284b 273d efc7 e63c
00000360: 682a adbc 9ec1 93bc ec90 c0bc 7688 48bc
00000370: 516c 333d c504 e3bc c096 3a3d b085 303d
00000380: 2841 a6bc 682e a1bc 4519 53bc 5e0b 23bd
00000390: 3a4f 5a3d 20d7 ac3c a64a 1c3d a54f f5bb
000003a0: a742 353d 7d20 03bb 3d17 5a3d 7670 063d
000003b0: cc55 29bb d340 2b3d 10cc 26bd 5915 293d
000003c0: 7e4d 463c 8358 86bc 712d cfbb 0eb4 5d3c
000003d0: 11a9 a83c 1a0c 94bc 78ca 88bc 137b 7e3b
000003e0: 781c 26bd fb63 183d fc87 2e3d 7089 abbc
000003f0: 5ead 0dbd 14ca 96bc b725 f03c 85a3 10bd
-0.006618131 -0.012447556 -0.022077756 0.045595907 -0.01144306 0.03543423 -0.035894573 -0.036770854
0.05224524 0.0436007 0.0016950734 0.016780656 0.014143101 0.002662764 0.02639969 0.005367886
-0.016232636 -0.029301662 0.012281477 -0.030193329 -0.023955312 -0.037447907 0.0013538781 -0.008365766
-0.017686062 0.04688147 0.038019348 0.027221166 0.026626073 -0.04022549 0.027165232 -0.032911573
0.015215554 0.05588948 0.05707769 -0.040688604 0.047477234 0.005310024 0.046916105 -0.006245622
-0.008554666 -0.024468996 -0.03229761 0.057120528 0.035012774 0.038611185 -0.010062861 -0.012390917
-0.014086545 0.0070607085 0.02511128 -0.034738515 0.030701498 -0.043270875 0.01850624 -0.030055393
-0.0006098068 -0.013031613 -0.018799562 -0.045500968 0.017256394 -0.00925342 0.0426967 0.03892687
-0.004304545 -0.026961287 -0.0039255545 -0.014640852 -0.041797098 0.05403925 -0.027949467 -0.012067951
0.008950974 -0.025504615 -0.001651939 0.05476478 -0.05124356 0.049616084 0.009275117 -0.046078574
0.036336996 0.011578738 -0.036617234 0.010111086 -0.04221364 0.014958619 0.050734006 0.042986054
-0.013081733 0.03604897 -0.049243797 0.03019694 0.04740487 0.017482392 -0.035259444 -0.042607665
-0.021349771 0.046539824 0.03122857 0.038544513 0.0025553005 0.012565531 -0.018724097 0.00902583
0.0028898043 -0.034275632 -0.04296073 -0.009191729 0.048025887 -0.026608976 0.050085753 0.033582076
-0.049851652 -0.048586775 0.025057394 -0.00057670224 -0.003068511 0.028463641 -0.03982129 0.03939892
-0.03846264 -0.03507522 0.058585424 -0.021558668 -0.015669197 0.01395376 -0.050645225 0.02132579
-0.0007165419 0.0037401658 -0.018149553 0.017390411 0.032929923 -0.023353292 0.052742 -0.042297974
0.037620183 0.009048271 -0.029759947 -0.014991239 -0.046415105 0.053521663 0.022427933 -0.011482405
0.0081979185 -0.018302225 0.04558321 -0.039007805 -0.020089548 -0.016072853 -0.00073083275 -0.01363395
0.04206841 -0.035339892 0.03668641 -0.03825694 -0.0033479012 -0.014896807 -0.0012318568 -0.035640344
-0.005640418 -0.0062468993 0.052672338 0.02805857 -0.048163116 -0.0071072043 -0.010634129 0.041780077
0.02592487 -0.032656692 -0.012328999 0.028131334 0.0072403233 0.015199066 -0.010370466 -0.044956904
-0.019292021 0.0066652475 0.019978538 0.02514871 -0.033311583 -0.017716436 -0.015731951 -0.030602474
-0.014051131 0.0103383055 0.011270976 0.031368807 0.0035693012 0.007404884 0.025714511 -0.04026398
-0.032662492 -0.022269381 0.0276847 -0.044725318 -0.044956405 0.008131995 0.023027405 -0.020371338
-0.007335023 -0.041600913 0.028667014 0.025498025 0.04300742 -0.042064846 0.03371153 0.018822791
-0.006513435 -0.011944071 0.0067480756 -0.038822897 0.020890351 0.03227748 0.04084316 0.028171508
-0.021138385 -0.01803666 -0.023506604 -0.012239566 0.04380447 -0.027712235 0.045553923 0.043096244
-0.02029474 -0.019675449 -0.012884443 -0.039805762 0.053298213 0.021098673 0.038157128 -0.007486301
0.044253018 -0.0020008378 0.053244818 0.032822095 -0.0025838492 0.041809868 -0.040721953 0.041280124
0.0121034365 -0.016399628 -0.0063225557 0.013531698 0.02058843 -0.018072177 -0.016698107 0.0038830682
-0.040554494 0.037204724 0.042610154 -0.020939559 -0.034589164 -0.018406905 0.029314859 -0.035312194

gconv.0.lins.2.weight f4 [16, 2000]
00000000: 3cff 043d 9829 693b b534 1dbd 5f6d 333d
00000010: 2073 dbbc 7bff 1a3d 9c0e 8d3c 0fbe 9e3c
00000020: 1edb 133c dd04 373d 4c06 dcbc b36a 0ebd
00000030: fa40 d1bc d68f c03b dc1f 03bd b911 543d
00000040: 7d44 6b3b dfd1 113d 6555 2abd 69ef 23bd
00000050: 6efc 353c 146d 533c b82d 553c 27a2 d0bc
00000060: 4bf2 0dbc d32a 183d a5c2 f2bc 66b8 95bc
00000070: 87fb 02bd 2a55 4b3d 4d9e 2b3b 5bfd 9fbb
00000080: b423 d5bc 386d 96bb 8d38 6f3c db84 46bd
00000090: 88f0 033d 2ec1 d3bb e4bc 333c 5688 453c
000000a0: 89ea 2dbc 82a3 18bb 5386 123d 90c5 4a3d
000000b0: 5c67 d8bc f7dc 46bd 2b6e d13c b0a4 0d3c
000000c0: a05f 093d de2c d6bb bf0f 5dbd c689 063d
000000d0: a6c9 2abd 7faf bdbc 85b5 61bd d8e4 df3c
000000e0: fe08 133d 5067 99bb 80d3 19bd 4015 26bc
000000f0: 122e 31bd 5124 783c 41db 9a3c f459 25bd
00000100: 811f 66bd 2e84 943b 561b e9bb 1cbf 2a3d
00000110: 99c5 b43c 61e6 8fbc 3790 bd3c bffd 9bbc
00000120: 05e9 4bbd 8ebc e0bc d369 fdbb 22af e9bc
00000130: f499 4abb 3e93 2abd 786f 1a3d 6dfe bebc
00000140: d266 c7bb 5715 0b3d 69de 12bd 46ec f93c
00000150: 2a33 823c 3341 15bc 926f 8a3c 12d4 053c
00000160: d26d 6dbd 7e3a 2cbc 0802 f53b 9da4 023d
00000170: c764 edbc 270b 45bd 7480 08bd ee6f 59bc
00000180: 5d3f e43c c12f 153d 0c7f 47bd 77a1 243d
00000190: 03a4 413c d992 f73c 8bc0 ccbc ddbd 54bc
000001a0: 0bf0 0fbd 8922 dcba 24d9 193d 9438 9a3c
000001b0: 605e 2e3d 42bb 59bc 82e1 81bd fc6a 373d
000001c0: 19b1 06bd 9c6f da3c 58b5 1ebd c015 0e3c
000001d0: 1e91 37bd 7250 7dbc 3bdb 2a3d 689e 0d3d
000001e0: 0630 b0ba 2205 cd3b febc ce3a 4a7e 09bd
000001f0: 4052 d03c 84f3 e53c 269e febc 4ad9 1a3d
00000200: af4a 56bd c68c 3a3d 09ce 2e3c f145 3b3d
00000210: e077 ee3c 101e 123d 067f 63bd 3b53 1cbc
00000220: e38b e03c 6e4d 6e3c 8c8b b5bb c555 84bc
00000230: cad8 d2bc 4808 f9bc 5da3 2ebd ec2f 72bc
00000240: 7b36 65bc 2678 2b3d b6f0 403b 7793 a6bc
00000250: c00d 70bd 0c8e f2bc 7759 b9bc 7891 e73c
00000260: 4c3e 04bc f7af 2d3d 158d db3c 01a7 863c
00000270: 2a89 243d 34cf 043d ddb6 3f3d 9430 a53c
00000280: f74d 5fbd 80ba 34bd 1851 73bc ea47 0abb
00000290: b583 163c a663 7ebd aedc 33bd 3f3d 3b3d
000002a0: a022 39bd 380a bbbc 7bf1 16bc 4b11 81bc
000002b0: 5ff1 a8bc 5e27 38bd 9dfb 52bd 051a 093d
000002c0: c173 dbbc a7ba c3bc 0d23 3c3c 821f 0f3d
000002d0: 5f5f 06bc e744 643c 4012 ff3c 029a f6bc
000002e0: 6430 89bc cc34 383b 03f5 343d aef1 293b
000002f0: 6a9c 92bc 11d2 8d3b cee5 df3b a94b d53c
00000300: 4c28 803b 5369 863c 2532 363d 6e52 0ebd
00000310: e65f b43c 09e4 48bd 3980 ccbc 40c9 103d
00000320: 3bea 55bd 3a21 a23c fac2 3dbd 2d82 ac3c
00000330: e559 433c a8f7 ad3c ae19 04bd 5952 3fbd
00000340: 2a5a 393c fc20 0e3d fddb cabc 7a19 d9bb
00000350: 2240 08bc 72f6 f6bc cb64 1e3d 7e10 113d
00000360: 110f 5cbc 4b0b 1dbc 1b37 453d 70e6 60bd
00000370: 5364 cebc 96b0 b33a cef9 163d b989 01bd
00000380: 1f7f 3b3d 3b06 db3b 5872 61bd 2b9e 82bb
00000390: 0a39 93bc 950b 12bc adce 88bc fe1e 1a3c
000003a0: 0450 26bd b276 07bd 6629 3f3d 1343 4abd
000003b0: cdea 103d 9d2a 2ebd 19d4 39bc 3225 143d
000003c0: 5385 aa3c 5e86 d43c 2c5a f73b 54e1 35bd
000003d0: f3df 2d3d 7e9f 94bc 48bf 923c 9e7b 64bd
000003e0: 9422 243d 1090 3fbd b6db a03c 3075 763c
000003f0: 55b0 ccbc 23b6 febc 4ce1 b33c 4e0a 53bd
0.032469973 0.003557777 -0.038380343 0.043805476 -0.026788294 0.0378413 0.01721888 0.019377736
0.00902441 0.044682372 -0.026858471 -0.034769725 -0.025543679 0.0058765216 -0.032012805 0.051774714
0.0035898976 0.03560054 -0.041585345 -0.04002324 0.011107547 0.012904424 0.0130113885 -0.025467945
-0.008663724 0.037150215 -0.02963383 -0.018276405 -0.031978156 0.049641766 0.0026186884 -0.0048824972
-0.026018001 -0.0045906566 0.014600885 -0.048466545 0.03221181 -0.006462238 0.010970328 0.012056431
-0.010615 -0.0023290818 0.035772633 0.049504817 -0.026416473 -0.048550572 0.025565227 0.008645222
0.03353846 -0.0065361103 -0.053970095 0.032846235 -0.041696213 -0.023154972 -0.05510475 0.0273308
0.035897247 -0.0046815053 -0.037555218 -0.010136902 -0.043256827 0.015145377 0.018903377 -0.04036899
-0.05618239 0.0045323586 -0.0071138544 0.041686162 0.022066878 -0.017565908 0.023140056 -0.019041894
-0.04978277 -0.02743366 -0.0077335625 -0.028525893 -0.0030914517 -0.041644327 0.03770396 -0.023314679
-0.006085255 0.033955898 -0.035856638 0.030508172 0.015893538 -0.009109783 0.016898904 0.008168237
-0.05796606 -0.0105119925 0.007477049 0.03189527 -0.028978718 -0.04810634 -0.033325627 -0.013271315
0.027862245 0.036422495 -0.048705146 0.040193047 0.011818889 0.03022139 -0.024994155 -0.01298472
-0.035141032 -0.001679496 0.037560597 0.018825807 0.04257047 -0.013289275 -0.0634184 0.044779763
-0.032883737 0.026664548 -0.03874716 0.008672178 -0.04481613 -0.015461074 0.04171298 0.034574896
-0.0013442046 0.0062567154 0.0015772877 -0.033567704 0.025429845 0.028070219 -0.03108127 0.03780488
-0.052317318 0.04554441 0.01066924 0.045721 0.029109895 0.0356732 -0.05554106 -0.009541328
0.027410453 0.014544828 -0.005540317 -0.01615418 -0.025738139 -0.030399457 -0.042636264 -0.014781933
-0.01399004 0.04186263 0.002944035 -0.020333989 -0.058606863 -0.029608749 -0.022625668 0.028267607
-0.008071493 0.04240414 0.026800672 0.016437056 0.040169872 0.032424167 0.04680525 0.020164765
-0.054517712 -0.044123173 -0.014850877 -0.0021099993 0.009186675 -0.06210675 -0.04391163 0.045712706
-0.045199037 -0.022832021 -0.009212847 -0.015755316 -0.020622907 -0.04495942 -0.05150949 0.03347208
-0.026788594 -0.023892714 0.011482966 0.034942158 -0.008201449 0.013932443 0.031136632 -0.030102734
-0.016746707 0.0028107641 0.044178974 0.0025931406 -0.01789685 0.0043280204 0.006832815 0.026037054
0.0039110538 0.016407644 0.044481415 -0.03474658 0.022018384 -0.049045596 -0.024963485 0.035348177
-0.052225333 0.019791234 -0.046328522 0.021058166 0.011923288 0.021236256 -0.032251053 -0.046709392
0.011313001 0.034699425 -0.024763102 -0.0066253515 -0.008316072 -0.030146811 0.038670342 0.03541612
-0.0134313265 -0.009585212 0.048148256 -0.054907262 -0.025194323 0.0013709243 0.036859326 -0.031625483
0.04577553 0.0066840923 -0.055040687 -0.0039861402 -0.017971534 -0.008913894 -0.016700113 0.009406803
-0.040603653 -0.03307218 0.04667034 -0.049380373 0.035380173 -0.042521108 -0.011342072 0.036168285
0.020815527 0.025942978 0.007548591 -0.044404343 0.042449903 -0.018142458 0.017913476 -0.055781953
0.04007204 -0.046768248 0.019636016 0.015042588 -0.024986425 -0.031092709 0.021958016 -0.0515235

gconv.1.lins.0.weight f4 [16, 16]
00000000: d5ba a53e 9f56 b3bd 1720 663e 828f a1be
00000010: 2669 c83e 6111 26bd f4f5 a3be 1228 733e
00000020: 4323 593d f6f0 b33e f042 963e b33d 5fbe
00000030: 2c45 bfbe 3f1e e83d 2af9 003e fc6f 82be
00000040: 8217 8bbe a7c5 0bbe 68e0 ba3e d256 933e
00000050: 9a31 9d3e 3ef8 9d3d 0c85 c6be ad32 d13e
00000060: 1b78 40be 485c 9abe 706e c0bd 584c afbe
00000070: 83de 763e 8b26 10bc 1abd 023d 4a1b 80be
00000080: 9054 d5bd 1054 8a3e 5835 36be bee2 7e3e
00000090: 292d 1bbe 4b53 843e 16ee 903e 7172 13bd
000000a0: 033b d33e ce97 073e 5b07 c03e e118 98be
000000b0: f71d fe3d d544 b03e f12b 963e d768 bdbe
000000c0: ebe3 c3bd 1010 363e 5f07 8cbe 3b48 bb3e
000000d0: c0a3 1ebe 861f 9cbe 6c6a c6bd 0e03 c4be
000000e0: 6afe 943e 580d aabe a40c b4be f4a7 89be
000000f0: f5ca 363e ede8 07be d0ac 453e 37da 443d
00000100: 02cc a43e 2398 04be 3b99 983e 5ae0 643d
00000110: dc4e e43b e07e ec3c efbe e3bd ad10 a1bd
00000120: 4f3f 403e 4e75 cd3e 1503 52be 73f5 d33b
00000130: 1550 aebe ae92 99be 62fb 833e 8d20 67be
00000140: c6cf 063e 7000 d9bc 2a6b db3e faed 2d3e
00000150: 9b25 2ebe 97db 8b3e f22c 9abd 92e3 633d
00000160: 3a75 e13d 966c bebd a951 0ebe 99b5 b53e
00000170: b8d2 733e 81b8 bbbd e4ad dc3d 60ff a5be
00000180: a050 a1be 070a 99be 4940 d5be 22cc d03e
00000190: adc9 82bd a7d9 21be 2fb7 9ebe 936b a7bd
000001a0: 91ae 8b3e 8fd4 17bc f5b2 88bd b70c af3c
000001b0: f41f 82be b645 173d 2117 c73e 56b4 b63e
000001c0: 5ca1 42be 572a 883e 4500 a3be 10e7 86be
000001d0: 5ba5 303d 3991 30be 701e e83e 2016 cdbe
000001e0: 3952 abbe 82eb 683e ecec 9d3e b746 613e
000001f0: e164 913d 0592 a73d 0781 9bbe fea2 e83e
00000200: 655e e23d b0c4 6bbe 4bc1 cebc 6dcf 9b3e
00000210: f018 073e db1f 353c f95a 20bd 2bd2 d53e
00000220: ccf7 853e 9156 7fbd 3f35 c33e 04b0 bfbe
00000230: 3e24 c03e 6b00 cd3e b592 663b da8c 0b3d
00000240: 9676 d2be 31bf 8a3e 3fa7 293d 522e ba3e
00000250: c3f2 eebb 80ca 663e 608c a0bd 1a91 5fbe
00000260: 69be 303e 4ead 9bbe a168 acbe 43f7 3cbe
00000270: 17ae 2bbe 6ed6 bdbe 8b8d 5d3e f91e c7bd
00000280: 57e3 8c3e 50a7 023e 0904 f83c b59c 6dbe
00000290: 7d5e a6be 4fbc 993d 93ba e13d 7fa5 8fbe
000002a0: f363 bcbe 7a8a 00be 9faf 84be f977 8c3e
000002b0: 1295 653c 318a 103e cc33 8ebe 73c5 6ebe
000002c0: e2a1 a7be c7be b9bd 479b 243e 1c23 d4be
000002d0: 17a7 4ebe e8eb 79be 77cb dc3e a7b5 963e
000002e0: 1217 cb3d 593d 5f3d b649 563d 4b0e 893e
000002f0: 9d8e 223e 9767 41bd a247 483e 6485 513e
00000300: a310 29be acb7 c5be e6df 98bd 2cb8 92be
00000310: 28e6 c2bd 1bd1 75be 2968 973e a604 333e
00000320: dd45 ff3d 74e9 4bbe 40e8 803e 66f8 c83e
00000330: 43f0 d6be b6c1 b8bd f5fe 693e 6248 6a3e
00000340: 62cc babe 5b38 2abe 50d0 c53e b48e 293e
00000350: 835a 363e 2ed8 54bd 5474 ec3e 2e58 80be
00000360: 84ba 623e e37e 56be 99fb aa3e eb42 7c3e
00000370: f919 cd3e 7046 84be 4c04 bfbe dd34 753e
00000380: 8a98 c33e a633 ff3d 84e6 cdbe 112e a23e
00000390: 4220 a53e b75a 743e c5d3 333e 27e9 9d3e
000003a0: 94fd 37be b6d4 433e 3a4b a33e 61d2 bfbe
000003b0: 6e08 20be b81b 31bd 59df e9bd 12f4 bfbe
000003c0: 5729 c8be 5c46 fbbc 9cf5 903e a879 31be
000003d0: a836 a3be 1d3d 5e3e daf1 3e3e 1663 c13e
000003e0: 23b0 063e 86db 8e3e 24c4 fabb da57 803e
000003f0: 6934 a83d be17 983e 499c 09be 2ee4 9e3e
0.32369104 -0.08756756 0.22473179 -0.315548 0.39142722 -0.040543918 -0.32023585 0.23745754
0.053012144 0.35144776 0.29347944 -0.2180088 -0.3735746 0.11333894 0.12595049 -0.25476062
-0.27166373 -0.13649617 0.36499333 0.28777176 0.30701905 0.07713364 -0.38773382 0.40858975
-0.18795817 -0.3014853 -0.09396064 -0.34237933 0.24108319 -0.008798252 0.031918623 -0.2502082
-0.1041652 0.2701726 -0.17793787 0.24891183 -0.15153946 0.25844797 0.28306645 -0.03599781
0.4125596 0.13241503 0.37505612 -0.2970648 0.12408059 0.34427515 0.293304 -0.3699405
-0.09564956 0.17779565 -0.27349374 0.36578545 -0.15492153 -0.304928 -0.09688267 -0.3828358
0.29100353 -0.33213305 -0.35165894 -0.2688595 0.1785086 -0.13272448 0.19304204 0.04805967
0.32186896 -0.1294866 0.29804406 0.05587802 0.0069674086 0.028869092 -0.11120402 -0.07864509
0.1877415 0.4012856 -0.20508988 0.006468469 -0.34045473 -0.2999472 0.25777727 -0.22571011
0.13165197 -0.026489466 0.42855197 0.16985312 -0.17006533 0.2731597 -0.07528104 0.05563695
0.11008687 -0.09298055 -0.13898338 0.3549011 0.23810852 -0.09166051 0.107753545 -0.32421398
-0.31506824 -0.29890463 -0.41650608 0.4078074 -0.06386123 -0.15805684 -0.30999133 -0.08174815
0.2728162 -0.0092669865 -0.06674758 0.021368368 -0.25415003 0.036931716 0.38884833 0.3568446
-0.19006866 0.26594803 -0.31836143 -0.26348162 0.043126445 -0.17242898 0.45335722 -0.40055943
-0.33461168 0.22746089 0.3084482 0.21999632 0.07099319 0.08182148 -0.30371878 0.45436853
0.110531606 -0.23024249 -0.025238654 0.3043169 0.13193107 0.011054958 -0.03914926 0.41761908
0.26165617 -0.062338416 0.3812656 -0.37438977 0.3752765 0.4003938 0.003518266 0.034069873
-0.411061 0.27098992 0.041419264 0.36363465 -0.007292123 0.22538185 -0.078392744 -0.21832696
0.17260136 -0.30405658 -0.33673576 -0.18453698 -0.16765629 -0.3707766 0.21636026 -0.097227044
0.27517197 0.12759137 0.030275362 -0.2320431 -0.32493964 0.0750662 0.11021914 -0.2805595
-0.36795005 -0.12552825 -0.25915238 0.27435282 0.014012592 0.14115216 -0.27773893 -0.23317508
-0.32740694 -0.09069591 0.16074859 -0.41433036 -0.20180927 -0.24406397 0.4312398 0.29435465
0.0991651 0.054501865 0.05231639 0.26768717 0.15874715 -0.04721793 0.19558576 0.2046104
-0.16510253 -0.38616693 -0.0746458 -0.28656137 -0.09516555 -0.24005549 0.29571655 0.17482242
0.12464497 -0.19913274 0.25177193 0.39252013 -0.4198018 -0.090213224 0.22851165 0.22879174
-0.36484057 -0.1662306 0.38635492 0.16558343 0.17807965 -0.051963978 0.461825 -0.25067276
0.22141463 -0.20946841 0.3339508 0.24634902 0.40058878 -0.2583499 -0.37307966 0.23945947
0.38202316 0.12461023 -0.40214932 0.3167577 0.32251173 0.2386273 0.17561252 0.30841944
-0.17967826 0.19124112 0.3189333 -0.37465194 -0.15628216 -0.043239325 -0.11419553 -0.37490898
-0.3909404 -0.030673198 0.28312385 -0.17331564 -0.31877637 0.21703 0.18646947 0.3777091
0.13153128 0.27901858 -0.0076527763 0.25067025 0.082131214 0.29705614 -0.13438524 0.31033462

gconv.1.lins.1.weight f4 [16, 16]
00000000: 3f3c ca3e 80ae 6a3e 8b85 b2be 50c0 cdbe
00000010: 948d 8cbe 0693 37be 048f 79be a42e 963e
00000020: 882c 303e 4f6c 6abe f07e 523e e35f 433c
00000030: 21a7 e33d 7ada aa3e 1874 4d3d 4eea 14be
00000040: 28a4 16bd 4b55 2cbe e7d6 a7be 6e16 af3d
00000050: d649 d73e 8a3d 98bd 8d6b bd3e 27ce 8bba
00000060: 07f0 d93d ff74 cabe 2084 353d dfbc b1be
00000070: cd3d b1be 941b 54bc 0390 d23e 82d8 c43e
00000080: 3e95 8d3d 354a 673e 82df 26be 99ea f83d
00000090: 386b 503e d292 803e ca9b edbc bd3f 97be
000000a0: 092b b43e 14c5 c03e a20d 213e fb87 813e
000000b0: 12c3 2bbc 0382 763e c754 9e3e 39f9 07be
000000c0: efb7 aebc e305 7e3e a3c6 c2be 628c d93d
000000d0: 2a14 10be fe9b 743e a2ea 8abe d086 c7be
000000e0: 513b 8fbe c184 6fbe 3460 283e 39fa 2abe
000000f0: cd1e d8be 55ff aa3e 7927 953e 25a9 a5be
00000100: d9c3 6e3e cbc5 6dbd 6d80 1f3e ec0c 59bd
00000110: 3c0f 113e 9505 a9be c0c0 863e 4253 183e
00000120: a59e d0bd 6879 4c3e 21bb 1a3e 8612 8b3d
00000130: bb48 1dbe 1917 b8bd 2242 a4bc 2af5 bb3e
00000140: be47 3d3e ed4a 98be e5aa 8fbd 7438 f53d
00000150: 9f60 c33e 1899 2f3c 1de5 f13d a495 a1be
00000160: 6719 a7be e5f1 4a3e a762 8fbe 3c17 6ebe
00000170: 8d1f cf3e 317d dbbd fac8 69be 71d7 d93d
00000180: 6be1 963e 6451 fe3d c6a0 acbd 9d69 773e
00000190: acce 823c 93ee 85be d2e9 1d3d 10da aeba
000001a0: 27c9 ad3e 4926 503e 7a4a 7d3e 00f3 823e
000001b0: da86 dc3d ad0f 9abd dadb 793c 52f8 9a3d
000001c0: 5d17 233e 9303 c13e a3e3 c0be 1c15 bf3e
000001d0: a643 e83d 997f 963e 9eef 563e b3d3 4e3d
000001e0: 9ddc b5bd d111 843e 2ace f03d d4dd c3bc
000001f0: 079d a93e 2e01 cbbe 52a8 bcbe 587e afbd
00000200: bdc0 403d 22bd 6d3d 46be 7dbe 823c 94bc
00000210: 6572 2bbe f5dc 91be e933 d13e ba12 02bd
00000220: d437 a1be 76bd 97be 143a 69bd 1a3b e3bd
00000230: f30f 0bbe 72fa 96be 5bd3 843e 4caa edbd
00000240: 3275 2fbd a3b2 753e 6236 a2be c613 14be
00000250: eb4e 853e 1ef4 b63e bd3e 99be 045c 9fbe
00000260: 2cf2 673e 9c61 55be 3027 c33e 2277 c5bc
00000270: 286a a03d df6c c6bd 236b bebe 3ee2 d4be
00000280: 6108 20bd f3d5 d2bd 08b6 7ebe 5828 b53e
00000290: bc7c 85be f672 b93e fc1d 303e f41c 863d
000002a0: 3387 11be 5182 6dbe 9ebc abbe 3c59 3fbe
000002b0: 5346 623e 39c7 3e3e e10d 873e 62b8 9ebd
000002c0: 74cd 893e 9fc7 9f3e 8c18 bb3e c910 e53d
000002d0: 0831 4a3e d686 8d3e 24d8 56be 07ca ab3d
000002e0: 7438 5bbe 7b4c d43e f244 ca3c f019 1abe
000002f0: 920c 81bd 4b6f 9bb8 3837 a23e 8dfa 64bb
00000300: b0fa 72bd a591 81be 92ab 913e d5c3 a6bc
00000310: 532e 5a3e 8d37 1abe 4a31 fdbd 5a49 9c3e
00000320: 1d97 013c 11d4 9d3c 1381 6f3d 0635 f43d
00000330: 9463 8a3e 0d15 96be 52b7 7cbd 897f d63e
00000340: 46da 1ebd bd58 a8bd 4434 3abe 9c33 e13e
00000350: 0581 c63e 9800 42be b27b 4bbe aaf8 0a3e
00000360: 9333 6ebe 147e a93e 8266 6e3e 1975 0dbe
00000370: 19d0 d13e d24a bc3c cae0 c03e 6038 29be
00000380: 263d 8cbe 51dc 25be 9e99 693e d133 4dbe
00000390: c03c 853e 0462 483e 3cee 70bd 84ec 1fbe
000003a0: 5143 2c3e 40c9 1fbe 3f57 9fbe a5e2 56bc
000003b0: 74df c83e 737f 4f3e dbd0 663e 96f2 2abd
000003c0: 55f4 1b3e 1208 d13e f49f d4bc 9065 a73e
000003d0: 2e79 c0be 330c e53d f60d 923e 3344 a23e
000003e0: 0c11 1abd 60f3 51bd 7b1a 0dbe d903 833e
000003f0: e240 813e 6bd9 303e aeee 0c3e 24a9 3cbd
0.3949909 0.22918129 -0.3486751 -0.40185785 -0.27451766 -0.17927179 -0.24370962 0.2933246
0.17204487 -0.22892879 0.20556235 0.011924717 0.11115862 0.3336981 0.050159544 -0.14542505
-0.036777645 -0.16829412 -0.32781145 0.085492 0.4204852 -0.07433613 0.36996117 -0.0010666297
0.10641485 -0.39542386 0.044315457 -0.3471441 -0.34617463 -0.012946028 0.41125497 0.38446432
0.06913231 0.22586901 -0.16296199 0.12154121 0.203534 0.25112015 -0.02900495 -0.29540816
0.35189083 0.3765036 0.15727857 0.25299057 -0.01048352 0.24073033 0.30924055 -0.13278665
-0.02132794 0.24806933 -0.38042173 0.10622479 -0.14070192 0.23887631 -0.27132136 -0.3897004
-0.27974942 -0.23390485 0.16442949 -0.16697015 -0.42211 0.33397928 0.29131678 -0.3235561
0.23316897 -0.05804996 0.15576334 -0.05299084 0.14165968 -0.3301207 0.26318932 0.1487551
-0.10186509 0.19968188 0.15110447 0.067906424 -0.15359776 -0.089887805 -0.020051066 0.36710483
0.18484399 -0.29744664 -0.070150174 0.11973658 0.38159654 0.010717653 0.11811278 -0.3155948
-0.32636568 0.19818838 -0.28004953 -0.2325105 0.4045376 -0.10717238 -0.22830573 0.10636795
0.29468855 0.12417868 -0.084291026 0.24161382 0.01596769 -0.2615858 0.038553067 -0.0013340134
0.3394253 0.20327105 0.24735442 0.2557602 0.107679084 -0.07522521 0.015250171 0.075668946
0.15926881 0.3769804 -0.37673673 0.37320793 0.11341028 0.29394224 0.20989844 0.05049486
-0.08879969 0.25794843 0.11758073 -0.023909487 0.33127615 -0.39649338 -0.36847168 -0.0856902
0.04705881 0.0580417 -0.24779615 -0.018095259 -0.16742857 -0.2848889 0.40859917 -0.03175614
-0.31487906 -0.29636735 -0.056940153 -0.11095257 -0.13580303 -0.2948795 0.259425 -0.11604747
-0.042836376 0.23993926 -0.31682116 -0.14460668 0.26036772 0.35733122 -0.29930678 -0.3112489
0.22650975 -0.20838016 0.38115835 -0.024104659 0.07832748 -0.09688734 -0.37191114 -0.4157886
-0.03907049 -0.10294714 -0.24874127 0.35382342 -0.26071727 0.3622052 0.17198938 0.06548491
-0.1421173 -0.23194243 -0.3354234 -0.18686384 0.22097139 0.18630685 0.26377776 -0.07750012
0.2691456 0.31206986 0.36542165 0.11184842 0.19745266 0.27641934 -0.20980889 0.08388143
-0.21408254 0.414646 0.024691079 -0.15048957 -0.06301226 -7.411706e-05 0.31682754 -0.003493938
-0.059321105 -0.2530643 0.2845121 -0.020357052 0.21306734 -0.15060253 -0.12362917 0.30524713
0.007909563 0.01926616 0.058472704 0.11924176 0.27029097 -0.29312935 -0.061698265 0.41894177
-0.03878238 -0.082200505 -0.18184 0.43984687 0.3877031 -0.18945539 -0.19871405 0.1357142
-0.23261862 0.33104002 0.23281291 -0.138142 0.40979078 0.022984896 0.376715 -0.16525412
-0.27390403 -0.16197325 0.22812507 -0.20039298 0.2602291 0.1956864 -0.058820948 -0.15617567
0.16822554 -0.15604115 -0.3112125 -0.01311556 0.3923298 0.20263462 0.2254061 -0.041735254
0.15229924 0.4082647 -0.025955178 0.32694674 -0.37592453 0.111839674 0.28526276 0.31692657
-0.037613913 -0.05125749 -0.13779633 0.25588873 0.25244814 0.17270438 0.13762924 -0.046059743

gconv.1.lins.2.weight f4 [16, 16]
00000000: 428a c0bc d753 85be 9721 cc3e 732b c23d
00000010: 101d c1bd 06d1 a33e a420 523e c765 a7be
00000020: a8d6 e03d b81c db3c 68f7 aa3d 3454 883e
00000030: 5556 86be a660 933e 87de 4c3e a0e0 0cbe
00000040: 7c11 45be 0366 a93e d263 303e 902e 0c3d
00000050: 9c41 7a3e caeb 8f3e ae54 d93b 4fff 53be
00000060: 7032 2b3e ab80 fcbd 44e7 b9be 7e68 8b3e
00000070: ff07 553d 761d cdbe 5662 82be 55f8 6e3e
00000080: 780f a9bd cf02 0f3c cccb 26be 5e83 9e3e
00000090: b5c7 743e f5de 52be f0bc a3be a746 343e
000000a0: 8229 44be 4ad2 2f3e a484 ba3e 0e9c fa3d
000000b0: be92 923e f1f0 493e d12a a83e cf1c 3bbe
000000c0: 91b1 103e ec11 b03e 639d 113e de9d 74be
000000d0: 44e2 5fbe 807d 8ebe 73bc f1bd e648 413e
000000e0: 3935 8b3e 70a4 d7be 7d45 d7be d927 cd3d
000000f0: b70d 3a3d 7c1b 7abe 304d 80be a8e6 8c3e
00000100: 1edc cb3e 38cf cfbd c28d 7bbe 4390 76be
00000110: 70c3 bbbd 349a 093e 3b1a 26be 004b 833e
00000120: 9095 ffbd 4f50 cf3e 8565 273e dc3c 12be
00000130: 44c6 bbbe 618e b9be a60d 59bd ad76 6a3d
00000140: 41e1 ab3e 5acb e43c e8e9 8e3d 47d9 1dbd
00000150: 111c bdbe 3e1a 3d3e 4255 f7bc a1c2 95be
00000160: 9199 e6bc c95b 7e3d ee3b b63e c859 86be
00000170: 209d 443e 6757 3abe 8fe9 17be 6e88 bdbe
00000180: a9de 693e 0b5b d1bc 9c1f 27be 7a6c 8bbd
00000190: f7cf 3f3e 46d1 11be f839 ea3d e9cd 413e
000001a0: bbce 1e3d 0985 b53d b7fb 933e b623 cb3e
000001b0: b10c 143d 9f6e 82bd 47a2 71bd 6694 a2be
000001c0: 1b5e 773e f000 1f3e d0c1 a83e b2b3 a33e
000001d0: bb39 b8bd 6dd3 be3e 4c5b 80bd 349e da3b
000001e0: 0e9f 56be d7b7 aa3e 13ca f03b a31b 07be
000001f0: 798a e53d d443 cbbe 5bb5 eabd 0390 c73e
00000200: 7017 d93e bd22 c0be c893 b3be 800e d9be
00000210: bf1c 8e3e 0163 0e3d 17c6 acbd 674c 0f3c
00000220: f4d2 c93e 1548 a53e 9f93 1b3e 8eb4 52be
00000230: 2ffd 10be b02b 993e 39a2 bcbe 774e 3c3e
00000240: 0122 7d3e b87f 083e 08cf 93be 289d c5be
00000250: e972 dc3d b0ca 5cbe 2781 003e fc1c a83e
00000260: ecd7 a3be b87f ce3e b53e 9bbe 27ec 5abe
00000270: a8cd aebe bb84 5d3e 6981 483e 308a 993e
00000280: 28d4 94bd a6ec 803e 71f5 a9be 966e aebe
00000290: 9569 5e3e d29a e2bd 72fb bcbc 7c00 863e
000002a0: 8849 d8be 24e4 71be db9e 5c3e caf4 a4be
000002b0: 6409 9bbc 5d32 a83e 87ba 133e 0aca 0dbd
000002c0: 208c a6be f640 4b3e 0de9 c93e 7307 00be
000002d0: 94bd e53c 0334 9f3e b223 a1be 99f0 ddbe
000002e0: 4836 97bd 9032 9cbe 1b7d bebe a170 3fbe
000002f0: 04a0 123e 9ed5 b4bd 79a1 64bd a1c7 dbbe
00000300: 4a8c 9fbe d015 86bd b73d 113d 7efa 7abe
00000310: a387 8cbd a198 96be d6de c93e 835f 80be
00000320: 10cd 50be 3268 863e c81a 513b d1c6 c3be
00000330: 46eb a9be e695 e7bd ab1d 04be 86fe 783d
00000340: 9fac ee3c 211f 57bd a14d 3c3e 8abb 633d
00000350: bef7 dfbd 1fef f1bd 5edf efbd 64b9 3dbe
00000360: 53fd bebe 4586 9dbe f38d ad3d 35ef e0bd
00000370: ab84 903e 70c6 a6be 0e64 173e 8581 15be
00000380: d0ef c4be 8a18 d33e 7721 cd3e f424 b13e
00000390: 700a 8dbe 4998 a33e 1de1 c8be 7afd 2bbe
000003a0: d5f8 8dbe 291d b9be 1318 2cbd 6777 acbe
000003b0: 1c2c 35be 5df1 c9bc a948 eabd 7b7c b3be
000003c0: 4ecf 3fbc 5b75 c93e f2fa 7f3e 0e2d c4be
000003d0: ce19 633e 4961 ce3d cd85 89bd 128c 143e
000003e0: 8d9c fbbd a262 163e b36d a73e 66cb 92be
000003f0: 9de3 41bd 7dff 18bc 24dc dfbd 5a20 663d
-0.023503426 -0.26040527 0.39869377 0.094809435 -0.09429371 0.3199541 0.20520264 -0.32694837
0.109784424 0.026747093 0.0834797 0.26626742 -0.2623774 0.28784674 0.20006762 -0.13757563
-0.19244951 0.3308564 0.17225578 0.034224093 0.2443909 0.2810958 0.006632409 -0.20702861
0.16718459 -0.12329229 -0.36309254 0.2722816 0.05200958 -0.4006154 -0.2546565 0.23336919
-0.082549036 0.008728697 -0.1628868 0.309596 0.23904307 -0.20592864 -0.31980085 0.17605077
-0.19156459 0.17170063 0.36429322 0.12236796 0.2862758 0.19720818 0.32845166 -0.18272708
0.14130236 0.34388673 0.14220195 -0.23888347 -0.21863657 -0.27830124 -0.11803522 0.18875465
0.27189043 -0.42117643 -0.42045203 0.10017366 0.045423236 -0.24424547 -0.2505889 0.27519727
0.39816374 -0.10146946 -0.24565795 -0.24078469 -0.09168136 0.1343773 -0.16220944 0.25643158
-0.12479699 0.40490958 0.1634732 -0.14281029 -0.36674702 -0.3624144 -0.05299153 0.057242084
0.33570293 0.027928997 0.06978208 -0.03853729 -0.36935475 0.18467042 -0.030192021 -0.29250053
-0.028149398 0.062099252 0.35592598 -0.26240373 0.19200563 -0.18197404 -0.1483519 -0.3701815
0.22838844 -0.025556108 -0.16320652 -0.068078 0.18731676 -0.14239988 0.11436838 0.18926205
0.038771372 0.08863265 0.2890298 0.39675683 0.036144916 -0.063687555 -0.05899265 -0.31753844
0.24156992 0.15527701 0.32960367 0.31973034 -0.08995386 0.3727068 -0.062674135 0.0066716913
-0.20959112 0.33343384 0.007348308 -0.13194136 0.11208052 -0.39700186 -0.11460372 0.3897706
0.42400694 -0.37526503 -0.35073686 -0.42393875 0.27756307 0.034762386 -0.0843622 0.008746243
0.39418757 0.32281557 0.15193032 -0.20576689 -0.14159082 0.29916143 -0.36842516 0.18389307
0.24720003 0.13329971 -0.2886889 -0.38596463 0.10764105 -0.21561694 0.12549268 0.32834613
-0.32000673 0.40331817 -0.3032128 -0.21379147 -0.34141278 0.21632664 0.19580616 0.2998824
-0.07267028 0.25180548 -0.3319507 -0.34068745 0.21719964 -0.11064686 -0.023069117 0.26172245
-0.422436 -0.23622185 0.21544974 -0.3221801 -0.018925376 0.32850924 0.14426623 -0.034616508
-0.32528782 0.19849 0.39435616 -0.12502842 0.0280445 0.3109437 -0.31472546 -0.43347624
-0.073834 -0.30507326 -0.37204823 -0.18695308 0.14318854 -0.08829807 -0.055818055 -0.42925742
-0.3116172 -0.06547129 0.035459246 -0.24509618 -0.06861808 -0.29413322 0.39427823 -0.2507287
-0.20390725 0.2625137 0.0031906832 -0.38237622 -0.33187312 -0.11307888 -0.12901942 0.060789607
0.029135047 -0.05251992 0.18388988 0.055598773 -0.10935925 -0.11813187 -0.11712526 -0.18527752
-0.37302646 -0.30766502 0.0847434 -0.10983125 0.28226218 -0.3257327 0.14784262 -0.14600189
-0.38464212 0.4122966 0.40064594 0.34598505 -0.27547026 0.31952122 -0.39234248 -0.16795912
-0.27728906 -0.3615506 -0.042015146 -0.33684847 -0.17692608 -0.024651224 -0.1143964 -0.3505591
-0.01170714 0.39347348 0.24998072 -0.38315624 0.22177812 0.100771494 -0.067149736 0.14506558
-0.12285719 0.14686063 0.3270088 -0.28670806 -0.04733621 -0.009338257 -0.1093066 0.056183197

gconv.2.lins.0.weight f4 [16, 16]
00000000: db8e cdbd c152 c73e 7ef6 0bbe 2242 453e
00000010: f741 b53d d8da a33e 032e b4be 9463 1b3e
00000020: cd5c a63e af1c 853d a2ab 27be cc65 173d
00000030: 0e88 a53e 5cc0 ddbb 96bc 063e 8719 7ebe
00000040: c2f7 863e be73 3e3e 19be d8be ad8e bb3e
00000050: d1ac c0be feb8 933e 15f6 8f3e b546 dd3e
00000060: 251b d8be 4719 b23e dc5d 3fbe 116b 31be
00000070: 499b b03e efce e7bc 5cbe 683e c2c8 833e
00000080: c1c3 f13c 75b6 623d ade3 c4be b6d4 5ebe
00000090: 841b 823e 4e4e 50be c90b 9f3e a902 5ebe
000000a0: b497 61bd 34ef f0bd 01a2 96be 00af 9ebd
000000b0: dcab 813e cc56 92be ab4e 8bbd 6c76 b7be
000000c0: 8be7 2b3e e3b9 503e 8693 cfbe 655e a8be
000000d0: e62a cf3e c3aa 12bd ef4a 3b3d 1fba a1be
000000e0: 7acd 9f3e afe6 7ebe 6146 db3a f66c cabe
000000f0: 19ad 933e e392 d43d bbeb d1be d93a 86bd
00000100: eb02 dfbe 0f49 44be 83cf efbd 2bd8 b2be
00000110: 0a2c 60be 9faf 793e 85b3 e73c c858 d03e
00000120: e4c4 a43e 155e 29bc 1221 9fbe cdde 013e
00000130: 9a07 893d 4121 143d 35d9 923e c6e8 e03e
00000140: 189b 1a3d c6a8 d53c b119 5bbe 370d b83e
00000150: a5ce 903e 505f 2f3e 5d45 abbe 4e10 b6be
00000160: 1e55 9b3e f062 a7bd c52c c13e 95aa b6be
00000170: 60c4 d2be d049 64bd 7247 743e 41b7 083e
00000180: e055 65bc 3805 b93e 18f4 1dbe d938 203c
00000190: fc90 e5be ba0b 4d3c 07d1 c4be 6b90 a73e
000001a0: 5656 a83e ca74 403d e98c 2e3e 2211 853e
000001b0: c45e 3e3e b6a8 82be d666 fa3b ce93 a0bd
000001c0: 0aaa aabe 5020 d8be 3f4c 193e ed2d c03e
000001d0: 421d 213e 28ee d93e 6a3b f43e a3d6 573e
000001e0: a1e7 24bc 565b 99be d604 923c fd64 af3e
000001f0: 69dc aa3e afda 16bd 97ef 973e 536c e13d
00000200: 3f3d 453e 3276 c2bd a5ca fbbd 3db3 cf3e
00000210: 8200 36bd e6b5 93be b975 dcbd ca2b a3be
00000220: 31af 2fbe 30e9 0c3b f8db 35be a791 a33e
00000230: 8154 d2be b931 8b3e 37a2 8fbd 98e2 943e
00000240: d4e9 c23e e1a2 b83e 3041 cbbe ac0b a7be
00000250: 2415 4bbe 2704 973e 5e8b 0b3e 6384 7f3e
00000260: 46cc 34bd c28a 213e 6792 f2bd d0fb bc3e
00000270: 3b37 c23e 57f5 e7bd f6f8 0b3e 3181 d1be
00000280: 385c 923e 19a7 84bc be23 83be 95ed b4be
00000290: b2a8 c2be 520d 853e 7c8c c83e f52f 873e
000002a0: 4024 9b3c 0f02 d8bc 0be4 923e b981 33bd
000002b0: c112 60be 59af 993e 208c 223c a5d8 873e
000002c0: 52ce f63d c5d0 f7bd 5cbe df3d 5b88 c43e
000002d0: d35c 193e 12ec ab3e 2fae ae3d 2af9 76bd
000002e0: 37e8 4cbe 23a5 293e b4f8 ba3e 8cde c63d
000002f0: 5c9b c4be c498 c2be 762d 3abe a7e7 92be
00000300: 58df a1bd 00b3 7a3c 3284 a6be b07e 0c3e
00000310: 1f77 0f3e 2af8 bcbe 8543 adbe 9cc7 b93e
00000320: 6716 2cbe c800 b63e d90f 583e 831b a5be
00000330: 2aec c3be de40 03be 7b11 513e 6776 66be
00000340: 3b6c cc3d 21cb 493e 8137 d23e 81b7 1e3e
00000350: 600d a8be 83e6 bd3e 1f59 87be 9bcb c5be
00000360: b78e 763e d5c8 febd 9323 b53e e734 12be
00000370: 9044 303e 0649 8d3e c2c5 813e c71c d93e
00000380: 2e07 713e 1991 d7be cc35 ab3d 76a0 3a3e
00000390: 6844 9f3c f07c c23e 3505 9d3e 5ea0 29be
000003a0: 2242 423e 3a69 6c3e b0c6 9cbc 2fa3 a23d
000003b0: ddab 11be cf70 a7be 4197 b93e 2324 823e
000003c0: 07ae ac3e 6d2e 9c3e b3d3 913e 44ad 58be
000003d0: 62a0 a7be c8a1 593e 1487 24bc 92a7 1c3e
000003e0: 3f6c 8a3e 5c82 043d af82 a03e f773 28bd
000003f0: be80 d3be ac16 b6be 8137 7cbe c203 99bd
-0.10037013 0.38930324 -0.13668248 0.19263509 0.088504724 0.32002902 -0.35191354 0.15174705
0.32492676 0.064996116 -0.16374066 0.036962315 0.32330364 -0.006767316 0.13157877 -0.24814425
0.263609 0.1859884 -0.42332533 0.3663229 -0.37631848 0.28852075 0.28117433 0.43218008
-0.4220821 0.3478491 -0.18688148 -0.17325999 0.34493473 -0.028296916 0.22728866 0.25739104
0.029512288 0.055349786 -0.38454953 -0.2176083 0.25411618 -0.20342371 0.3106368 -0.21680702
-0.055076316 -0.117643744 -0.29420474 -0.07748222 0.2532643 -0.28581846 -0.06802114 -0.35832536
0.16787545 0.2038341 -0.4054224 -0.32884517 0.40462416 -0.035807382 0.04572576 -0.31587312
0.31211454 -0.24892686 0.0016729349 -0.39536256 0.28843 0.10379579 -0.4100016 -0.06554193
-0.43556914 -0.19168495 -0.117095016 -0.34930548 -0.218918 0.243834 0.028283844 0.40692735
0.32181466 -0.010337372 -0.31079918 0.12682648 0.06690903 0.036164526 0.2868134 0.43927592
0.037745565 0.026081454 -0.21396519 0.35947582 0.28282657 0.17126203 -0.33451357 -0.35559314
0.30338377 -0.08173168 0.3772947 -0.3567702 -0.41165447 -0.055734456 0.23855379 0.13351156
-0.013997525 0.36136794 -0.15425146 0.009779179 -0.44837177 0.012515003 -0.38440725 0.3272737
0.3287837 0.04698638 0.1704594 0.25989634 0.18590838 -0.2551934 0.0076416535 -0.078406915
-0.33332855 -0.42212152 0.14970492 0.3753504 0.15733817 0.4256451 0.4770158 0.21077971
-0.01006499 -0.29952496 0.017824572 0.34256735 0.33371285 -0.036829647 0.2967498 0.11006989
0.19261645 -0.094952 -0.12294511 0.40566435 -0.044434078 -0.28849715 -0.10764641 -0.31869346
-0.17156674 0.0021501295 -0.17759693 0.3194706 -0.41080096 0.27186373 -0.07013362 0.29079127
0.38069022 0.36061767 -0.39698172 -0.32626092 -0.19832283 0.29495355 0.13627383 0.24952845
-0.044140123 0.15775588 -0.1184433 0.36910868 0.37932763 -0.11326092 0.1366919 -0.40918878
0.28585982 -0.01619296 -0.25613207 -0.3533751 -0.3801933 0.25986725 0.3916968 0.26403776
0.018938184 -0.02636817 0.28689608 -0.043824885 -0.21882154 0.30016592 0.009921104 0.26532474
0.12051071 -0.121003665 0.1092498 0.3838528 0.14976816 0.33578545 0.08529317 -0.060296215
-0.20010458 0.16566901 0.3651787 0.09710416 -0.3839978 -0.38007176 -0.18181404 -0.28692362
-0.079039276 0.015301466 -0.32522732 0.13720202 0.14010285 -0.36908084 -0.33840576 0.36285102
-0.16805421 0.3554747 0.21099795 -0.32247552 -0.38266116 -0.12817714 0.20416825 -0.22506104
0.09981581 0.19706394 0.4105797 0.15499689 -0.32822704 0.3708993 -0.26435181 -0.386319
0.24077879 -0.124406494 0.35378703 -0.14277993 0.17213655 0.27594775 0.2534619 0.42404768
0.23537895 -0.42102888 0.0835987 0.18225273 0.019441798 0.37985945 0.30668035 -0.16565081
0.1897054 0.23087016 -0.01913771 0.07941281 -0.14225717 -0.32703254 0.3624821 0.25418195
0.33726522 0.3050417 0.28481826 -0.21159846 -0.3273955 0.21253121 -0.010041971 0.15298298
0.2703571 0.032350883 0.31349704 -0.041126218 -0.4130916 -0.35564172 -0.24630548 -0.0747142

gconv.2.lins.1.weight f4 [16, 16]
00000000: d16a 443e f668 06be b519 f6bd 6fa0 8a3e
00000010: ac4d debd d38b 813e 5abb 803e 1fac 73bc
00000020: 3bdc 25bd 6af6 913e a62c ca3e d666 b4be
00000030: 760b 863e 745a 48be 366d 803d f0b4 93be
00000040: 9a4b bfbd ce5f aabe f392 b0be 8ee5 95be
00000050: 588a 033e bf45 c1be e539 8f3e 0f83 c5bd
00000060: 23e5 32be 6028 2d3d 01a2 a13d 68c0 2b3e
00000070: 5130 aa3e f7e2 ccbc 6353 8cbd 3a1b c63e
00000080: 40e8 77bd 2318 fa3c cdc0 893c 65b3 60be
00000090: 74ac 27be ca54 9b3e 1099 9ebe 9206 c33e
000000a0: 27b2 cebe adf5 0abe 0f37 da3d e4ce 5fbe
000000b0: 5be4 3fbe 3add d53d 2c0b a83e 2f28 043e
000000c0: a70b 523e c7b2 7c3e 9c32 c03e ea1a 8d3e
000000d0: fae0 9ebd afcc b73e dc65 62be f2a1 033e
000000e0: 6f38 39bd d5c8 b53d 4434 d93d 6b1a 813d
000000f0: 3c5e c0bd e872 ac3e 55dd cd3e 9c92 aa3a
00000100: b132 81be 307f ac3e d9a6 473e 3fc6 08bd
00000110: 2d75 04be e2a8 323e 26c5 ad3e 597b 68be
00000120: 0f26 28bd 3b23 7ebd a00a d0be ce6a 8fbe
00000130: 6394 bf3d b391 d1bd b6e8 8bbe 84a6 d5be
00000140: 6a98 98be 6517 44be 25a0 883e 7ac8 c4bd
00000150: d93f c7bc 5784 9d3e 56d2 87be 178e 193b
00000160: add2 b7be 15c2 cebe 6fc2 67bd 20f6 afbe
00000170: 4f4d 2fbd 617e babe 0ccd 923e 2b3b 9a3e
00000180: d4b8 723e fa5e 7a3e a69e c6be 474e 25be
00000190: a9f3 d8bc 0e96 9cbe f3c8 8b3e bf09 c53e
000001a0: e66f 973e 5572 adbe 114b c23e a701 d63e
000001b0: a3b8 a03e bc5b 56bc ed23 1a3d 6828 aabd
000001c0: a33d c93d 2e73 b63e ca59 91be 0695 44bc
000001d0: da16 cc3e 3bee ccbe 313c 0bbe c543 43be
000001e0: fad7 5dbe 258b aa3e f04f 60bd c6dd 983e
000001f0: 616b a93e 9834 18be 4363 87be e2a9 2bbc
00000200: d04f 62bd 13e3 193e a3fa b53d dfcd 15be
00000210: c44c 5e3e bb3b 2e3e 0659 833e 7f88 0abe
00000220: b3fe 5d3e 6eda a83e 8855 a7be 53c5 aebe
00000230: 5bc0 313e de77 413e 4d5b 86bd 137c 38be
00000240: 74eb aa3e cbf7 1dbd 41b2 aa3d 6bdf b63e
00000250: 4cf0 d1be 9338 913e 7cb6 c4be 7a9d 08be
00000260: b7cc 673e 3c24 50be 5f1e b63d 44cc ea3d
00000270: de45 47bd d76c d63c ac12 2a3e 3870 9cbe
00000280: 1fdc 563e 85da 9abe e3d4 ab3e e427 8dbe
00000290: c9b8 893e 78d3 77be 4315 50be a0f6 f33d
000002a0: 9f72 a5be 23fd 2b3e 5330 4bbd 44f2 adbe
000002b0: 97a9 ecbd f9e4 81be c1d1 49be 1430 3b3e
000002c0: d483 8fbe c64e 3cbe b7f3 16be eb92 f6bc
000002d0: d8cb 803c ea9b 7b3d 01d5 723e 81df 7bbe
000002e0: bb1c d63e e35e 97bd 3ff8 1a3e cfca 073e
000002f0: cc4d d8be acab dabe 6f20 43be 561f 3c3d
00000300: 7c3f 14be 16ed 1cbe d28c d23e 26c7 263d
00000310: 00a3 a6be 8453 0c3e 3a2e bc3b cefb b8be
00000320: 128c a23d a887 a43e 7612 e03d 3cb1 bd3e
00000330: dc70 9b3e 443b 063e 8184 af3e 7163 803e
00000340: 6939 70be 40a7 bebe 8c48 7cbe b7d8 d1bd
00000350: 4490 a4be ee1f 0fbd 62da 0abe 9bcd 42bd
00000360: ca8c c9be 3763 843e 0586 673e fb7c 5dbd
00000370: 049a 35be 5391 9fbe 2010 60be dc90 b1be
00000380: 6d11 533e 50f6 073e a665 33bd 6268 7f3e
00000390: 9005 92be b4c0 703e 9a04 cc3e a237 1b3e
000003a0: c383 33bd 5174 b93d 9294 78be 5296 a8be
000003b0: a7e7 833e 8d6b 9dbe 5602 9a3e a681 6a3d
000003c0: 5cda ac3e 64a0 593e 288a af3c 6af3 803d
000003d0: 7dfd 51bb 2cdc 8fbd c094 e03e 1734 4fbe
000003e0: 1bf8 d33e 57cb 343d 5fac bdbe 6169 c4be
000003f0: 037c 8cbe ee74 b43e c24a 6dbd 3a27 3d3e
0.19181372 -0.13125977 -0.12016622 0.27075526 -0.108546585 0.2530199 0.25142938 -0.01487258
-0.04049323 0.28508312 0.3948719 -0.35234708 0.2618062 -0.19565755 0.0627083 -0.28848982
-0.09340592 -0.33276218 -0.34487113 -0.292767 0.12845743 -0.37748525 0.27973858 -0.09644138
-0.17470221 0.042274833 0.07892228 0.16772616 0.33239987 -0.025010569 -0.06851842 0.38692647
-0.060524225 0.030529087 0.016815567 -0.21943434 -0.1637438 0.30338126 -0.30976152 0.3809095
-0.40370294 -0.1357028 0.10655033 -0.21856266 -0.18739454 0.10442586 0.32821023 0.12905954
0.20512258 0.24677573 0.37538612 0.27559596 -0.077577546 0.3589835 -0.22109169 0.12854746
-0.045219835 0.08876196 0.10605672 0.06303867 -0.09392974 0.33681417 0.40207925 0.0013013664
-0.25233987 0.33690786 0.19497241 -0.033392187 -0.12935324 0.17447236 0.33939475 -0.22703303
-0.04105192 -0.062045317 -0.40633106 -0.28011173 0.093544744 -0.10232868 -0.27325982 -0.41728604
-0.29803783 -0.1914955 0.2668468 -0.0960855 -0.024322437 0.3076503 -0.2652766 0.002343064
-0.3590292 -0.40382448 -0.05658191 -0.34367466 -0.042798337 -0.36424544 0.28672063 0.30123267
0.23703319 0.24450293 -0.38792914 -0.16143142 -0.026483374 -0.30583233 0.2730175 0.38483998
0.2957756 -0.3387629 0.37947896 0.41798136 0.31390867 -0.013083395 0.037631918 -0.08308488
0.098262094 0.3563475 -0.28388816 -0.011998421 0.39861184 -0.40025505 -0.1359718 -0.19068821
-0.2166442 0.33309284 -0.054763734 0.298567 0.33089736 -0.14863813 -0.26442918 -0.010477515
-0.055251896 0.15028028 0.08885696 -0.14629315 0.21708971 0.17014973 0.25653857 -0.13528632
0.21679191 0.3297915 -0.32682443 -0.3413492 0.17358534 0.18893382 -0.06560383 -0.1801608
0.3338276 -0.038566392 0.083347805 0.3571733 -0.41003644 0.28363475 -0.38420475 -0.13341323
0.22636686 -0.20326322 0.088925116 0.11464742 -0.048650615 0.026174946 0.16608685 -0.30554366
0.20982407 -0.30244842 0.33560857 -0.27569497 0.26898792 -0.24201763 -0.2032061 0.11912274
-0.3231401 0.16795783 -0.049606632 -0.33973897 -0.11555784 -0.25370005 -0.19708921 0.18280059
-0.28030264 -0.18389425 -0.14741407 -0.030099353 0.0157222 0.061427988 0.23714067 -0.24596979
0.41818795 -0.07391145 0.15133761 0.13260959 -0.42246854 -0.427091 -0.19055341 0.04592832
-0.14477342 -0.15324816 0.41123062 0.040717266 -0.32546234 0.13703734 0.0057428153 -0.36129612
0.079368725 0.32134748 0.10941021 0.37049282 0.30359542 0.13108546 0.3428078 0.25075868
-0.234594 -0.37236977 -0.2463705 -0.10246413 -0.32141316 -0.03494256 -0.13559869 -0.047559362
-0.39365226 0.25856945 0.22609718 -0.05407427 -0.17734534 -0.3116556 -0.21881151 -0.3468083
0.20612116 0.13277555 -0.04379811 0.24942163 -0.2851987 0.2351101 0.3984726 0.15157941
-0.04382683 0.09055389 -0.24275425 -0.32927185 0.25762674 -0.30746117 0.30079907 0.05725255
0.33760345 0.2125259 0.021428183 0.062964275 -0.003204196 -0.07024416 0.43863487 -0.20234714
0.41400227 0.044139232 -0.3704557 -0.38361648 -0.27438363 0.3524546 -0.057932623 0.18471995
