pth/fold4.pth (torch, 639596 bytes, 46 tensors)

gconv.0.lins.0.weight f4 [16, 2000]
00000000: 9b7d 04bd 376e 86bc 92fb 83bc 06ad 313a
00000010: a38e 92bc 72c5 7b3d 00c2 b0bc 2114 cc3c
00000020: 89c7 123c 5613 933d 13a3 85bb 0b57 31bc
00000030: 9bdf fbbb 2f8e 2f3d b094 053d fb61 923d
00000040: 4e45 793d 234c ccba 80ec 143c 5fb3 12bd
00000050: ec50 303d b57d 4a3c acb4 7c3d 2d1d 533d
00000060: 9bc9 733b f828 7dbd 43ac 9f3d 2ecb 46bc
00000070: ed67 b93c 3933 333d 9f74 d73c e528 ee3c
00000080: 216d 6d3c 9577 5abc d0ce 423d dd11 733d
00000090: b07f da3b 766e 48bb 8555 0e3d 932d e83c
000000a0: 6959 7dbd c43e 71bc fb2d 56bd d3a9 403c
000000b0: a960 7bbc 6a8a d23c 899e 0a3d da97 2ebd
000000c0: 27ea a53c 3586 a8bb 30ae 26bd 78e9 e8bc
000000d0: df46 cbbc 57ad 18bd 01e2 96bc f78a 8bbc
000000e0: c4f9 373d 10d8 07bc bf99 6fbd 9d9f 193d
000000f0: c5aa 3ebd ea5b 183b 948c 80bd f9de 99bb
00000100: 375e 95bd c242 87bd 2359 c8bc 3e6f 10bd
00000110: f5a9 623a cf6a e83b 41ae dcbc 3695 0c3d
00000120: e40b 8a3c 539c 8b3c ecd4 a73c 252e a03c
00000130: 8e7d cebb 0df1 313b eac0 bcbc 17e6 153d
00000140: eb54 bebc 5c5a 0d3d b83d 13bb 86c6 bfbc
00000150: d36e 223d 8f1b bc3b c0ed 25bc d000 55bd
00000160: 47e2 b53c 1103 36bd 7b42 003d 2e34 cdbc
00000170: dee2 85bc 051d 043d 00fa 633b 6111 37bd
00000180: 94a0 063d 054c 36bd 3d82 0d3c 81d0 2a3d
00000190: b08b 81bc 4293 94bd 24f3 a43c 3f1b 14bd
000001a0: addf 483d 5fed e03c fdf4 e73c 1d4e 25bd
000001b0: ba89 3a3b cd60 abbc 7230 073c bbc4 673d
000001c0: 9551 473b dbec 65bd 2fb8 0cbd ff7a a83c
000001d0: 7b2f b93b 6330 f63b 6ade e3bc ceb5 2dbd
000001e0: 569b 7fbb ae81 ef3c 8679 2ebd 62b1 b1bc
000001f0: 306f 86bc 9a5f d1bb db94 243d fa1b 9b3c
00000200: 96db c4bc 9761 8a3c 1782 3fbb 7d46 543d
00000210: e9bd 2c3d 744b 993d 0f02 fb3c 85a6 ac3c
00000220: c3a8 87bc 3f92 12bd 05a8 9cbb c0ee bebc
00000230: 31eb 6a3d 3e1d 2eba a012 c2bc b066 783c
00000240: f03a b73b 25bc ab3d 437b f93c 7d06 8c3c
00000250: 7fd1 70bc b304 663d a23a 2a3d 0ed8 203c
00000260: 0dba 223d ab34 1c3c 523e f5ba cfce 913c
00000270: 16ee 48bd 69f3 8e3d 2c53 473d 9214 183d
00000280: b6e6 493d 9299 123d 0ed4 363c 4f10 063d
00000290: d932 8bbc 76a3 fabc c987 da3c 9ddd 0b3d
000002a0: 200f 423d 53f8 37bd 8fbb 7e3b 3de2 3bbc
000002b0: 9426 4f3c 2c92 4c3a 67b9 37bd 02e2 1ebd
000002c0: 09e8 c6bc 725e 2bbd 449c 3dbd f27b 5fbd
000002d0: 19e1 b83c 21e7 0dbc ba89 ce3c 7d72 c1bc
000002e0: 59ea 31bc 8479 3cbc 6822 26bc 2987 33bc
000002f0: 195b 5dbc 9bdc 1cbc c49c 753b f5c8 01bd
00000300: dd6e 313d 704d fbbc de3b b03c 2a70 19bc
00000310: 159d 433d f2ac 813d 3d74 993c a335 44bd
00000320: 4549 5abd ae7f 793d 5dd6 313c d3cd 77bc
00000330: 1672 7ebb d556 083d 3aea 14bd 669e 7cbc
00000340: 8426 b23c 0bce 423d dafc 7dbc c42a fe3c
00000350: eb64 46bc f5bf 0abd a735 173d 7225 18bd
00000360: ed60 2b3d ee27 923c 9952 003d db44 db3c
00000370: bea6 a8bb 6d7f 263d 0436 1d3d 3315 ec3a
00000380: 4c06 f73c 6bc7 febc 6e43 49bc 4f68 0dbd
00000390: 4da4 303d 50fe e6bc b1ab 8dbb 18b6 6ebd
000003a0: 2676 c1bd a96f 20bd cfd3 6fbd 2186 afbb
000003b0: 94ba c7b9 8aa4 1bbd 229c 5d3d 16b7 94bc
000003c0: 50c2 063d ebe6 52bd eb28 003b d234 cb3c
000003d0: 47e7 9dbd 04b9 5e3d 96c3 a43d 9438 bb3a
000003e0: ab34 893d b1eb 1d3d eaa1 f9bb a556 5dbd
000003f0: c4e2 7b3c d867 1dba 7380 96bc 1796 9cbc
-0.03234635 -0.016409976 -0.016111169 0.00067777967 -0.01789028 0.061467595 -0.021576881 0.024911942
0.008958706 0.071814224 -0.004078278 -0.010823975 -0.007686568 0.042860206 0.032612503 0.071475945
0.06085711 -0.0015586655 0.009089589 -0.035815593 0.043045923 0.012359072 0.06169574 0.051541496
0.0037199024 -0.06180665 0.07796528 -0.012133403 0.022632563 0.04375002 0.026300726 0.029072234
0.01449135 -0.013334175 0.047560513 0.059343208 0.0066680536 -0.0030583418 0.034749527 0.028342044
-0.061852846 -0.014724437 -0.052289944 0.011759239 -0.01534287 0.025700767 0.033842597 -0.042625286
0.020253254 -0.005142952 -0.040693462 -0.02843164 -0.024814067 -0.037274685 -0.018418314 -0.017034037
0.04491593 -0.008291259 -0.058496233 0.037505735 -0.046549577 0.0023248144 -0.06276813 -0.00469577
-0.07293361 -0.0660453 -0.024456566 -0.03526234 0.00086465414 0.0070928107 -0.02693856 0.034321986
0.016851373 0.017042315 0.020487271 0.019553253 -0.0063015884 0.0027151734 -0.023041207 0.036596384
-0.023233851 0.03451 -0.0022467207 -0.023410093 0.03965647 0.00574059 -0.010127485 -0.052002728
0.022202624 -0.044436518 0.0313134 -0.025049295 -0.01634353 0.032254238 0.0034786463 -0.04469431
0.032867983 -0.04450609 0.008637008 0.04170275 -0.015813679 -0.0725465 0.02013547 -0.036158796
0.04904144 0.027456937 0.028315062 -0.040357698 0.002846344 -0.020920182 0.008251296 0.0565841
0.0030413617 -0.056134086 -0.03435534 0.020566462 0.005651412 0.0075130924 -0.027816016 -0.04240971
-0.00390025 0.02923664 -0.042596363 -0.021691028 -0.01641044 -0.0063895704 0.040181022 0.018934239
-0.024030488 0.016892238 -0.0029221827 0.051825035 0.0421733 0.07485095 0.03064063 0.021075496
-0.016559964 -0.035784002 -0.0047807717 -0.023307204 0.057353202 -0.00066419307 -0.023690522 0.015161201
0.0055917427 0.08385495 0.030454284 0.017092938 -0.014698385 0.056156825 0.041559823 0.009817136
0.039728213 0.009534041 -0.001871059 0.01779881 -0.04905518 0.069800206 0.048663303 0.037128992
0.04929229 0.035790987 0.011158956 0.032730397 -0.01699202 -0.030595522 0.026676076 0.034146894
0.047377706 -0.044914555 0.0038869118 -0.011467514 0.012643475 0.0007803764 -0.044854548 -0.038789757
-0.024280565 -0.041838117 -0.046291605 -0.054561563 0.022568272 -0.008661062 0.025212158 -0.023614163
-0.0108590955 -0.011503581 -0.010140039 -0.010957518 -0.013510489 -0.009574081 0.0037477473 -0.03168579
0.043318618 -0.030676574 0.021512922 -0.009365121 0.047757227 0.06331815 0.018732185 -0.047902714
-0.05329253 0.06091278 0.010854331 -0.015124756 -0.0038825325 0.033285934 -0.03635619 -0.0154186245
0.021746881 0.04755978 -0.015502179 0.031026252 -0.012109022 -0.03387447 0.0369164 -0.037145086
0.041840483 0.017841306 0.03132877 0.026766231 -0.0051468303 0.040648866 0.03838159 0.0018011689
0.03015437 -0.03110095 -0.012284143 -0.034523305 0.04312544 -0.028197438 -0.0043234457 -0.058279127
-0.09446363 -0.039168987 -0.058551606 -0.0053565656 -0.0003809525 -0.037998714 0.054103978 -0.018153708
0.032900155 -0.05148975 0.001955564 0.02480546 -0.07710128 0.054375663 0.080451176 0.0014283829
0.06699499 0.03855485 -0.0076181786 -0.05403771 0.015373889 -0.00060045486 -0.018371796 -0.019114537

gconv.0.lins.1.weight f4 [16, 2000]
00000000: a515 9ebc 0368 603c aa25 203d 8226 7cbc
00000010: ef80 56bc 493d 77bd 5361 423c 2807 8fbd
00000020: e044 19bd fe1e b5b9 dd2a 80bd ea56 73bc
00000030: 01ba ccbb df7c d23c 7d7e 4dbd e024 4abd
00000040: 1b69 7abc aa48 123c f16f 05bd 83f7 943c
00000050: f24b 10bd 8821 8c3c 752a 313d 1b05 05bd
00000060: 6c4e b2bc 7cb8 04bd 708b 0d3d e01e fdbc
00000070: bdba dfbb c95e 093d b9f7 16bd 3df6 07bd
00000080: 2f30 e73c 8778 4539 5493 d03c 6ba5 be3c
00000090: 3f1c 0dbc 1007 5ebd e516 373d aee6 a9bc
000000a0: 4579 96bc 5b4f 553d 7d2d 1e3d a935 0eba
000000b0: 9a63 383c 9f0e 423d 47e9 1cbd cb97 8bbc
000000c0: ccc5 02bd dbee 1ebd 1b90 643b ca36 0ebd
000000d0: d727 1bba 003a 5e3d c130 00bd f6a7 bebc
000000e0: 41a7 533c 6a23 0bbb 5793 553d bcc7 4c3c
000000f0: 2396 49bc 30c5 04bd 41aa 753d 449b c13c
00000100: afce 1d3d a181 5ebb cd78 2dbd 1b3f 9dbc
00000110: 851f bf3c a8cc 963b 0e25 acbd fdd7 c6bc
00000120: 2d7a 033d b4c6 d0ba 123f 77bc b2c9 f13c
00000130: 8725 27bd 1e0d 53bd 122e a83c ed37 fd3c
00000140: 31f3 973c a03d 143d 5baa f93c 0d51 61bd
00000150: 1ca6 db3c 4a6f 6cbd 93a6 5f3d 002a 033c
00000160: 9c8c dd3c 6b3a 433d 80cf 563d b6a7 d43c
00000170: 289c cfbc 625d 263b 36b5 ef3b 7f7b 1d3d
00000180: 8de2 afbc 9fa1 9b3c 5a63 d9bc 2c07 1d3d
00000190: dcd4 f73c 0a0a 693d 7cd6 11bd 1df8 d93c
000001a0: 53b9 8e3c 1632 caba 0d9d a7bc 6151 4f3d
000001b0: 3fd4 03bc 3ff5 553d 6f3b 68bc 80df 51bd
000001c0: dcf7 bbbc b224 d33b d162 e13b 5c9f 1a3c
000001d0: 68b8 e2bc 38bb c13c c9f6 36bd 0b25 45bd
000001e0: e154 91bd 12ec 4ebd 8d9f 55bd 451c 063c
000001f0: c007 91bc d130 52bd 73c2 cf3c e79d 423d
00000200: 322b f53c 1eee b1bb 44ac 5dbd ba2c 89bc
00000210: b801 063c f031 56bd 4611 27bd b9f6 5abd
00000220: 06fc 7bbd 0a53 40bd 9cb1 cdbc bee2 8ebc
00000230: b8c4 3bbd 5331 65bd 27fa 9bbc 4607 93bc
00000240: deaa c6bc 31e8 ecbc 8e4a 3e3d 7aa6 85bb
00000250: 6f2c 68bd dbdc abbc d394 853c 2ec6 84bd
00000260: 79db 2d3d 2959 7abc 749a 8d3c 9b8c 1cbc
00000270: 5f72 d1bc 74d0 863c f42a 53bd ebb9 79bc
00000280: ab75 503c 6819 cebc 7a06 073d 685c c73c
00000290: e534 e53b be7c 643d 84ba 38bd 8f93 80bd
000002a0: 16fa d4ba 7e79 fd3b 9194 0cbd a8da 13bd
000002b0: 4dc2 8a3d 2e4c 09bd 6057 acbb 1177 0b3d
000002c0: 9c39 c2bc e69b 11bc 7f62 5f3d e521 0c3d
000002d0: ff9e 063b dabf 803c 3a91 ac3c 8825 013d
000002e0: 4c15 b5bc 03c0 9c3c 26d5 08bd 290a bbbc
000002f0: aedf 673c 6420 023d eab8 38bd c102 a1bc
00000300: 3cf6 fd3b 9e8d 04bd edf1 fb39 caa3 15ba
00000310: 805e 68bd 02d9 6f3d 1bb4 d03c f428 2b3d
00000320: 8990 a1bc f4cd 853c 4036 5c3d b717 433d
00000330: dd17 48bd fa52 80bc 0d2f c23c de86 363d
00000340: 9f87 14bd f68e 8fbb 5b75 473d 1277 eabc
00000350: a563 ce3c d5c0 c53c 60f8 843c 6d9d 133a
00000360: b89d 10bd f4a1 67bd 80a6 0a3d fcf6 12bc
00000370: 65af 51bc 682e 8f3c 57e2 cc3c af3d cdbc
00000380: 8f05 38bd d973 adbc a0c2 233c 1b9b 91bc
00000390: d2e1 973c 0ee8 233d 8445 383d de0d 083d
000003a0: e4d8 533d 308c 37bd 7f3e 353d 98f6 a03b
000003b0: e6d3 6abd dcbc cb3c 56cf 12bd 37ca 583d
000003c0: 8b88 5abc bcfe 09bd b663 423d d218 8cbd
000003d0: cabc 233d bd58 30bd d5fe 23bd 9024 b63c
000003e0: a716 dc3c 81d9 bcb9 fd7d 153d a85f 8fbc
000003f0: 171c b93a 1b16 ea3c 1437 933c 399d 883c
-0.01929743 0.013696673 0.03909842 -0.01539004 -0.013092264 -0.06036118 0.011864024 -0.06983787
-0.0374192 -0.000345461 -0.062581755 -0.014852265 -0.0062477593 0.025694309 -0.050169457 -0.049351573
-0.015283848 0.008928457 -0.03257746 0.018184429 -0.035228677 0.017105833 0.04325338 -0.032475572
-0.02176591 -0.0324025 0.034556806 -0.030898511 -0.006827681 0.03353766 -0.03685734 -0.033193815
0.028221218 0.00018832284 0.025460877 0.023272237 -0.008612691 -0.054205954 0.04469957 -0.02073988
-0.018368373 0.052077632 0.0386176 -0.0005424866 0.011254216 0.047377225 -0.038308408 -0.017040154
-0.031926915 -0.03880201 0.0034875933 -0.03472022 -0.00059187174 0.05425453 -0.031296495 -0.02327345
0.012918294 -0.0021230825 0.052142467 0.012498792 -0.012303862 -0.032414615 0.05997682 0.023633607
0.038527187 -0.0033951777 -0.042351533 -0.01919513 0.02333046 0.0046020336 -0.08405505 -0.024272913
0.032098938 -0.0015928359 -0.015090721 0.029515121 -0.040807273 -0.05152618 0.02052978 0.030910457
0.01854858 0.036191583 0.03047674 -0.055008937 0.026812606 -0.05772332 0.054602217 0.008005619
0.027044587 0.047663134 0.05244398 0.025958877 -0.025343016 0.002538525 0.007315303 0.038447853
-0.021470333 0.018997965 -0.026536632 0.038336918 0.030252866 0.05689434 -0.03560494 0.026607567
0.017422354 -0.0015426304 -0.02046063 0.05061472 -0.008046209 0.052235838 -0.014174326 -0.051238537
-0.022945337 0.0064435834 0.006878235 0.009437408 -0.027675822 0.023648843 -0.044668946 -0.04813103
-0.070962675 -0.050518103 -0.052154113 0.008185451 -0.01770389 -0.051316086 0.025361275 0.04751387
0.029927824 -0.005429997 -0.054119363 -0.01674496 0.008179121 -0.052293718 -0.040787958 -0.05345795
-0.061519645 -0.046954192 -0.025109105 -0.017442103 -0.045841902 -0.055955242 -0.01904018 -0.017947804
-0.024251398 -0.028919311 0.04645782 -0.0040786834 -0.056683 -0.020979336 0.016306316 -0.06483112
0.042445634 -0.0152800465 0.017285563 -0.009555007 -0.025567232 0.01645682 -0.051554635 -0.01524208
0.012723367 -0.025158599 0.03296516 0.024336055 0.006994831 0.055783026 -0.04509975 -0.062781446
-0.0016248848 0.0077354303 -0.03432137 -0.0360972 0.06775341 -0.033519916 -0.0052594393 0.034049097
-0.02370911 -0.008887267 0.054537293 0.03421201 0.0020541546 0.015716482 0.021065343 0.031529933
-0.022104882 0.019134527 -0.0334064 -0.022831993 0.0141524505 0.03176917 -0.045098223 -0.019654633
0.0077503007 -0.03236162 0.000480547 -0.00057083054 -0.056730747 0.058556564 0.025476506 0.041787103
-0.01972224 0.016333558 0.053762674 0.047630038 -0.048850883 -0.015664566 0.023704076 0.044562213
-0.03626215 -0.004381056 0.048695903 -0.02862123 0.025193999 0.024139801 0.016231716 0.0005631063
-0.035306662 -0.056550935 0.033850193 -0.0089700185 -0.012798165 0.017478183 0.025010271 -0.025053827
-0.044927176 -0.021173405 0.009995133 -0.017774155 0.018540297 0.040016226 0.04498817 0.03321635
0.051720515 -0.044811428 0.044249054 0.0049122088 -0.05733099 0.024870329 -0.035842262 0.052927222
-0.013338218 -0.0336902 0.047458373 -0.068406716 0.039974965 -0.043053377 -0.04003795 0.022234231
0.02686627 -0.00036020207 0.036497105 -0.017501667 0.0014122751 0.028574994 0.0179706 0.016676532

gconv.0.lins.2.weight f4 [16, 2000]
00000000: 2dee d0bb 1fea 99bc 5d4a fabb 6f95 803d
00000010: 6406 e8bc 4bb8 c2bb d5e3 13bb 65fc d63c
00000020: 72d6 babc b6fd 21bd 0693 a3bd f3d2 c53b
00000030: be0c 55bd 9993 9fbc 9458 b7bb 1106 21bd
00000040: 07ae 04bd 7bc0 12bd f027 863c 357b d5bc
00000050: 4cce 9ebc 1127 343c a009 87bb be73 6d3c
00000060: 0682 dfbc 5e6d 37bc c752 ceb9 e6f9 72bc
00000070: 3c04 7ebd a84a 2bbd aa32 f73c 661f ec3c
00000080: 67d2 123d b108 83bd 3553 fd3c c1b5 8dbc
00000090: 2d13 26bd 6d0d bebb 6cf2 40bd a7e4 a1bc
000000a0: ff8f d53c 8813 833c bbcf ad3c 0373 c6bc
000000b0: d789 853d a92a c93c 834d 72bc b7e0 e8bc
000000c0: 431e 4c3c b656 ce3c e3d8 c2bb eeac 1c3d
000000d0: a5fd 273b 697c a1bc 5233 9e3d 8a11 29bd
000000e0: a7e6 3bbd 9c76 92bc 8cef 303b 54d1 a13c
000000f0: 3b1a 553d c94b e43c c2ef 103c 5aa0 8c3c
00000100: 2f9b 6f3d 1b4a 0e3d 9854 1e3d d050 4a3d
00000110: 9788 a33c 5f74 af3c c251 0fbc b2c0 d83c
00000120: da8e 49bd f7b9 053d ab59 083c 7d7d 3c3d
00000130: 56cb 173d 88c1 43bd a49c 3cbc 1537 6a3d
00000140: 70a0 06bd b27c 1fbd d92e 5d3d 2e39 0a3d
00000150: 9ab9 183d 9f30 59bd 7046 e7bc 6c35 11bd
00000160: 6c15 9bbc a965 223d c874 0ebd 0aff e83c
00000170: b119 a83b c146 88bb 8c35 1d3d 4d10 be3c
00000180: a9ee 353c 33d1 59bd e3b8 4ebd e8a3 633c
00000190: 07fb 61bd 6831 eebc 7b5c 35bd 71cf e2bb
000001a0: 26f1 03bc 720d 5dbd f61c 273b 03ee f8bc
000001b0: ed15 fd3c 5030 44bd fe96 b4bc b748 c2bc
000001c0: d799 3dbd 02f1 cebc 7b5f 48bd bd59 ee3c
000001d0: 2cf4 c9bc 5b9f 8e3a ac9d 373d 6a0b 1dbd
000001e0: e96d 203d e94a 2fbb b1a4 823c 1b7d 8c3d
000001f0: e0fe ee3c 357a 863c 7874 1f3d bb2d 403d
00000200: f5b1 963c b7dc 163d dca4 e7bc bc37 beba
00000210: fa04 69bd f17f 87bd df96 753c 83f3 9cbb
00000220: 9f7e fabb a4c8 c5bc b875 533d f46a 13bc
00000230: 45ac 33bc e121 f638 5dc0 fbbc 55af 453b
00000240: 37a6 ecbc 2722 9bbd 5be6 5fbc a482 a23b
00000250: 9322 963d 23a9 033d 9ac2 20bd b8c6 84bd
00000260: a910 103d 6066 08bd 68d9 96bd 759b 853c
00000270: 9a83 8e3c 6783 613b f374 09bc 6fd2 1c3b
00000280: 2e37 a43a 6e93 0b3d 2afb 72bd 2aa0 9cbc
00000290: 9d28 e0bc d870 1fbd f79e 08bc 9c0d 4ebd
000002a0: de7f 4cba cb92 6fb9 1e68 10bc 2ecf a63c
000002b0: 028a 913b 7d72 1fbd 7644 5bbd 9701 623d
000002c0: 3c27 b2bc 5e41 27bd bc10 ce3b 7fff 7f3d
000002d0: 0b40 013d 28d5 c1bb a8da fabc 10ae 1c3d
000002e0: 7415 90bc 2dae 0bbd 9081 04bd 335c 0abd
000002f0: 2910 e33a 889f d93c 3883 203d c544 283d
00000300: 30f2 123d 94b7 4ebd 786d 3d3c 0d58 05bd
00000310: f95c b8b8 8f29 27bd c905 95bd b59b 6bbd
00000320: 014b d13b c894 003d 8ba7 3b3d 6038 033d
00000330: a2d5 8f3c a61d 19bd 42b5 c63c 8ed4 2f3d
00000340: fc2b 23bd 75f5 d73c 0055 513d 9b7b 49bd
00000350: 8d86 33bd d354 6fbd d24a 8b3c 335e 663c
00000360: e61a 093c c72e 90bb 394f 483b 0d54 8b3c
00000370: fb20 8a3c 21dd fcbb a2d5 f7bc d18d 13bd
00000380: cd5d 7dbc 5b44 333d 021f 423c cc4f cabc
00000390: 4358 f6bb b916 b1bb e3cf e8bb b3f0 eabb
000003a0: 6779 cbbb 8202 2dbd f13c 0a3d d720 86bc
000003b0: fd4c 03bd f170 653d 6eba 5dbd d17a 97bc
000003c0: 5c5c 5cbd b267 07bb ada0 80bc d684 afbd
000003d0: dadc 643d 12ac 3bbc 5f57 cfb9 951a 88bb
000003e0: 519b 333c fbc5 563c 20b5 693c 8b64 8d3c
000003f0: ffa9 42bd 466a a93c 5af3 0cbc f470 2fbd
-0.006376049 -0.018788395 -0.0076382593 0.06278502 -0.02832336 -0.0059423796 -0.0022566218 0.026243398
-0.022807334 -0.0395486 -0.07987027 0.00603711 -0.052014105 -0.01947956 -0.005595276 -0.039312426
-0.032392528 -0.035828095 0.016376466 -0.026059726 -0.01938548 0.010995642 -0.0041210204 0.014492927
-0.02728368 -0.011195509 -0.00039353056 -0.014830088 -0.062015757 -0.041819245 0.030175526 0.028823566
0.035845187 -0.06398142 0.030923465 -0.017298581 -0.04054563 -0.0057999403 -0.04710619 -0.01976235
0.02606964 0.016000524 0.021217218 -0.024224764 0.065204315 0.024556475 -0.014788988 -0.028427465
0.012458387 0.025187831 -0.005946265 0.038250856 0.0025633362 -0.019712644 0.07724632 -0.041276492
-0.045874264 -0.017878823 0.002699825 0.019753136 0.05202697 0.027868168 0.008846225 0.017166305
0.058497604 0.03473864 0.038654894 0.049393475 0.019962592 0.021417795 -0.00874752 0.026459072
-0.0492085 0.032648053 0.00832216 0.046018112 0.03705915 -0.047791988 -0.011511955 0.057181437
-0.03286785 -0.038937278 0.053999756 0.033745937 0.03728638 -0.053024884 -0.02823183 -0.035451338
-0.018931113 0.039647732 -0.03477934 0.028441925 0.005130016 -0.004158825 0.038381144 0.023201132
0.011104264 -0.053178024 -0.05046929 0.013894059 -0.05517104 -0.029076293 -0.04427765 -0.0069217016
-0.0080531 -0.0539679 0.002549944 -0.03038693 0.030894244 -0.047897637 -0.022044655 -0.023716314
-0.04628929 -0.025261406 -0.048919182 0.029095525 -0.024652563 0.0010881232 0.044828102 -0.038340963
0.03916732 -0.002674753 0.015947672 0.068597995 0.029174268 0.016415695 0.038929433 0.046918612
0.018395403 0.036831584 -0.028276853 -0.001451246 -0.05688951 -0.066162 0.014989584 -0.004789771
-0.007644489 -0.024143524 0.051625937 -0.008997668 -0.010966365 0.000117365045 -0.030731374 0.003016432
-0.028887851 -0.075748734 -0.013665761 0.004959421 0.07330813 0.032143723 -0.039248087 -0.06483215
0.03517214 -0.033300757 -0.07365686 0.01630948 0.017396737 0.0034410597 -0.008389699 0.002392914
0.0012528652 0.034076147 -0.05932156 -0.01911934 -0.027363116 -0.038925976 -0.008338681 -0.050305948
-0.0007801036 -0.00022847501 -0.008813886 0.020362463 0.0044415006 -0.038927544 -0.053532086 0.055177297
-0.021747224 -0.040833823 0.006288616 0.06249952 0.031555217 -0.005915303 -0.030621842 0.038251936
-0.017588355 -0.034101654 -0.032350123 -0.033779334 0.0017323542 0.026565328 0.03918764 0.04108121
0.0358755 -0.050468042 0.011561744 -0.032554675 -8.791121e-05 -0.040811118 -0.07276494 -0.05752154
0.006387115 0.03139189 0.04581408 0.032036185 0.017557923 -0.03738179 0.024256352 0.042927317
-0.03983687 0.02636216 0.051106453 -0.049190145 -0.04382949 -0.058430504 0.01700345 0.014060545
0.0083682295 -0.0044001075 0.0030564799 0.017007852 0.01686143 -0.0077167903 -0.030253235 -0.03602392
-0.015464258 0.04376636 0.011848213 -0.024696253 -0.007517846 -0.00540432 -0.00710486 -0.007169807
-0.0062095406 -0.04223872 0.033749525 -0.016373081 -0.032055844 0.056015912 -0.05413287 -0.01849118
-0.05379902 -0.0020661172 -0.015701616 -0.08570258 0.055874683 -0.011454599 -0.00039547213 -0.0041535595
0.010962323 0.013108726 0.014264375 0.017259857 -0.047525402 0.020680558 -0.008602941 -0.04283233

gconv.1.lins.0.weight f4 [16, 16]
00000000: 5856 b93e 4132 88bb 32a9 be3c a118 6fbe
00000010: c773 ff3e 7879 95be 1389 c53d a7e5 d03e
00000020: 6de9 8d3d fed3 0abe 8e66 da3e 0c5f 193e
00000030: 6e76 ddbe be88 d6be 7c15 943d c11f a03e
00000040: 9670 2c3e 6246 2d3e 12da b3bd 3aaf b83e
00000050: c705 ca3e 08c0 953e 2c9c cfbe 1d84 28be
00000060: a3a0 83be 3fa9 09bc ee72 9ebe b7c2 c83e
00000070: 7ec8 45be 997e c83e f374 afbe 9937 c8be
00000080: e723 59be ee1b 06be 0aa0 62be 6fda ba3e
00000090: 757b 883e 7cb1 a13e 648b be3e b924 67be
000000a0: f0af 94bd 36bb 6f3e e063 48be 4fcf ccbe
000000b0: ea39 14be 8491 b73e 089d c5be ff5a cabe
000000c0: 2f30 a93e 8728 e33b 68f5 dabe 60a2 0a3e
000000d0: 7485 c03e 770a b7bd c2bb c53e c570 d6bc
000000e0: 8de2 9bbe ea36 d63e 32eb 8dbd 0a82 d23c
000000f0: ca9a 983d 5131 633e 64bb dcbe 20d4 a4be
00000100: 4e64 ea3e f286 803d 049f de3e 4212 643e
00000110: 2cb0 61bd 90c4 b53e cf6d 6c3e 826c cbbe
00000120: 6ce7 b13e df91 db3e 7bfc 773e e8e9 ed3d
00000130: 447e 09be a508 9d3e c0be 9e3d c11b 673e
00000140: 5007 423e 23de 8a3e e4c7 323e 4fa3 6f3e
00000150: 49ac ae3d d94e cb3e e400 4b3e 3e51 dc3c
00000160: cf67 87be 63b8 9b3d 8066 aabe a563 a7bd
00000170: f45c 55be f824 aabd 8fdc 53bd 38f9 8cbd
00000180: 5a56 b43e 8abc 453a 9cec a8be 9409 90bb
00000190: 1114 b0be f649 d93e e5d4 9fbe b379 d53e
000001a0: b364 97be 59f7 b7be b4ed 69bd ee1d 3b3e
000001b0: ed05 813e 0477 8e3e eca5 c43e 46f9 1b3d
000001c0: 3a24 83bd dd85 dd3d deb3 1cbe 7afa aabe
000001d0: 8358 cfbe e575 d03e a7f7 543e 1f16 78be
000001e0: dd40 bd3e f85a 43be cec4 1cbe 9735 583c
000001f0: 7140 cbbe aa8b 013e 7f06 223e aeda 4cbd
00000200: 0d76 febd 975e f73c 3c18 f9bd b434 efbd
00000210: 013e 5dbe 68eb cf3e 711b bf3e d97d aabe
00000220: 2e19 35be 87ee 4c3e bb8e 9cbe 5a51 fdbd
00000230: 06b8 e5bd 4e03 1e3d 67b4 5dbc 2b73 69be
00000240: ca94 7e3e b990 efbd ffb9 d1bd 0891 cabe
00000250: d625 3dbe 295d 85be 51ea 2cbe 94da 3bbd
00000260: e9bd e2bc 5445 633c f574 2abe b055 ccbd
00000270: b062 c8be ba48 353e e157 6ebe be99 a1bd
00000280: b889 42be e953 95be e8c7 b3be a189 063e
00000290: f8c0 19bc c8b9 8b3e 9a80 c4bd 621b a6be
000002a0: 73a2 50be f5fa ec3d a50b 663e 12b5 893e
000002b0: 713d 123e abff 153e d496 ecbd ee49 d53e
000002c0: cefe 1d3e 3074 84be 2a31 b1be 2b8d bcbc
000002d0: 7d5e 83be 0b03 cebd 20d3 993e 550c 333c
000002e0: 9fd8 b5bd 2d53 0d3d ef84 913e 406d b9be
000002f0: 9237 493e 4f7d cc3e ff3c b53e e61e 81be
00000300: 6f6e 92be 7ffd 60bc 2af0 023c c5da 46bd
00000310: cc3a 9ebe c4a3 743d b8b7 3fbd f622 5ebd
00000320: f7bf 13be 829f c73e 1503 b33e 8e79 933e
00000330: eaf6 d1bb bde8 80be f37f cbbd 2230 2cbe
00000340: 3b78 a3be bdfd b93d efcc b5bd d15f 25be
00000350: 5c5f 923e 310f bc3d dc0b 9abe 3c5b 2ebe
00000360: 3fe7 34bc 65ba d3be 866a 863e ccd8 d7be
00000370: ab56 85be aa66 d2be a93c 66be 36ad 553e
00000380: 7fa3 be3d 3c84 d0be 9fd4 20be 4269 33be
00000390: e4dd 81be b580 053c 64a1 1ebe 687d 40be
000003a0: 55cf 0f3e 01ca 1cbe 45ff b23e f499 bdbd
000003b0: 2503 3d3e 4614 403e 89a3 eebd a53b 81be
000003c0: ce58 b03e bef8 623e 01b5 c3be 0068 c2be
000003d0: c543 9b3d b632 9a3e 54aa 8abe e3b1 cfbc
000003e0: c56c d53e 6182 9f3e c6ce 3ebe 0527 b23c
000003f0: 2338 553e 1f11 8b3e 4d73 103e 4a0e 01be
0.36198688 -0.0041563814 0.023274038 -0.23349239 0.4989302 -0.29194236 0.096452855 0.4080021
0.06929288 -0.13557431 0.42656368 0.14977664 -0.43254417 -0.419012 0.0723066 0.31274226
0.16839823 0.1692138 -0.08781828 0.36071187 0.39457533 0.2924807 -0.40548837 -0.16456647
-0.25708494 -0.008402168 -0.3094706 0.39211056 -0.19314763 0.39159086 -0.34268913 -0.39104918
-0.21205102 -0.13096592 -0.22131363 0.36494777 0.2665669 0.31580722 0.37215722 -0.22572602
-0.0726012 0.23411259 -0.1956935 -0.40001914 -0.14475217 0.35853207 -0.38596368 -0.3952255
0.33044574 0.0069323215 -0.42765355 0.13538504 0.37601817 -0.08937543 0.3861981 -0.02617682
-0.30446282 0.4183877 -0.069296256 0.025696773 0.07451399 0.22186781 -0.43111718 -0.3219309
0.4577965 0.06275739 0.43480694 0.2227259 -0.05509965 0.35501528 0.23088764 -0.39731222
0.34746873 0.42884728 0.24217407 0.1161688 -0.13427073 0.30670658 0.077512264 0.22569181
0.18948102 0.27122602 0.17459065 0.23402141 0.085289545 0.39708593 0.19824558 0.026894208
-0.26446387 0.07603528 -0.33281326 -0.081733026 -0.2083624 -0.083078325 -0.051724013 -0.06883472
0.3522213 0.0007543048 -0.3299302 -0.004395673 -0.3439031 0.4243924 -0.31217113 0.41694412
-0.29569015 -0.359309 -0.057111457 0.18273136 0.25199834 0.27825177 0.38407838 0.038079523
-0.06403394 0.10816548 -0.15302989 -0.33394223 -0.40497217 0.40714946 0.20797597 -0.24227189
0.3696355 -0.1907767 -0.1530945 0.013196371 -0.39697602 0.12650934 0.1582279 -0.050013237
-0.1242486 0.030196471 -0.121628255 -0.11679974 -0.21605684 0.40609288 0.37325624 -0.3329914
-0.17685387 0.20012866 -0.30577645 -0.12369032 -0.1121674 0.03857737 -0.013531781 -0.2279784
0.24861446 -0.116975255 -0.10240554 -0.39563775 -0.18471465 -0.26047638 -0.1688626 -0.04586275
-0.027678447 0.01387151 -0.16646178 -0.09977281 -0.39137793 0.17703524 -0.2327571 -0.07890652
-0.18997848 -0.2916558 -0.35113454 0.13138439 -0.009384386 0.27290177 -0.09594841 -0.32442766
-0.2037447 0.11571304 0.2246538 0.26895958 0.1428125 0.14648311 -0.11552206 0.41657966
0.15429232 -0.25869894 -0.34607822 -0.023016533 -0.25658026 -0.10059174 0.30043888 0.010928233
-0.08879208 0.03450315 0.28421733 -0.36216164 0.19650105 0.39939353 0.353981 -0.25218886
-0.2859988 -0.013732313 0.00799183 -0.04854848 -0.30904233 0.05972649 -0.046806067 -0.05423256
-0.14428698 0.38988882 0.3496329 0.28803676 -0.0064076083 -0.25177565 -0.09936514 -0.16815236
-0.31927666 0.090816 -0.088769786 -0.16149832 0.28588378 0.09182585 -0.30087173 -0.1702699
-0.0110414615 -0.41353145 0.26253146 -0.4215759 -0.26042685 -0.4109395 -0.22484078 0.20866856
0.09308528 -0.40725887 -0.15706109 -0.17520621 -0.25364602 0.008148362 -0.15491253 -0.18797839
0.14043935 -0.15311433 0.3496038 -0.0925788 0.18458231 0.18757734 -0.116522856 -0.25240818
0.34442753 0.221652 -0.38224033 -0.3796997 0.075812854 0.30116814 -0.27083075 -0.025353378
0.41684547 0.3115416 -0.18633565 0.021747122 0.20822196 0.271615 0.14106484 -0.12603107

gconv.1.lins.1.weight f4 [16, 16]
00000000: 8f3a 94bd cccf f23d 950c ebbd 8aa5 84bc
00000010: 8758 9b3e 8d7a 85be 7d61 0a3e 4c79 403e
00000020: 7e62 633e 4a8c 813e c936 2dbe 7040 aebb
00000030: fe0b 93be d01e 883e 2b4a 6ebe 5f44 7d3e
00000040: 8f07 ccbe d9ea 5a3e 071e d8bb a645 653e
00000050: 4dd3 e93c 9c56 8a3e 6c45 773d ff6f 873d
00000060: 6f76 9cbe c9ca 883d 1490 cebe 9768 10be
00000070: 0f3d 203e 058a 3dbe e9d4 db3e fdc1 a33e
00000080: 7ec5 653e b6f5 c23e 5166 9dbe 99c9 2fbe
00000090: ea49 a33e b1c0 363e ca8a c5be 0aa6 483c
000000a0: 2c0e be3e c420 d5be d91a b83e 0d7e b83e
000000b0: 67e6 b43e db54 1c3e e5f6 24bd 1384 b93e
000000c0: 8043 1dbe a2b1 953e 903c 5ebe bdd0 c9be
000000d0: 8225 9fbe 70f9 b43e 1499 6d3e 7e1a b0be
000000e0: 16b3 0ebd 2600 cd3e 26a0 d63e 5ae0 c4be
000000f0: 46e6 d7be 6cad 97be 4359 9e3d ea8d c73e
00000100: e4df 9cbe 9b97 933e 94a6 7cbe 801b 733e
00000110: 4a00 1fbe c017 b13e ed7e f2bc 921e bd3e
00000120: 9d01 ca3e 1cbd 36be 84c2 a8be fcbe 913e
00000130: 66ea d53e c858 d5be f9d1 823b 84a2 5cbe
00000140: e13d 05be e598 64be 1017 a3bd b085 a5bc
00000150: 7ce5 913d 96c5 9dbd 8466 cb3d a898 d43e
00000160: c0fb 8fbd b912 bbbe b6ae 8fbe 0821 a23d
00000170: 2bcd ffbd b523 49be 0cf0 913d 719a ccbe
00000180: 95c6 72be 347f 56be 6f5d 83bd d9d3 173e
00000190: 9ef8 a1bd a316 923e 5934 e53d f379 66bd
000001a0: 6677 163e 47dd c5be 921f ac3e a8ed 55be
000001b0: fa50 72be 6b39 8dbe a115 c8be cd14 04bd
000001c0: 8e9a 8f3d 12fe b93d 5d13 05be 93b9 d13e
000001d0: 1d14 40be bea7 c83e 76c1 b93d 661d 6c3e
000001e0: d5f4 b4be e2f9 cd3e 24eb a13e a0a7 73be
000001f0: a170 8d3e bf32 423c 5e38 89bc 347f 813e
00000200: cdc5 c63e 60f0 6b3e 8a24 41be f7d9 503e
00000210: f68c a63e 6ea3 a63e db33 253e 185c 033e
00000220: f281 ad3e 6e85 b13e cf34 bc3e 1bc4 9e3e
00000230: 903d 7e3e ed4c 8dbe a95e 6d3e c7ef 56be
00000240: 65dc 8b3d 69f1 4cbe 97c1 80be 3e47 7f3e
00000250: 67d5 ca3d 6f4b 85be 7b7e a9be 6b4b 81be
00000260: 0e53 963e 4725 c23e 25ea 473e fd82 b73e
00000270: 108b 843d 72f8 a13d 98db f9bd 7d45 b23e
00000280: dd30 7fbd 2e81 8b3e f732 c7be 45d3 8bbe
00000290: 3f25 90be b37a bdbe 4640 8f3d 2dab 533e
000002a0: 7c5a 62be 80f6 973c 08aa babe 55b0 a43e
000002b0: 481e 54bd 8d11 ebbd 7801 913e f1e3 d9be
000002c0: 35a8 d2bd 56c1 68be 87a0 753c 3a69 633e
000002d0: 6b73 b43e c85c dd3e eaaf 98be 32fb 5dbe
000002e0: 44d8 81bd f158 afbe 22f5 f33d c4a4 61be
000002f0: 5511 483e 3b7c 943d c268 693e 16dc 1cbe
00000300: 8628 b93e 8b8d 2b3e e138 85be acfb a63e
00000310: b5e0 513c f2f5 e93d 3611 80be 614f f1bd
00000320: 9aa9 9c3e 585d 92be 2187 7f3e 2001 02be
00000330: 953b ce3d 520f 2d3e 655c 8a3c 0132 c5bd
00000340: a5a3 b1be 8c3d 7bbe 88dc ae3e ba65 c13e
00000350: 6c0d a0be e294 11bc 39a6 173e fe43 d5be
00000360: d620 e4bd 443c 8c3d 5b61 b7be 41e8 acbc
00000370: b443 0abe 30b0 563e 4ef5 c8be 118b 36be
00000380: 7398 f5bd a7eb 503e c187 553e 13f5 b93e
00000390: 0d83 84bd 899a 95be 2d68 023e e9b9 573d
000003a0: bd91 04bd 7345 303e f5d7 d1be cedd a53d
000003b0: 5766 92bb 34bb 5b3e 395b 913e fee1 d03d
000003c0: e16f 79be cabc b03e e58c d43e 339e 1a3e
000003d0: 3751 1c3d 23b3 03bc 241c 8ebe 4815 d43e
000003e0: 7421 8abe 5ef8 6b3e f769 c93e dcf3 6d3e
000003f0: 359a d5be 21f2 1bbe 9c5b 4bbe dd49 833e
-0.07237732 0.1185604 -0.11477009 -0.016192216 0.30340979 -0.2607006 0.13513751 0.18796271
0.2220554 0.25302345 -0.1691543 -0.00531774 -0.28720087 0.26586008 -0.2327048 0.24733113
-0.39849517 0.2137865 -0.0065953764 0.2238985 0.028543139 0.27019203 0.06036894 0.066131584
-0.30559108 0.06679303 -0.40344298 -0.14102398 0.15648292 -0.18509682 0.42935875 0.3198394
0.22438619 0.38078088 -0.30742124 -0.17166747 0.3189233 0.17846943 -0.3858245 0.012246618
0.37120187 -0.4162656 0.35957983 0.3603367 0.35332033 0.15266745 -0.04027452 0.36233577
-0.1535778 0.29237086 -0.2170279 -0.39417067 -0.31083304 0.35346556 0.23202926 -0.34395212
-0.03483876 0.40039176 0.4191906 -0.38452417 -0.42167872 -0.29624498 0.07731869 0.3897546
-0.30639565 0.28826603 -0.2467292 0.23740959 -0.15527454 0.34588432 -0.029601539 0.36937386
0.39454356 -0.17845577 -0.32960904 0.28466022 0.41780394 -0.41669297 0.003992316 -0.2154637
-0.13011886 -0.2232395 -0.07963383 -0.020205349 0.07123849 -0.07703702 0.09931663 0.41522717
-0.070304394 -0.36537722 -0.2806298 0.079164565 -0.124903046 -0.19642527 0.071258634 -0.3996158
-0.23708566 -0.20946962 -0.064143054 0.14826907 -0.07908748 0.28532895 0.11191625 -0.056268644
0.14693984 -0.38645384 0.33617836 -0.2089144 -0.23663703 -0.2758287 -0.39079002 -0.0322464
0.07011901 0.09081663 -0.12995668 0.40961894 -0.18757673 0.39190477 0.09070103 0.2305809
-0.35343042 0.40229708 0.3162471 -0.23794413 0.27624992 0.011852919 -0.01675051 0.2529236
0.38822785 0.23040915 -0.18861595 0.20395647 0.3252942 0.32546562 0.16133063 0.128281
0.33888203 0.3467211 0.3675904 0.31008992 0.24828172 -0.27597752 0.23180641 -0.20989905
0.06829146 -0.20013966 -0.25147697 0.2492952 0.099039845 -0.26034114 -0.3310431 -0.25252852
0.2936024 0.37919065 0.19522913 0.35842124 0.064718366 0.07908715 -0.12200087 0.3481864
-0.06230246 0.27246994 -0.3890607 -0.27309623 -0.28153417 -0.37007675 0.06994681 0.20670767
-0.2210483 0.018550158 -0.3645785 0.3216578 -0.05178669 -0.11477957 0.28321433 -0.42556718
-0.10285989 -0.22730002 0.014991886 0.2220811 0.35244307 0.4323485 -0.29821712 -0.21677855
-0.063400775 -0.34247544 0.1191199 -0.2203551 0.19537862 0.072502576 0.22793868 -0.15318331
0.3616373 0.16753213 -0.26019958 0.32613885 0.012809922 0.114238635 -0.2501313 -0.117827184
0.30598146 -0.2858684 0.24953891 -0.12695742 0.10069958 0.16900375 0.01688976 -0.09628678
-0.34695163 -0.24535197 0.34152627 0.37772924 -0.3126024 -0.008885594 0.14809503 -0.41653436
-0.111390755 0.06847432 -0.35816464 -0.021106841 -0.13502389 0.20965648 -0.39249653 -0.17826487
-0.11991968 0.20402394 0.20852567 0.3631979 -0.064703085 -0.29219463 0.12735052 0.052667532
-0.03236555 0.17213993 -0.40985075 0.080989465 -0.0044677663 0.21458131 0.2838991 0.101993546
-0.24359085 0.34519035 0.41513744 0.1509941 0.03816339 -0.008038315 -0.27755845 0.41422486
-0.26978648 0.23043963 0.39338657 0.23237556 -0.41719213 -0.15229084 -0.19859165 0.2564229

gconv.1.lins.2.weight f4 [16, 16]
00000000: 0603 33bb f4d5 d93e 8b48 c4be d634 58be
00000010: b703 77be 325e e9bd dc7e 913e e7ca 313d
00000020: a6ce a63b 22ee b8bd b69e e9bd bb10 9f3e
00000030: 77b2 b1be c9d4 8abe 9b4b 3cbe dffd 713e
00000040: 106c 8cbe a656 803e 6dcd c33e 258f 3dbe
00000050: 754a 3d3e 86c7 00bc 1dd2 613e 0be5 3fbd
00000060: 14f7 023c 70ca b93d bbb5 063e f944 4c3e
00000070: 7a21 8d3e 1883 f23d 5b93 96be b694 303e
00000080: 8561 c23e 8d8f d0bc 3cc3 aebc 0252 94bd
00000090: ac43 ac3e 4799 13be 6b2d 2e3e 8525 593e
000000a0: d5fa c03e 9cdc a93e e0d0 8c3e 353a 99be
000000b0: a73d 48be 2ee6 cd3e d05c 973d 2731 b73e
000000c0: 5e82 b13e 699c 353e 3b0c 6bbd 484b a2be
000000d0: 0eb3 abbe 6363 8a3e 6faa 88be 650f 97be
000000e0: af89 33bd e14c 55bd 60e8 823e 6c06 d7be
000000f0: 05d1 ccbe 21a7 77be 5056 57be ea39 743e
00000100: 1e7f 353e 9805 06bc 856e 9b3d 6fb9 d2be
00000110: 393d 3a3d 4372 a5be 4c1c 93be 9663 de3e
00000120: 3def 453e 62da 823d 2fe8 5f3e d5be a43e
00000130: ed02 54be f8c7 2fbd 6aca 023e e1ac 673e
00000140: 556b 7cbd 2ebb b4be e92c c93c b0dd 223d
00000150: 3df3 573e cba6 a5bd d97d 71be 92f4 dcbd
00000160: d136 69be f863 833e c234 373e 9cbd bf3d
00000170: 9034 a7be bfcb eabd 87fd f9bd 6b01 5bbe
00000180: 4981 c73e 16ae babe 0c02 a13e 384c ddbd
00000190: 6c45 da3d 321b 863d 7d48 81be da4c b33e
000001a0: fd50 bebe a26c 653e a462 9bbe 7858 b53e
000001b0: df70 873e 4ada 563e 7513 b9be a8c9 a5be
000001c0: 55c5 ad3d 71d2 3c3e 32d0 5d3e ffb2 bfbd
000001d0: 9ff1 513e e60b d03e dfae bdbe 950e cf3e
000001e0: d15b 17be 6950 27be 9a20 d53e 2481 a1be
000001f0: 5936 d5bd fba7 7ebe fe19 ab3d d1a9 583e
00000200: b52e 60be 40f4 cc3d abf9 673e 0ad9 bf3e
00000210: e012 693e 7fee d0be e6e8 b43e ea35 6cbe
00000220: af19 86be fcd1 803d c86f 753e adc1 eabc
00000230: 9d06 ac3e 5ee8 4a3e 1658 ac3e 5aed c33d
00000240: 885a 853e f1d4 963e 6908 0e3e 1655 c2bd
00000250: 99e5 69be c6cf 22be fd11 aabe 8734 b83d
00000260: ae0f b0be 7283 56be 7058 323d a49f 833e
00000270: 1f5a b93e da17 bb3e cee6 25be 9964 853e
00000280: 3343 4bbe 2991 a93c 7fab 06be 33d7 3cbe
00000290: 0385 03be b1a9 49be aa31 a53e 4ba1 ac3d
000002a0: a098 303e 135e 32be ce57 ba3e 5bc0 39be
000002b0: ea6c a6be 4e7b 59bd 5d33 7fbe b2bf 9c3e
000002c0: 9524 34be 7627 e6bc b602 813e 8e31 a0bd
000002d0: 8198 9f3e 067d ccbe 7baa c0bd 633d dd3c
000002e0: 90fc 183e abfb 403e b8be 8abe e205 eebc
000002f0: e22b c73b 3ed6 36bd 5a5a b0be 22ea f13c
00000300: 6bd1 c73e 392d cdbe 7a3b 77be c40f d0be
00000310: 55a0 af3b 9fcf 623e 6ea2 32be b358 74be
00000320: d639 df3c adff 9bbe adbb b8be 89e5 dc3e
00000330: abda 87be d275 c9bd f6de 953e e6cd 453e
00000340: eae2 b6bd 82d3 dabe 9f06 c6be 6371 893e
00000350: 19ac a83e b687 843e 62de 9d3d 3579 3fbd
00000360: 3394 20be 3805 013e 340e 0dbe 4ed6 a23c
00000370: 3120 d23e 5708 3f3e 887f a03d 29e8 9fbe
00000380: 5c99 16be 2c07 dcbe cd7d 103e f354 963c
00000390: d0b4 d33d e4db 933c 5849 6a3e 5358 98be
000003a0: 32f9 adbe ff68 b03d 7438 fcbd 829d 71be
000003b0: 27ac 9b3e 8dd0 c4bd a8b7 abbd 78df 8dbc
000003c0: a179 cbbe aea1 223e 8dae a0bd c24e b33e
000003d0: 1ef0 d43e fba7 b8be e4df c3be 04fd ca3d
000003e0: 3fa1 96be 9043 d7bd 69b6 5fbd 5182 acbe
000003f0: f14e 9e3e b7d2 a4be 17b4 afbe 876d 2d3e
-0.0027315035 0.42546046 -0.38336596 -0.21113905 -0.24122511 -0.113949195 0.284171 0.043406393
0.0050905524 -0.09029795 -0.11407225 0.31067452 -0.3470647 -0.27115467 -0.18388216 0.23632
-0.27426195 0.25066108 0.38242665 -0.18511637 0.18485434 -0.00786007 0.22052808 -0.04684929
0.007993478 0.09071815 0.13155262 0.19948186 0.27564603 0.118414104 -0.29409298 0.17244229
0.37965026 -0.025459075 -0.02133333 -0.07242204 0.3364538 -0.1441394 0.17009513 0.21205719
0.3769137 0.33176124 0.2750311 -0.2992722 -0.19554769 0.40214676 0.073907495 0.35779688
0.34669775 0.17735447 -0.05738471 -0.3169806 -0.33535045 0.2702895 -0.2669253 -0.29503933
-0.043832477 -0.05207527 0.25567913 -0.41997087 -0.4000322 -0.24184848 -0.2102902 0.23850217
0.17724273 -0.008180045 0.07589439 -0.411571 0.045468543 -0.32313737 -0.28732526 0.43435353
0.19329543 0.063893095 0.21865915 0.32176843 -0.20704241 -0.042915314 0.12772527 0.22624542
-0.061625797 -0.35299057 0.024557548 0.0397622 0.21088882 -0.08088454 -0.23583163 -0.107888356
-0.22774817 0.25662208 0.1789122 0.09362337 -0.3265729 -0.11464643 -0.1220656 -0.2138726
0.38965824 -0.36460942 0.31446874 -0.10805553 0.106577724 0.06548156 -0.25250617 0.3501957
-0.37171164 0.22404721 -0.30348694 0.3541906 0.264533 0.20981708 -0.36147657 -0.32380414
0.08484904 0.18439652 0.21661451 -0.09360313 0.20502327 0.40634078 -0.3704748 0.40440813
-0.14781119 -0.16339268 0.41626436 -0.3154384 -0.104107566 -0.24868767 0.08354567 0.2115853
-0.21892817 0.100075245 0.22653835 0.37470275 0.22761106 -0.40806958 0.35333937 -0.23067442
-0.2619147 0.06290051 0.23968422 -0.028656805 0.33598796 0.19815204 0.33660954 0.095667556
0.26045632 0.29459336 0.13870396 -0.09488885 -0.22841491 -0.15899572 -0.3321685 0.08994394
-0.34386963 -0.2094858 0.04354137 0.25707734 0.3620157 0.36541635 -0.16201326 0.26053312
-0.19849853 0.0206991 -0.13151358 -0.18441467 -0.12843709 -0.19693638 0.32264453 0.08429202
0.17245722 -0.17418699 0.36395115 -0.18139784 -0.3250497 -0.05309611 -0.24921937 0.30615002
-0.1759208 -0.028094988 0.2519738 -0.07821952 0.3117104 -0.39939135 -0.094075166 0.02700681
0.14940095 0.18846004 -0.27098632 -0.02905554 0.0060782293 -0.04463791 -0.34443933 0.029530589
0.3902696 -0.40073565 -0.24143782 -0.40637028 0.0053596892 0.22149514 -0.17444775 -0.23861961
0.027249258 -0.30468503 -0.36080685 0.4314387 -0.26534018 -0.098369256 0.29271668 0.19316825
-0.08929999 -0.42739493 -0.38676926 0.2684432 0.329438 0.2588479 0.07708432 -0.04674645
-0.15681534 0.12599647 -0.1377495 0.019877579 0.41040185 0.18655525 0.07836825 -0.31231812
-0.1470694 -0.42974222 0.14110489 0.018351054 0.103372216 0.018049188 0.22879541 -0.29754886
-0.33979183 0.086137764 -0.12315455 -0.2359524 0.3040478 -0.096100904 -0.08384639 -0.017318472
-0.39741233 0.15881988 -0.07845793 0.35021025 0.41589445 -0.3606566 -0.38256752 0.0991154
-0.29419896 -0.105109334 -0.05461732 -0.33693174 0.30919603 -0.32192013 -0.34317085 0.16936313

gconv.2.lins.0.weight f4 [16, 16]
00000000: 6df1 1f3e 009b c23e 947b 233e 2a0b a53e
00000010: 7b74 a8be 9ddd 423e 10c2 943e 329d d5be
00000020: fbdb 5d3e 7abe 283e a8a9 b6be 62b5 443d
00000030: e3f9 4b3d ec96 6d3e 1b7c 1bbe e755 41be
00000040: eda2 b0be 8983 0bbe 9faf 973e eccc ce3e
00000050: 61dc 8bbe 7e23 8fbe d545 91be 373b 69be
00000060: 71e4 c6be 1eb4 1cbe 19a0 b43e 3c84 c6bd
00000070: 204b 86bd 2773 e93d 57c1 943e 0bbf 89be
00000080: ee5f b53e e3f6 613e c835 7b3e 0ca7 6bbd
00000090: fa1b 6f3a 806e c3be e42f 643e c03a 323e
000000a0: 5abc 1c3e 3b7d 293e ad1b 3f3e 984f a13e
000000b0: 99e1 d73e 0c1f 11be 9108 b5be 2cbb 163e
000000c0: 6c1c 0a3e 941b c53d 0774 3bbe 3370 173e
000000d0: 9d23 ae3e bf4c 9a3e 335a 833d 0393 823d
000000e0: 722b 87be f9be 453e 9716 c63e c55f 22be
000000f0: 2869 173e 3df8 acbe f1a8 1a3e dadc a73e
00000100: f44f f83e 7899 2fbd 8486 8abe f3a5 903d
00000110: 04a0 b2bc cba5 66be b18f c8be 432e d33e
00000120: 24e2 a93e dc73 0dbe 79c1 16be 62da 583d
00000130: b64b b7be 6ec4 253d 88ef 863e e070 bbbe
00000140: 478d 413d c015 5fbe 99fc 0b3d 6a7b d23e
00000150: 4004 4d3e 155c 55be 292a 03bc 86e4 8e3e
00000160: 53a9 963e a867 d53e 95fc 6d3e 4665 b3be
00000170: 8db6 233e 91b4 4f3b 83bb 473e 29b1 25be
00000180: cf39 3b3e 8dc8 8cbe 4512 7b3e caa3 9ebe
00000190: b60f 1b3e b7b4 68bd e51d 48be 12c4 0f3e
000001a0: f7b4 d5be e89e 803e 4dd5 42be eae4 3c3e
000001b0: 8273 8f3e 50f3 2abe c684 cfbe 4c90 65be
000001c0: c050 183e 0cdc 36be 19df a4bd 03cf 153d
000001d0: 48dd 2b3e dfac 2cbe 8290 25be 4b08 bb3e
000001e0: 1806 08be a82d 8e3e 3339 b23e 3070 b53e
000001f0: 8b97 cd3e 5d27 903b 3ae3 ab3e f167 a4bc
00000200: 9d83 de3e fc6e 93be 101c 2fbd f3e7 473e
00000210: 78a8 ec3d dda4 92be 8020 b7be a10a d93e
00000220: 2f98 da3e 8f4f d6be f617 c03d 88cb b13e
00000230: d633 ce3e 969a 0ebd 3900 d73e 6457 b8be
00000240: 19ab c8be d5d7 b8be c579 bcbe bf29 d3bc
00000250: e7a2 8cbe 5e8a 1a3e d5b3 91be 370d c13e
00000260: e082 7cbe 819f a0be 4727 f43d 1fef a33e
00000270: 3ed3 983e e38e 513b 46a1 1ebd 7885 823e
00000280: d728 6e3d af70 32be c2b3 59bc 94e5 c1be
00000290: d5bb 48bd e455 a73e 655a 663d a22a 473e
000002a0: 6962 683e d2d3 b33e dada 8e3d a4f6 b13e
000002b0: 0977 8d3d dbc5 e0bd 2b3c 35be 26e2 323d
000002c0: 3272 4e3e b2c9 84bd a3b0 abbe 8415 803e
000002d0: 1c68 20be d290 c3be e5a3 19be 0e3d 853e
000002e0: c079 8cbe 48d7 a0bb 8126 c0bd daf7 88bd
000002f0: d509 4a3e 7fe0 adbe bb23 d1be 91a9 7b3e
00000300: 00e0 4e3e 84cc 3e3e e70b d0be 6cbd 8e3d
00000310: cda6 963e 0db3 d33e 9485 5cbd 589a 76bd
00000320: a455 d0bd c616 5cbe c1f9 39be 5adf fcbb
00000330: 68e4 5dbe 1f4e e1bd eeb6 2abe 576e a43d
00000340: b705 ccbe cb41 c13e 4b22 ce3d c0e6 c8bc
00000350: d820 a3bc 05e8 6fbe 87c6 7dbd 3c4f 80be
00000360: c6c4 4c3e e4ff c93b ca81 0bbd b531 463e
00000370: cf38 463e 7bc6 d03e 3a9d b9be 2efe 99bd
00000380: e7ef b53e 2f87 babe 102c a73c 998a 2abe
00000390: 5f54 d83d 4177 c63e 7ea0 2dbb cc1f 8e3e
000003a0: 1bfa 8a3c b355 d4be c038 58bd a91a 34be
000003b0: 2951 b1be 76ac c43e 424f 8f3e fe43 253e
000003c0: ae85 9a3d b64b be3e 1e0b 6d3d 2a45 943e
000003d0: 7024 283e 30fd 82be 62c1 0bbe e897 073d
000003e0: 9bfd 9bbd 48b5 b2be 78aa 303d 0843 8abe
000003f0: 00bc babe b4c5 d7be 7378 a4bd e704 763e
0.1561944 0.3800888 0.1596511 0.3223508 -0.32901368 0.19029851 0.29054308 -0.41721493
0.21665947 0.16478911 -0.35676312 0.048024543 0.049798857 0.23202103 -0.15184061 -0.18880425
-0.34499303 -0.13624395 0.29626176 0.40390718 -0.27316573 -0.27956766 -0.2837359 -0.22776495
-0.38846162 -0.15303084 0.35278395 -0.096931905 -0.06557298 0.11398917 0.29053757 -0.26903567
0.3542475 0.22066836 0.24532235 -0.057532355 0.00091212953 -0.38170242 0.22283894 0.17405224
0.15306225 0.16551678 0.18662901 0.31506038 0.42164305 -0.14172 -0.35358098 0.14719838
0.13487405 0.09624401 -0.1830598 0.14788894 0.34011546 0.30136678 0.064136885 0.063756965
-0.26400334 0.19311132 0.3868911 -0.15856846 0.14786208 -0.3378314 0.15103509 0.32785684
0.484985 -0.04287097 -0.27055752 0.07062902 -0.021804817 -0.22524182 -0.39172128 0.41246232
0.33180344 -0.13813728 -0.14722241 0.05294264 -0.3579995 0.040470533 0.26354623 -0.36609554
0.047253873 -0.2178564 0.034176443 0.41109782 0.20021152 -0.20835908 -0.008005657 0.27908725
0.2942606 0.41680646 0.23240884 -0.35038203 0.15987606 0.003169332 0.19505124 -0.16180862
0.18283771 -0.27496758 0.24518688 -0.30984336 0.15142712 -0.056812968 -0.19542654 0.14039639
-0.41739628 0.25121236 -0.1902668 0.18446699 0.28017813 -0.16694379 -0.40530986 -0.22418326
0.14874554 -0.17857379 -0.08050365 0.036574375 0.16783631 -0.1686282 -0.16168407 0.36529765
-0.13283575 0.27769208 0.34809265 0.35437155 0.4015468 0.0043992237 0.33571798 -0.020069094
0.43459788 -0.28795612 -0.04275137 0.19522075 0.1155557 -0.28641406 -0.35766983 0.42390922
0.42694232 -0.41857573 0.0937957 0.34725595 0.40273923 -0.034815393 0.41992357 -0.36004174
-0.39193037 -0.36102167 -0.36811653 -0.025776742 -0.27468035 0.15091845 -0.28457513 0.37705395
-0.246593 -0.31371692 0.11921554 0.32018372 0.29848665 0.0031976036 -0.03872802 0.25492454
0.058144417 -0.17425798 -0.0132874865 -0.37870467 -0.049007256 0.32682717 0.05623855 0.19449857
0.2269379 0.35122544 0.069753364 0.34758484 0.0690747 -0.10975238 -0.17698734 0.043672703
0.2016075 -0.06483783 -0.335332 0.25016415 -0.15664715 -0.38196427 -0.15003927 0.26023144
-0.27436638 -0.004908476 -0.09382344 -0.06687899 0.19730313 -0.3396034 -0.40847573 0.24576403
0.20202637 0.18632704 -0.4063408 0.06969723 0.29424134 0.41347542 -0.053838328 -0.060205787
-0.10172585 -0.21493062 -0.1816168 -0.0077170553 -0.21669161 -0.110012285 -0.16671345 0.08028858
-0.3984811 0.3774551 0.100651346 -0.024524093 -0.019913122 -0.23428352 -0.06195691 -0.2506045
0.19996938 0.0061645377 -0.034059323 0.19354899 0.19357608 0.4077643 -0.36252767 -0.07519184
0.35534593 -0.36431262 0.020406753 -0.16654433 0.105629675 0.3876286 -0.0026493366 0.27758634
0.016964963 -0.41471633 -0.052788496 -0.17588295 -0.34632233 0.38412827 0.27990156 0.16139218
0.075450286 0.37167138 0.05787193 0.28959018 0.1642015 -0.25583792 -0.13647988 0.033103853
-0.07616731 -0.34903932 0.04313132 -0.27004266 -0.36471558 -0.42143023 -0.08030786 0.24025308

gconv.2.lins.1.weight f4 [16, 16]
00000000: b92f b93e feb8 c6be 43dc ac3e 2cf4 83bd
00000010: 9163 1fbd a8c5 0dbe c6ea 5bbc de80 d0be
00000020: 8035 823e 5848 d23e 77b9 a6be 555d af3e
00000030: 5b67 a23d 481b d83e 856b bdbe 6e1a 68be
00000040: e3fc afbe f949 cdbe 78b5 5ebe 74d8 933e
00000050: 8228 723e c766 bdbe 3d0f 123e 06ff 7bbe
00000060: 4db1 163e 61b7 1ebd ef33 d23e aae0 973e
00000070: e995 d73e 0dac 403e 5aa0 943e 4e06 b83e
00000080: daa8 a4be b84b e8bd 9905 67be 948d 883e
00000090: 0331 9dbe 1baa bbbc f5d8 b6be e827 ab3e
000000a0: 4658 583e 8294 90bd e5fb 48be f6b3 3cbe
000000b0: 65d9 783e 1e7c 4cbd 9671 7dbe cc54 a9be
000000c0: 18b0 0b3e 730f 703e 39a3 953e 9917 1ebe
000000d0: 0373 c5be 6ac6 4a3d 0067 adbd 6e19 8c3e
000000e0: f9bd 5ebe c81d f4bd 4447 c7be 7660 b93b
000000f0: 24de cbbb 548c f7bd e65d 77bb 88cd b53e
00000100: 9533 b0be e6a1 213e 5aab 143e e80b 3a3d
00000110: 32a3 c33e 1c7d 8a3d ce10 f9bd 68af 883e
00000120: 3e25 b23d 3dda 553e 3724 54bd 84a7 8f3e
00000130: 2607 353d db8c 94bd c678 bb3e 1b56 b5be
00000140: 9741 e63c 45c5 af3e 2a9c 59be 90aa 7c3d
00000150: e842 b0bd e9b0 dc3e b157 da3e 2e3c 783e
00000160: b4b0 6dbd 13d9 a9bd 9710 1c3d 773c 5dbe
00000170: bc44 44be 09ec 96be 675c e8bc cda5 2cbd
00000180: 1247 95bb 2657 c03e d8a5 7fbe 6d86 babe
00000190: 4780 c0be d749 17be 4999 913c ba28 2fbd
000001a0: 131d 193e 95a7 593d 4c3b 9f3e dca6 783e
000001b0: 73d8 913c 144f c23e 75a7 963e a807 ddbe
000001c0: b906 b23e 9a30 58be c1d6 763c 52f2 123e
000001d0: b093 0e3d 452d 97be c779 b73d d4e7 c13e
000001e0: 7352 a0bd 1153 94be d5d0 c13e d1a4 c63e
000001f0: 2bc2 683d 0950 dabe adaf b73e ecda c6be
00000200: b3b9 733d 5227 d5be f113 07be 008a aabe
00000210: 4035 243e a795 62bd beab c5be 7ff0 87bd
00000220: dd24 d5be 82b9 c1bc 2f11 61bd 9626 8bbd
00000230: 8c7f 20be dedc c8be fcaf de3c 1b14 d3be
00000240: 31af c5be 9137 ba3e 0e26 0d3e 6949 233e
00000250: 8474 d53c 33c2 bdbc f56c 193e 1edf 79be
00000260: d860 8e3e 02e9 5fbe 3528 a6be 9a81 263e
00000270: d8c1 7bbe e88e b0be dd16 99be 087a cc3e
00000280: 22eb 803e 47d6 6b3e 4dd9 b5bd 9a34 b43c
00000290: bf9c d23e 6169 db3e 94e9 c73c 5365 8fbc
000002a0: 4543 16be 6b92 3c3e 6a37 b0be 31a3 2cbe
000002b0: 48f9 cabd 328c c13e 4d61 d6be 4e8f c23e
000002c0: b7fe 453e e31e 1c3e c63f b3bc e501 033e
000002d0: 692e 37be 1a21 fdbb 8fb5 6fbe 9afb 853e
000002e0: a7cc 28be 13f7 0cbe 6f39 b2be 0329 4d3e
000002f0: d3cd 54bc 92da a5bd cf70 ac3e c3b9 96bc
00000300: 421c 79bd 3029 533b 23c1 11be 8c83 87be
00000310: de01 d73e 195c c8be 5822 de3c 81af ae3a
00000320: 1be0 1d3d 12ec 8a3e 4d8b afbe 59ff 393e
00000330: d755 8c3e 25a4 2e3e 00ac 34be 00e7 8fbe
00000340: 952e 9ebe 69ea dd3e 692e 0c3e cdac dbbc
00000350: d925 cd3c fda9 b7bd af30 53bd beaa b43e
00000360: a9a4 ba3e a4b2 08be dbe7 8ebe b995 d8bd
00000370: 4c7d 343d 5e0b 8bbe 0187 cb3d 946b 88be
00000380: 94d6 bb3e 284f 7f3e 6860 98be 8006 d1be
00000390: 63cb 983d 84c3 22be 1ccc 7b3e 6137 d03e
000003a0: 3b3b b03e 8ce5 a53e f86b 00bd 23f3 113e
000003b0: 61c4 38be f2d0 83ba 8d09 cfbe 27b9 19be
000003c0: f25d c3be a8dd 90be 5f04 dabc 39a2 523e
000003d0: 7ddc df3e 68ec 033e ccd9 df3e 894d 19bd
000003e0: 67c7 62be 9cde a73e f3d7 d3be 8a86 6b3d
000003f0: ac01 01be 7b0c c7be 632a 35be 9a57 b6be
0.36169222 -0.38813013 0.33761796 -0.064430565 -0.038913313 -0.13844931 -0.013422674 -0.40723318
0.25431442 0.4107082 -0.32563373 0.34250894 0.0792987 0.42208314 -0.36996093 -0.22666332
-0.34372625 -0.400955 -0.21748912 0.28876078 0.23648265 -0.36992475 0.14263625 -0.24609002
0.14716072 -0.038749103 0.41055247 0.29663593 0.4210656 0.18815632 0.2902859 0.3594231
-0.32160074 -0.11342567 -0.22560729 0.26670516 -0.30701455 -0.022908261 -0.357124 0.33428884
0.21127424 -0.070595756 -0.1962734 -0.18428025 0.2430168 -0.049923055 -0.24750361 -0.33072507
0.13641393 0.23443393 0.29226092 -0.1543869 -0.3856431 0.04950563 -0.08466911 0.2736315
-0.21752156 -0.11919743 -0.3892156 0.005657251 -0.0062215496 -0.12087312 -0.0037745177 0.3550837
-0.34414354 0.15784416 0.1451849 0.04542151 0.38210446 0.06762144 -0.12161408 0.26696324
0.0869851 0.20884033 -0.05179235 0.28057492 0.04419627 -0.072534285 0.3661558 -0.35417256
0.028107448 0.34330192 -0.21250978 0.0616861 -0.08606511 0.43103722 0.42645028 0.24241707
-0.058029845 -0.08293357 0.03810176 -0.21605097 -0.19166845 -0.29476956 -0.028364373 -0.042150307
-0.0045555914 0.3756649 -0.24965608 -0.36430684 -0.37597868 -0.14774261 0.017773287 -0.04276345
0.14952497 0.053138334 0.31099927 0.24282402 0.017803406 0.37950957 0.29424635 -0.43169904
0.34770754 -0.2111229 0.01506585 0.1435025 0.034808815 -0.29526725 0.08958774 0.37872183
-0.07828226 -0.28969625 0.3785464 0.3879762 0.056825798 -0.42639187 0.35876217 -0.388389
0.05950327 -0.41631562 -0.13191201 -0.3330841 0.16035938 -0.0553185 -0.3860759 -0.06637668
-0.41629687 -0.023648027 -0.05494803 -0.06794469 -0.15673655 -0.39231008 0.027183525 -0.41226277
-0.38610223 0.3637052 0.13784048 0.15945973 0.026056536 -0.02316389 0.1498297 -0.24401519
0.2780826 -0.21866229 -0.3245255 0.16260377 -0.24585664 -0.3448403 -0.29900256 0.39936852
0.25179392 0.23030959 -0.088793375 0.021997739 0.41135213 0.42853835 0.02440337 -0.01750437
-0.14674099 0.18415229 -0.34417278 -0.16859128 -0.09910828 0.37802273 -0.4187111 0.37999958
0.19335447 0.15246157 -0.021880995 0.12793691 -0.17888798 -0.0077248933 -0.23409103 0.2616852
-0.16484319 -0.13766126 -0.34809443 0.20035176 -0.012988525 -0.080983296 0.33679816 -0.018399125
-0.060817964 0.0032220595 -0.14233832 -0.2646755 0.41993612 -0.39132765 0.027115986 0.0013327451
0.0385438 0.27133232 -0.34285966 0.18163814 0.2740924 0.17054804 -0.17643738 -0.28105927
-0.30894914 0.43342903 0.13689579 -0.026815796 0.025042461 -0.089679696 -0.0515601 0.35286516
0.3645375 -0.13349396 -0.27911267 -0.10575432 0.044064805 -0.2715711 0.09937859 -0.26644576
0.36687148 0.2493254 -0.29761052 -0.40825272 0.07460668 -0.15894896 0.2458958 0.4066725
0.3442019 0.32401693 -0.031352967 0.14252906 -0.18043663 -0.0010056777 -0.40436974 -0.15012036
-0.38157612 -0.2829411 -0.026613412 0.20569696 0.43722907 0.1288315 0.43720853 -0.03742746
-0.22146378 0.32787025 -0.41375694 0.057501353 -0.12598294 -0.3887671 -0.1769195 -0.3561371
