pth/fold8.pth (torch, 639596 bytes, 46 tensors)

gconv.0.lins.0.weight f4 [16, 2000]
0	0xbcf84749	-0.030307429
1	0x3c405b08	0.011740454
2	0xbd1a28b2	-0.037636466
3	0xbd40a53a	-0.047032572
4	0xbc6e8ba9	-0.014559665
5	0x3bfdfa84	0.007750811
6	0xbcecc75d	-0.028903658
7	0xbcc57c69	-0.024107175
8	0x3cf1dc1c	0.029523902
9	0xbb2837ba	-0.0025667981
10	0xbba472d5	-0.005018572
11	0xbc7ddc56	-0.015494427
12	0x3d345ee0	0.044035792
13	0x3a9cde50	0.001196811
14	0xbc52b9be	-0.012861667
15	0x3b148fef	0.00226688
16	0xbd43b2a8	-0.0477778
17	0xbacc995a	-0.0015609667
18	0xbd3a5ca6	-0.045498513
19	0xbd7a9d1a	-0.06118498
20	0xb99a0267	-0.0002937496
21	0xbbdda265	-0.0067637437
22	0xbd7ddf6a	-0.061980642
23	0xbd122903	-0.035683643
24	0x3ceda58c	0.029009603
25	0xbba8c127	-0.0051499787
26	0x3cf6d613	0.030131375
27	0xbd27626b	-0.040865343
28	0xbc9ca9fa	-0.01912402
29	0xbc3f43c5	-0.011673872
30	0xbcd191bf	-0.025582192
31	0x3d047f29	0.032347832
32	0xbd52fa41	-0.051508192
33	0x3d1412bd	0.036150683
34	0xbca0f517	-0.019648118
35	0xbbaa6ca1	-0.005200938
36	0xbd6d8533	-0.057988357
37	0x3d029c05	0.031887073
38	0xbd6299b0	-0.05532235
39	0xbcf5e4d4	-0.03001634
40	0xbd3882b2	-0.045046516
41	0xbd023c48	-0.03179577
42	0xbcddad01	-0.027060034
43	0x3d2bf74a	0.04198388
44	0xbc76ec17	-0.015070937
45	0xbb79314f	-0.0038023775
46	0xbd56e6bb	-0.052466135
47	0xbd7665de	-0.060155742
48	0xbcbe3578	-0.023218855
49	0x3d01c007	0.031677272
50	0x3cbf941c	0.023386054
51	0x3d0e552f	0.034749206
52	0xbc789902	-0.015173199
53	0xbd015633	-0.031576347
54	0x3d1e6787	0.03867295
55	0xbb971c12	-0.0046115005
56	0xbc65f9aa	-0.014036575
57	0xbb256f21	-0.002524324
58	0x3d21c1d8	0.039491504
59	0xbceba376	-0.028764468
60	0xbcc8d742	-0.024516705
61	0xbd51c093	-0.051209044
62	0x3ce91230	0.028451055
63	0xbcc202d5	-0.023682991
64	0x3c0da166	0.008644437
65	0x3b1b4ed7	0.0023698115
66	0x3d2ea14f	0.042634305
67	0x3a23ff03	0.0006255956
68	0xbd6881f7	-0.05676457
69	0xbd476d87	-0.048688438
70	0xbc71635b	-0.014733161
71	0xbd51885e	-0.05115544
72	0xbc252450	-0.010079458
73	0xbd05f397	-0.03270301
74	0x3cac0781	0.020999672
75	0xbd36cea2	-0.044630654
76	0x3d228eef	0.039687093
77	0x3c3c7f27	0.011504925
78	0xbd474cce	-0.04865723
79	0xbbbeb841	-0.0058203046
80	0xbd351a8d	-0.044214774
81	0xbc3b4c39	-0.011431747
82	0xbc9b5762	-0.018962566
83	0x3cb53587	0.02212025
84	0xbd4ac334	-0.049502566
85	0xbc917f01	-0.017760755
86	0x3cf999e3	0.030468887
87	0xbbb0f4c2	-0.005400271
88	0xbd24f796	-0.04027518
89	0xbc6bf2f5	-0.014401187
90	0xbb458efe	-0.0030145044
91	0xbd69cb32	-0.057078548
92	0x3c501e25	0.0127024995
93	0x3d0566bd	0.032568682
94	0x3c9e49fe	0.019322392
95	0x3d35fc97	0.04443034
96	0x3b158816	0.002281671
97	0x3d2dcb64	0.042430297
98	0xbd318df2	-0.04334826
99	0xbcc1a004	-0.023635872
100	0x3c302470	0.010750875
101	0xbca3a2de	-0.019975122
102	0x3cdcb3fd	0.026941294
103	0xba9ee832	-0.0012123643
104	0x3d1404c0	0.036137342
105	0xbd240116	-0.040040098
106	0xbc819377	-0.015817387
107	0xbd5aba00	-0.05340004
108	0x3a0e3d06	0.00054259633
109	0xbac2fb6e	-0.0014875957
110	0xbc8ce55c	-0.01719921
111	0x3aa3ae7f	0.0012487917
112	0xbc0c2923	-0.00855473
113	0xbd0d01cf	-0.034425553
114	0x3d350353	0.044192623
115	0x3d2400dd	0.040039886
116	0x3b338976	0.0027395166
117	0xbd5ad855	-0.053428967
118	0x3d11872a	0.035529293
119	0xbcf2bae8	-0.02963014
120	0xbc0aa366	-0.008461809
121	0x3d192b6b	0.037394922
122	0x3c77bfe5	0.015121435
123	0xbd1fc4a4	-0.03900589
124	0xbd218f61	-0.039443377
125	0xbd110474	-0.035404637
126	0x3c851495	0.016245166
127	0xbc9d9fa8	-0.01924117
128	0xbc805333	-0.015664672
129	0x3c3628ae	0.011118097
130	0x3c4dcb41	0.012560667
131	0xbc4e0fff	-0.012577056
132	0x3cbbec74	0.022939898
133	0xbcfbf470	-0.030756205
134	0xbc6e103b	-0.014530237
135	0x3d10133d	0.035174597
136	0x3b5f969d	0.0034116872
137	0x3cbd929c	0.023141198
138	0xbd723473	-0.05913205
139	0xbca08773	-0.019595837
140	0xbc36ca1d	-0.011156586
141	0xbd5d1462	-0.053974517
142	0xbd45947d	-0.048237313
143	0x3c94d104	0.018166073
144	0xbd59c1bb	-0.05316327
145	0x3b54e89d	0.003248728
146	0x3a7346fc	0.0009280292
147	0x3bdabd6e	0.006675414
148	0xbcbae771	-0.022815438
149	0xbd3cd613	-0.046102595
150	0xbca85d67	-0.02055235
151	0xbcfa03ae	-0.030519333
152	0x3d11b81f	0.035575982
153	0xbd55ee88	-0.052229434
154	0x3c5afab3	0.013365435
155	0xbd5c0df8	-0.05372426
156	0xbc67dea6	-0.014152205
157	0x3d06c496	0.032902323
158	0x3d1fd4ad	0.039021183
159	0xbc815570	-0.01578781
160	0xbd50bef0	-0.050963342
161	0xbd4d3bb4	-0.050105765
162	0x3cb31861	0.02186221
163	0xbcedc48e	-0.029024389
164	0x3d170f30	0.03687972
165	0xbd48ca12	-0.049020834
166	0xbcc49c4e	-0.024000313
167	0x3d138dfc	0.03602408
168	0x3b4de119	0.0031414686
169	0x3ca4bba6	0.020109009
170	0x3c95d3aa	0.018289406
171	0xbd0292dc	-0.031878337
172	0x3c340222	0.010986837
173	0xbd4efd27	-0.050534394
174	0xbcb022d8	-0.02150099
175	0xbd0e9c10	-0.0348168
176	0xbc79f0b9	-0.015255147
177	0xbc2099e4	-0.009802315
178	0x3cacedbb	0.021109452
179	0x3d2a9b43	0.041651975
180	0x3cf35376	0.029702883
181	0x3b9f7f1e	0.0048674485
182	0x3d24b745	0.040213842
183	0xbd3f31b8	-0.046678275
184	0x3b91f76d	0.0044545443
185	0x3c60f693	0.013730663
186	0x3cae64e3	0.02128834
187	0x3cbe5b8b	0.02323701
188	0xbc8982d1	-0.016786011
189	0x3d2544e0	0.040348887
190	0xbd3fd4ce	-0.046833806
191	0xbd335e32	-0.043791004
192	0xbd314192	-0.043275423
193	0xbd07a0c3	-0.0331123
194	0xbbba9d3e	-0.0056950143
195	0x3cdd90ff	0.027046679
196	0xbd74219d	-0.05960237
197	0xbd75887b	-0.05994461
198	0x3cb344ae	0.021883335
199	0xbd3a847c	-0.045536503
200	0x3bbd4f81	0.0057773
201	0x3bb90d7e	0.0056473603
202	0x3c3bfeca	0.011474321
203	0xba7cb853	-0.00096405036
204	0xbd2ae9db	-0.04172693
205	0xbc014760	-0.007890552
206	0x3cf5286d	0.029926503
207	0xb8e39c82	-0.00010853355
208	0xbd430b04	-0.047617927
209	0xbd23f789	-0.04003099
210	0xbd665683	-0.056234848
211	0x3c8418c3	0.016125089
212	0xbd1eebd9	-0.03879914
213	0xbc941119	-0.018074559
214	0xbd395821	-0.045250062
215	0x3b499c95	0.0030763496
216	0xbd028e88	-0.03187421
217	0xbb7c78a6	-0.003852406
218	0xbd2d3757	-0.042289104
219	0x3d0d60b7	0.034516063
220	0xbc8ca332	-0.017167661
221	0x3cad42d7	0.021150036
222	0xbcd39a5f	-0.025830446
223	0xbd5329d5	-0.051553566
224	0xbd558729	-0.052130852
225	0x3c90a960	0.01765889
226	0xbc318f4c	-0.010837387
227	0xbd0b1b5e	-0.033961646
228	0xbd0348cb	-0.032051843
229	0xbd3bc685	-0.04584362
230	0xbd1b36a5	-0.03789391
231	0xbd2fe4aa	-0.04294268
232	0xbd450d8e	-0.04810863
233	0xbc32a748	-0.010904141
234	0xbd7e71a9	-0.062120114
235	0x3d1e1a4c	0.038599297
236	0x3d028715	0.031867106
237	0xbccd7140	-0.025078416
238	0x3ce23b63	0.027616208
239	0xbc7a442c	-0.0152750425
240	0xbd5ab1cc	-0.053392217
241	0xbc12c1e9	-0.008957365
242	0xbd12c90b	-0.03583626
243	0xb947f54a	-0.00019069496
244	0x3d036577	0.032079186
245	0xbd5c156c	-0.053731367
246	0xbbd0ed50	-0.006375946
247	0xbd380bbf	-0.044933077
248	0x3c16fc04	0.009215359
249	0x3babc2cb	0.005241727
250	0xbd5a2239	-0.053255294
251	0x3c9f9a6e	0.019482818
252	0x3c5864da	0.013207639
253	0xbd354008	-0.044250518
254	0xbc7c115c	-0.015384998
255	0xbc9438a4	-0.018093415

gconv.0.lins.1.weight f4 [16, 2000]
0	0x3ca284c6	0.019838702
1	0x3c8246ce	0.015902903
2	0xbce91417	-0.028451962
3	0xbce90330	-0.028443903
4	0xbcaeea01	-0.021351816
5	0x3cdf86ce	0.02728596
6	0xbd2f10ea	-0.04274074
7	0xbd1b1865	-0.03786506
8	0x3d1e61f8	0.03866765
9	0x3d297136	0.041367732
10	0x3cc6de45	0.024275908
11	0xbd2fb5b2	-0.042897888
12	0x3cff1ac0	0.031140685
13	0x3d873375	0.066016115
14	0x3ceb162e	0.0286971
15	0x3c98df8e	0.018661287
16	0x3d2b9cdc	0.04189764
17	0xbcec9b82	-0.028882746
18	0x3d37e5ba	0.04489682
19	0xbd39b965	-0.04534282
20	0xbc8cf3ac	-0.017206036
21	0xbb818dfa	-0.0039536925
22	0x3b97b0b4	0.004629219
23	0x3d41ca46	0.047312044
24	0xbca2ee3a	-0.019888986
25	0x3d0c21c6	0.034211896
26	0xbb9b142c	-0.0047326293
27	0x3d2c72df	0.042101737
28	0xbd24872a	-0.040167965
29	0xbc9088ff	-0.01764345
30	0xbc3ea5e4	-0.011636231
31	0xbc3b16bd	-0.011418995
32	0x3bba828c	0.005691832
33	0x3cd8008c	0.026367448
34	0x3d03f9aa	0.03222052
35	0xbd151a17	-0.036401834
36	0x3cf72252	0.030167732
37	0xbab26105	-0.0013609236
38	0x3ceaa514	0.028643169
39	0x3cd13f66	0.025542926
40	0xbb8a31de	-0.0042173704
41	0x3cc270c9	0.02373542
42	0xbc1bfa41	-0.009520114
43	0xbbb8d44e	-0.005640543
44	0x3d058b40	0.032603502
45	0x3c878c79	0.016546475
46	0x3cec4549	0.028841631
47	0xbd1bd699	-0.038046453
48	0xbb7d8bd4	-0.003868808
49	0xbc143377	-0.009045473
50	0xbd1b7230	-0.037950695
51	0x3d0f6ae1	0.035014037
52	0xbd0178ff	-0.03160953
53	0x3d62b5e5	0.05534925
54	0xbd1310ed	-0.035904814
55	0xbd0c1826	-0.034202717
56	0x3d520162	0.05127085
57	0xbc01c5ff	-0.007920741
58	0x3d0da26f	0.034578737
59	0x3d029994	0.031884745
60	0x3d6f5454	0.05843003
61	0x3d1dbee9	0.038512144
62	0xbc8da4e0	-0.017290533
63	0x3d45ca4e	0.048288636
64	0x3d322084	0.04348804
65	0x3c2a0bd9	0.010378801
66	0xbbe066a2	-0.0068481723
67	0xbcaa8c7a	-0.020818938
68	0xbcc3dd89	-0.023909347
69	0x3d172d65	0.036908526
70	0xbd19138b	-0.037372153
71	0x3d1f40e8	0.03888026
72	0x3caf07c2	0.021366004
73	0x3cf32fba	0.029685844
74	0x3d1bf850	0.038078606
75	0x3ce6527d	0.028115505
76	0xbce7b107	-0.028282655
77	0x3d6ad7de	0.057334773
78	0xbb4c6c23	-0.0031192384
79	0x3d2c7d71	0.042111818
80	0xbc54488f	-0.012956752
81	0xbca25418	-0.01981549
82	0x3c211103	0.009830716
83	0x3d6070d5	0.054795105
84	0x3d358a95	0.044321615
85	0x3c9a322a	0.018822748
86	0x3d78cb7b	0.06074093
87	0x3c15d93b	0.00914603
88	0x3c9106d2	0.017703447
89	0x3d3f118e	0.0466476
90	0x3d63e223	0.055635583
91	0xbd1ea89e	-0.038735025
92	0x3d292890	0.04129845
93	0x3d0e4a5e	0.03473889
94	0x3cc470fc	0.023979656
95	0xbafd27b3	-0.00193142
96	0x3d2bad61	0.041913394
97	0x3d7be247	0.06149509
98	0x3ba8eaf7	0.005154963
99	0x3ccce4a2	0.025011364
100	0x3d16de77	0.036833253
101	0x3d0c386b	0.034233492
102	0x3d000629	0.031255875
103	0x3d361142	0.044450052
104	0x3d6b42fb	0.057436924
105	0xbce4afdd	-0.02791589
106	0xbc8476ea	-0.016169984
107	0x3d3ab931	0.04558677
108	0xbd1827ed	-0.03714745
109	0xbd21969a	-0.039450265
110	0x3a1ac451	0.0005903887
111	0x3cb80955	0.022465387
112	0x3d7473a6	0.059680603
113	0xbc087eee	-0.008331044
114	0x3d44691e	0.04795181
115	0x3d5445da	0.05182443
116	0x3d3cb877	0.046074357
117	0x3d6e1271	0.058123056
118	0xbc82dbb8	-0.01597391
119	0x3d02c205	0.031923313
120	0x3c84f096	0.016228002
121	0xbc7baad5	-0.015360554
122	0x3cf1bc97	0.029508872
123	0x3d57ff53	0.05273373
124	0x3c3fd920	0.0117094815
125	0x3cb769d6	0.022389334
126	0xbcc31ff8	-0.023818955
127	0xbbb10144	-0.005401762
128	0xbc8f9867	-0.017528726
129	0xbc2f78a3	-0.010709914
130	0x3b6676e9	0.003516609
131	0xbc4d5241	-0.012531818
132	0x3d00b020	0.031417966
133	0x3d3559a1	0.04427493
134	0x3c9ebe48	0.019377843
135	0x3d441b1a	0.04787741
136	0x3b5efb48	0.0034024287
137	0x3d14dcf2	0.036343522
138	0x3c89f941	0.016842486
139	0xbc01b3b8	-0.007916383
140	0x3d735fba	0.059417464
141	0xbcebcc62	-0.02878398
142	0xbc6ac4dd	-0.014329162
143	0x3d236717	0.039893236
144	0x3cb66704	0.022265919
145	0x3d31ebe5	0.043437857
146	0xbd245740	-0.04012227
147	0x3c718ab8	0.014742546
148	0x3d7b0c33	0.06129093
149	0x3c17d68d	0.0092674615
150	0x3d4ace90	0.0495134
151	0x3c11862b	0.008882086
152	0xb976f9f3	-0.00023553502
153	0x3d48cd3c	0.04902385
154	0xbbb9a7ca	-0.005665754
155	0x3bf7e145	0.007564696
156	0x3d65787c	0.056023106
157	0x3d609a21	0.05483449
158	0x3cd4b357	0.025964422
159	0x3c6c18ce	0.014410211
160	0xbcbaaa91	-0.02278641
161	0x3d274f2a	0.04084698
162	0xbccad037	-0.024757488
163	0x3baa8bec	0.0052046683
164	0xbbcab88d	-0.006186551
165	0x3cd0f3a7	0.025506807
166	0x3c8c69c9	0.017140286
167	0x3cf9f1c1	0.030510785
168	0x3c61e337	0.013787082
169	0xbc46c628	-0.012132205
170	0xbc9e8eea	-0.019355256
171	0xbcdf291f	-0.027241288
172	0x3d375639	0.044759963
173	0x3d2485be	0.04016661
174	0xbcbbff50	-0.02294889
175	0xbd205347	-0.03914192
176	0x3c33f975	0.010984768
177	0xbce463d6	-0.027879637
178	0x3d84879c	0.06471178
179	0x3d5750e5	0.05256738
180	0xbd12d835	-0.035850722
181	0xbc3ac694	-0.011399884
182	0x3ca1c875	0.019748906
183	0xbc80a848	-0.015705243
184	0x3b3b5c8e	0.0028589102
185	0x3d8638c4	0.06553796
186	0x3c888e81	0.016669514
187	0x3d32348b	0.04350714
188	0xbc7431d5	-0.014904459
189	0x3c1dbdfe	0.009627817
190	0x3d28867d	0.041143883
191	0xbc97bf73	-0.018523907
192	0x3d08c02d	0.033386398
193	0x3d7c9236	0.061662875
194	0x3d6e2520	0.058140874
195	0xbca0d755	-0.019633928
196	0x3d0ffe1a	0.03515444
197	0x3d75d723	0.060019623
198	0x3ce99fe8	0.028518632
199	0xbcd350ed	-0.025795424
200	0xbb8321d4	-0.0040018354
201	0xbc70c42a	-0.014695207
202	0x3ba2cc29	0.0049681854
203	0x3cf1c4a4	0.02951271
204	0x3c1481a8	0.009064116
205	0xbd1e5f71	-0.03866524
206	0x3d0007d9	0.031257484
207	0x3d693e29	0.056944046
208	0x3d832d72	0.064051524
209	0x3d1e62b0	0.038668334
210	0x3d2ce6d9	0.04221234
211	0x3cb37f6a	0.021911342
212	0x3d73802d	0.05944841
213	0x3d1bcaaf	0.03803509
214	0xbd0512df	-0.0324887
215	0x3d2f0d51	0.04273731
216	0x3c292844	0.0103245415
217	0x3d0d8b88	0.034556895
218	0x3c3da196	0.01157417
219	0xbccdfa71	-0.025143834
220	0x3c1a3b14	0.009413499
221	0x3cdc01a3	0.02685625
222	0x3a7882b4	0.00094799255
223	0xbbab8b4b	-0.005235111
224	0xbd144e90	-0.036207736
225	0x3c626b1a	0.01381948
226	0x3d6dec77	0.05808684
227	0xbcaee456	-0.021349113
228	0xbc27b7b4	-0.010236669
229	0x3acf16d6	0.0015799652
230	0xbc03a97b	-0.008036013
231	0xbb66162b	-0.0035108428
232	0x3cda8811	0.02667621
233	0xbd071e1a	-0.03298769
234	0x3d23f53f	0.040028807
235	0x3d123d88	0.035703212
236	0x3a3e3730	0.00072561484
237	0x3d54909f	0.051895734
238	0x3cacd862	0.021099273
239	0x3c663f8e	0.014053239
240	0x3d3a4ba0	0.045482278
241	0xbaf8a706	-0.0018970675
242	0xbd1c4125	-0.038148064
243	0x3cb1e51f	0.021715699
244	0x3d4f491a	0.050606824
245	0xbbf3c55f	-0.0074393
246	0x3d798099	0.060913656
247	0xbb954bf1	-0.004556172
248	0x3c8b85b9	0.017031537
249	0x3d44dfab	0.04806487
250	0xba0b9799	-0.0005325019
251	0xbd225df1	-0.03964037
252	0x3d632baf	0.05546158
253	0x3b873603	0.0041263117
254	0xbd3ed3e0	-0.04658878
255	0xbd0292ce	-0.031878285

gconv.0.lins.2.weight f4 [16, 2000]
0	0xbd3131b1	-0.04326028
1	0x3c60cee1	0.013721199
2	0x3cbd5da6	0.023115944
3	0x3d106b02	0.0352583
4	0xbc938992	-0.018009935
5	0xbce1d503	-0.027567392
6	0xbbd1fe49	-0.006408487
7	0x3cf628c5	0.030048737
8	0x3cc6fe33	0.024291134
9	0xbd4a1376	-0.049334966
10	0xbd0871fd	-0.033311833
11	0x3c3acf46	0.011401957
12	0x3ca0fbaa	0.019651253
13	0x3cf90131	0.030396076
14	0x3d42608f	0.047455367
15	0x3d0c27b2	0.034217544
16	0xbcbf8b84	-0.023381956
17	0x3c8be30a	0.017076034
18	0x3d18bb2e	0.037287883
19	0x3d3cc92c	0.04609029
20	0xbd48ab75	-0.04899164
21	0xbd2ada00	-0.041711807
22	0x3cf100c0	0.029419303
23	0xbd599edc	-0.053130016
24	0xbd3f9376	-0.04677149
25	0xbd52238b	-0.051303428
26	0x3d1f5694	0.038900927
27	0xbd063132	-0.03276176
28	0xba58f042	-0.00082755473
29	0xbcac89b2	-0.021061752
30	0x3d2ee5e5	0.042699713
31	0xbd0551e9	-0.03254882
32	0xbc8a6060	-0.016891658
33	0x3ce34f20	0.02774769
34	0xbc48e210	-0.012260929
35	0xbb52b48f	-0.0032151078
36	0x3d31a4b4	0.043369964
37	0xbbfd8603	-0.0077369227
38	0xbcdb631b	-0.026780656
39	0xbccdfb16	-0.025144141
40	0x3c880b32	0.0166069
41	0xbd62a6de	-0.05533492
42	0xbd2a8464	-0.041630164
43	0x3d3abcd6	0.045590244
44	0x3cf7a456	0.030229729
45	0x3c9ba734	0.019000627
46	0xbcdc7462	-0.026910964
47	0xbd46f3e8	-0.04857245
48	0x3d3be38c	0.045871302
49	0x3c3454fc	0.01100659
50	0x3d4e94bb	0.05043481
51	0xbcc41f1d	-0.023940617
52	0x3caae92e	0.020863142
53	0x3cc503bb	0.02404963
54	0x3d0d98a9	0.034569416
55	0x3c58352e	0.013196273
56	0x3cfff907	0.031246675
57	0x3d4db803	0.050224315
58	0x3d1a5566	0.0376791
59	0x3cd7a71f	0.026324807
60	0x3a923e26	0.0011157438
61	0xbd4499ca	-0.047998227
62	0x3d3d9ccd	0.046292115
63	0xba87f53a	-0.0010372766
64	0xbc7b2d02	-0.015330555
65	0xbd4cb26f	-0.049974855
66	0xbcb54fed	-0.022132838
67	0x3d157917	0.036492433
68	0xbd3da92b	-0.04630391
69	0x3d032c7a	0.032024838
70	0xbd31a8a8	-0.043373734
71	0x3c295155	0.0103343325
72	0xbd0a4404	-0.03375627
73	0x3cbd31cc	0.023095034
74	0x3c8184ab	0.015810331
75	0xbca9c10d	-0.020721937
76	0x3d45886c	0.048225805
77	0xbd008242	-0.031374224
78	0xbc830791	-0.015994819
79	0x3cd658e3	0.026165431
80	0x3bd00301	0.0063480143
81	0x3c80a15a	0.015701938
82	0x3d13ea1e	0.036111943
83	0x3c304353	0.010758239
84	0xbd0f8f9b	-0.035049062
85	0xbcbf681f	-0.023365078
86	0xbc55f8ac	-0.013059776
87	0xbd1ae3a6	-0.03781476
88	0xbd1528fa	-0.03641603
89	0x3b8139b8	0.003943648
90	0x3b16f5a5	0.00230346
91	0x3d03c838	0.032173365
92	0xbd432861	-0.04764593
93	0x3d183d8d	0.037168074
94	0xbcd37a62	-0.025815193
95	0x3d428c43	0.047497045
96	0xbcbc0b34	-0.02295456
97	0xbd5d176a	-0.053977408
98	0x3d4d32ce	0.05009728
99	0x3d703de4	0.058652773
100	0xbc23781c	-0.009977367
101	0xbd3b6c5f	-0.045757648
102	0xbc22fdb3	-0.009948182
103	0x3d5beee6	0.05369463
104	0xbcc3374a	-0.023830075
105	0xbc56ec44	-0.013117854
106	0xbc8e64e6	-0.017382096
107	0xbcb14109	-0.021637456
108	0x3d5341b8	0.051576346
109	0x39f01117	0.000457891
110	0xbd1dd6dd	-0.038534988
111	0xbd518078	-0.051147908
112	0xbcf15080	-0.02945733
113	0x3c923f0e	0.017852332
114	0xb99f732d	-0.00030412656
115	0x3ca5faeb	0.020261249
116	0xbbbc83a6	-0.0057529984
117	0xbd4aa83b	-0.049476843
118	0x3cf8a5e7	0.030352546
119	0x3c8fa1cd	0.017533207
120	0xbd22d168	-0.039750487
121	0x3c69794e	0.014250113
122	0x3c2c203e	0.010505734
123	0xbcc0387c	-0.023464434
124	0xbd591de7	-0.053007033
125	0xbce63a40	-0.028103948
126	0xbc7cbf21	-0.015426428
127	0xbd07a0b1	-0.03311223
128	0x3d205842	0.03914667
129	0x3d4d5638	0.050131053
130	0xbd1e4e20	-0.038648725
131	0xbd013de9	-0.031553183
132	0xbd50040c	-0.05078511
133	0x3d1f2fdb	0.038863998
134	0x3d0cdd28	0.0343906
135	0xbd12d6f9	-0.035849545
136	0xbc62f3e8	-0.013852097
137	0x3d21a3f5	0.039463002
138	0x3d337a67	0.043817904
139	0x3af7d410	0.0018907804
140	0x3d237d06	0.039914154
141	0xbc6c3626	-0.014417207
142	0x3ce4ec0b	0.027944585
143	0x3b47e8e1	0.0030503797
144	0xbcdfc8ef	-0.027317492
145	0xbd2785a2	-0.040898927
146	0x3d098212	0.03357131
147	0xbd177bca	-0.03698329
148	0xbd1e2757	-0.038611736
149	0x3d54732d	0.051867653
150	0x3d360d9f	0.044446584
151	0x3bdc4357	0.0067218947
152	0xbce14399	-0.027498053
153	0xbcfa1d5b	-0.030531576
154	0xbd4f5439	-0.05061743
155	0x3d0d1435	0.0344431
156	0x3bac01d7	0.0052492428
157	0xbd6c21e1	-0.057649497
158	0xbd095f50	-0.033538163
159	0x3d2cfe05	0.04223444
160	0x3cd25dde	0.025679525
161	0xbc202c2b	-0.009776155
162	0xbd49f952	-0.049310036
163	0xbcfb9760	-0.03071183
164	0xbd119ccc	-0.035549924
165	0xbcf5a0a1	-0.02998382
166	0xbc2ebfbb	-0.010665829
167	0xbcbe20c5	-0.023208985
168	0x3c03de8f	0.008048668
169	0x3c302e78	0.0107532665
170	0x3d01a09d	0.031647313
171	0xbcd6ff84	-0.026244886
172	0xbd23684c	-0.039894387
173	0x3d0e9df2	0.034818597
174	0xbc319609	-0.010838994
175	0x3d49d1a1	0.049272183
176	0xbd488c06	-0.04896166
177	0xbbb75b72	-0.005595618
178	0xbb45a976	-0.003016082
179	0xbd17d4f9	-0.03706834
180	0xbd23517c	-0.03987263
181	0xbd217108	-0.039414436
182	0x3d0e227f	0.034700867
183	0x3c5d3167	0.013500548
184	0xbd278c9b	-0.040905576
185	0xbc45b5cc	-0.0120672695
186	0x3d03d83d	0.032188643
187	0x3a707326	0.0009172432
188	0xbcda1ea4	-0.026625939
189	0x3ce5d1ee	0.028054204
190	0x3d4e2c5f	0.050335284
191	0xbd07af71	-0.0331263
192	0x3d0115e2	0.03151501
193	0x3d3b540c	0.04573445
194	0xbcacf76c	-0.021114074
195	0xbd60d1e2	-0.05488766
196	0xba8d79f4	-0.0010793791
197	0x3c9b8d91	0.018988403
198	0xbc90941c	-0.017648749
199	0x3d452081	0.0481267
200	0xbc8d85dc	-0.017275743
201	0x3b3a5332	0.0028430936
202	0xbd33c1ca	-0.043885984
203	0xbd2b11bd	-0.041764963
204	0xbbb61da0	-0.005557731
205	0xbd262e0b	-0.040571254
206	0x3d279f4e	0.04092341
207	0xbd0d8207	-0.034547832
208	0xbbb9d85e	-0.005671545
209	0xbd1fdebc	-0.039030775
210	0x3d2677ce	0.0406416
211	0x3d3ea020	0.046539426
212	0x3cbced16	0.02306227
213	0x3d1e50d8	0.038651317
214	0x3cf1b717	0.02950625
215	0xbd32fed1	-0.043700043
216	0x3d0a8e77	0.03382727
217	0x3c4b9fa8	0.012428202
218	0x3d5eb067	0.05436745
219	0xbcab7f2b	-0.020934662
220	0xbc16bc6c	-0.009200197
221	0x3ccd4647	0.025057925
222	0x3ca631ff	0.020287512
223	0xbd101e9c	-0.03518544
224	0xbd6b20f9	-0.057404492
225	0x3b066e05	0.0020512354
226	0xbd1afaab	-0.03783671
227	0x3bfeaf33	0.00777235
228	0x3ce6b3a4	0.028161831
229	0xbad33cc7	-0.0016116136
230	0xbd097f98	-0.03356895
231	0x3d45fa52	0.048334427
232	0xbcdeb642	-0.027186517
233	0xbcb020ee	-0.021500077
234	0xbb0a2591	-0.002107952
235	0xbd2770e0	-0.04087913
236	0x3cf85c17	0.03031735
237	0x3c2863c2	0.01027769
238	0xbca308f0	-0.019901723
239	0x3d5ad2f4	0.053423837
240	0x3b101720	0.002198644
241	0xbd52272f	-0.0513069
242	0x3d22e37a	0.03976772
243	0x3d4e0ab3	0.050303172
244	0xbd484abf	-0.04889941
245	0x3d3febaf	0.046855625
246	0xbd5136e6	-0.051077746
247	0xbd38bf88	-0.045104533
248	0x3cd88787	0.026431812
249	0xbcffb8ff	-0.031216143
250	0xbd089292	-0.033342905
251	0xbb3709d6	-0.0027929447
252	0xbbb84949	-0.0056239706
253	0xbd47a4e6	-0.048741244
254	0xbaeb8960	-0.0017970018
255	0xbd4dfdc4	-0.050290838

gconv.1.lins.0.weight f4 [16, 16]
0	0xbd836b02	-0.064168945
1	0x3b4b8fc5	0.0031061035
2	0x3e097f6f	0.13427518
3	0x3e101885	0.14071853
4	0xbd0c529d	-0.034258474
5	0xbebbeffb	-0.36706528
6	0xbd5d8e02	-0.054090507
7	0xbea6726b	-0.3250917
8	0xbe9f6c71	-0.31137422
9	0xbe3205fc	-0.17385095
10	0x3e9d5d70	0.3073535
11	0xbcddf778	-0.027095541
12	0xbe8407f8	-0.2578733
13	0xbdcacddd	-0.099025466
14	0x3db7a501	0.08967019
15	0xbe31cd9f	-0.17363594
16	0xbcc36197	-0.023850245
17	0xbe2ed372	-0.17072847
18	0x3e4f73bd	0.20258994
19	0xbeb3b944	-0.35102284
20	0xbd240719	-0.04004583
21	0xbc877d93	-0.01653937
22	0x3d39831b	0.045291048
23	0x3e623913	0.22092085
24	0xbe3ec8bd	-0.18631263
25	0xbd6a73c1	-0.057239298
26	0xbe699d63	-0.22813945
27	0xbcb3df60	-0.0219571
28	0xbe40423c	-0.18775266
29	0x3ec34693	0.3813978
30	0x3e1c2758	0.15249383
31	0xbe03f37d	-0.12885852
32	0xbca7e15d	-0.020493204
33	0x3e931bcb	0.28732142
34	0x3ec93671	0.39299348
35	0x3ea9dde2	0.33177096
36	0xbd41c214	-0.047304228
37	0x3ea2ab6b	0.31771407
38	0xbe267ecc	-0.16259307
39	0x3c342934	0.010996152
40	0xbe64c91e	-0.22342345
41	0x3df045a3	0.11732032
42	0xbed55038	-0.41662765
43	0xbc13f61e	-0.009030847
44	0xbeb99457	-0.36245987
45	0xbeb698a2	-0.35663325
46	0x3e0a7ecf	0.13524936
47	0xbe872415	-0.26394716
48	0x3e4fb844	0.20285136
49	0x3e1baefd	0.15203471
50	0xbeba1ce8	-0.3635018
51	0xbe96bc28	-0.29440427
52	0x3e8ee12d	0.2790617
53	0x3ed344b5	0.41263357
54	0x3d4b07b1	0.049567882
55	0xbec45b9c	-0.38351142
56	0x3ea7dfde	0.32787985
57	0xbe3f361a	-0.18672982
58	0xbeb94884	-0.36188138
59	0xbe215893	-0.15756445
60	0x3eb6a001	0.35668948
61	0x3d14cd32	0.036328502
62	0xbdd3a549	-0.1033426
63	0xbe2705bb	-0.1631078
64	0x3ebecae8	0.3726418
65	0xbc84f057	-0.016227884
66	0xbec29339	-0.38002947
67	0x3e105923	0.14096503
68	0x3dac12e0	0.084020376
69	0xbe23f83d	-0.16012664
70	0x3eb06e94	0.34459364
71	0xbe8d8480	-0.27640152
72	0xbeb3188a	-0.3497966
73	0xbae0dafb	-0.0017155105
74	0xbd69f5fc	-0.057119355
75	0xbe936548	-0.2878821
76	0xbe7705f5	-0.24123366
77	0xbeae456f	-0.3403735
78	0xbe9b1abb	-0.3029383
79	0xbe180f48	-0.1484958
80	0x3d3883ab	0.045047443
81	0x3e56b2a6	0.20966586
82	0xbe39b962	-0.18137124
83	0xbed7ad70	-0.4212451
84	0x3d36ef82	0.044662006
85	0x3d0f5211	0.034990374
86	0x3e49e2bf	0.19715403
87	0xbd51a03e	-0.05117821
88	0xbdeff576	-0.1171674
89	0xbe558fd7	-0.20855652
90	0x3ec3e65b	0.38261685
91	0xbe5245d9	-0.20534457
92	0x3eb62863	0.35577688
93	0xbed38eb6	-0.41319817
94	0x3e8966cb	0.26836237
95	0x3e1d3f27	0.15356122
96	0x3ec42ed9	0.38316992
97	0xbe5ab9c6	-0.2135993
98	0xbb2e06df	-0.0026554388
99	0xbc40a8e4	-0.011759017
100	0xbea8676e	-0.3289141
101	0xbbf7f4b5	-0.007567013
102	0xbe91fabd	-0.2851161
103	0xbe1c90a2	-0.15289548
104	0xbda5a4fc	-0.08088109
105	0x3e6b8736	0.23000798
106	0xbde6190d	-0.11235247
107	0x3ca3fb62	0.02001733
108	0xbec9453c	-0.39310634
109	0x3ebe3148	0.37146974
110	0xbec3b454	-0.38223517
111	0x3e001dbc	0.12511343
112	0xbeb6797e	-0.35639566
113	0xbcf1bb6c	-0.029508315
114	0xbe9ca107	-0.30591604
115	0x3ebecf15	0.37267366
116	0x3e1a523d	0.15070434
117	0x3e01036a	0.12598959
118	0xbe8b497b	-0.272045
119	0x3d61ddd7	0.055143204
120	0xbed631ee	-0.41834968
121	0xbdbf7996	-0.093493626
122	0x3d46e25d	0.04855572
123	0x3e6f7905	0.23386009
124	0x3e89331a	0.267968
125	0xbe2d2930	-0.16910243
126	0xbe2d45f2	-0.16921213
127	0x3cd2cc5c	0.025732212
128	0x3ebe6364	0.37185204
129	0xbeacc5f4	-0.33744776
130	0xbe9f4d56	-0.3111369
131	0xbea65b5c	-0.32491577
132	0xbebdeda3	-0.37095365
133	0xbeae3f9c	-0.34032905
134	0x3ecd24cf	0.40067145
135	0xbebfcc6b	-0.37460646
136	0x3e53cc77	0.20683466
137	0x3eace196	0.33765858
138	0xbdfbfec6	-0.123044536
139	0xbe2c07dc	-0.16799873
140	0x3eb665cb	0.35624537
141	0xbda1ec3a	-0.07906385
142	0x3e82beec	0.25536287
143	0xbe010ed1	-0.12603308
144	0x3d94611b	0.07245084
145	0xbd0dbc7f	-0.034603592
146	0xbec5e8c0	-0.38654137
147	0xbecf499e	-0.40485853
148	0x3e3ddd27	0.18541394
149	0xbbdca6fb	-0.006733773
150	0x3e9d4f1b	0.30724415
151	0x3caa61da	0.020798612
152	0x3ea4a75f	0.32158944
153	0x3e1975f1	0.14986397
154	0x3e419559	0.18904628
155	0xbc64166e	-0.013921363
156	0x3e9ce0c8	0.30640244
157	0xbdbb1a4f	-0.09135877
158	0x3dfa861f	0.12232613
159	0xbec04f2a	-0.37560397
160	0xbd328bdc	-0.04359041
161	0xbdb23287	-0.087010436
162	0x3e59dae2	0.21274903
163	0xbdee8ae8	-0.11647588
164	0x3ec7a2ee	0.38991493
165	0x3dc725a4	0.09723976
166	0xbb824159	-0.003975075
167	0x3e669cd4	0.22520763
168	0x3c051696	0.008123061
169	0xbebaeb06	-0.36507434
170	0x3ebb7263	0.36610708
171	0xbdfc92b9	-0.123326726
172	0xbe16ae6a	-0.14714971
173	0xbcb5764e	-0.022151139
174	0x3d24648f	0.040134963
175	0xbd9374e2	-0.07200028
176	0xbe0f239f	-0.13978432
177	0x3eae5e30	0.34056234
178	0x3e1dd96c	0.15414971
179	0xbe84f54e	-0.25968403
180	0xbb14e7e1	-0.0022721218
181	0xbebc0ebf	-0.3673
182	0x3e4665f1	0.19374825
183	0x3dfc0642	0.12305881
184	0x3e08e1d3	0.13367395
185	0xbdbc753b	-0.092020474
186	0x3dfcaaf0	0.12337291
187	0x3d621ba6	0.05520215
188	0x3ea3c1b4	0.3198372
189	0xbea8ad59	-0.32944754
190	0x3eadf768	0.33977818
191	0x3e3b4051	0.18286254
192	0x3ec2b9b2	0.380323
193	0x3eb17fa0	0.34667683
194	0xbe63125c	-0.22174972
195	0xbe2f4e5f	-0.1711974
196	0x3e8a2f84	0.26989377
197	0x3ed15898	0.40887904
198	0x3e9f8106	0.31153125
199	0xbe2e7c27	-0.17039548
200	0xbe87dc6b	-0.26535353
201	0xbd1f038f	-0.038821753
202	0x3db4f9e2	0.08836724
203	0x3e577a18	0.21042669
204	0xbe4087ad	-0.18801756
205	0x3dd37379	0.10324759
206	0xbece025c	-0.40236175
207	0xbdd27693	-0.102765225
208	0xbeaa600d	-0.33276406
209	0x3eae6d0b	0.34067568
210	0xbe56fac8	-0.20994103
211	0xbe3a6133	-0.18201141
212	0xbe58e2ad	-0.2118022
213	0xbe6704e5	-0.22560461
214	0xbe96a661	-0.29423812
215	0x3e5ea4e7	0.21742593
216	0x3ec98f00	0.39366913
217	0xbe92e4d5	-0.2869021
218	0x3de824f5	0.11335174
219	0xbe846b83	-0.25863275
220	0x3e2cdf53	0.16882066
221	0x3ed42e65	0.41441646
222	0xbcc9e55f	-0.024645505
223	0x3eac2b6a	0.33626872
224	0xbde66165	-0.11249045
225	0x3c4c9ee8	0.012489058
226	0x3e81af2f	0.25328967
227	0xbe331c28	-0.1749121
228	0x3d2ac1d8	0.04168877
229	0xbc5893a5	-0.013218795
230	0xbde32f75	-0.11093036
231	0x3eab051c	0.33402336
232	0xbd713cd8	-0.058895916
233	0x3c99facd	0.018796349
234	0xbe3833f2	-0.17988566
235	0x3d862395	0.065497555
236	0x3eb89f96	0.36059254
237	0xbe637cb9	-0.22215547
238	0x3e47b6a5	0.19503267
239	0x3e9611fe	0.29310602
240	0xbb6b37cd	-0.0035891414
241	0x3ea2efa8	0.31823468
242	0xbecf5db2	-0.4050117
243	0xbecf3eda	-0.4047764
244	0xbeb97a12	-0.36225945
245	0xbe9489e9	-0.29011467
246	0xbe57ab8e	-0.21061537
247	0xbd7f5b98	-0.06234321
248	0xbe0c33a9	-0.13691582
249	0x3e566678	0.20937526
250	0xbc23e380	-0.010002971
251	0x3ebcddd2	0.36887985
252	0x3e4a5533	0.19759063
253	0x3e94b967	0.290477
254	0xbe98233f	-0.2971439
255	0xbde32553	-0.110911034

gconv.1.lins.1.weight f4 [16, 16]
0	0x3e3a8a23	0.18216757
1	0x3e28c376	0.16480812
2	0xbecd1785	-0.40057006
3	0xbe1552fb	-0.14582436
4	0xbe409b07	-0.18809138
5	0x3e671d8a	0.22569862
6	0xbc87da6d	-0.016583646
7	0xbe914e2c	-0.28379953
8	0x3ea0c6c6	0.31401652
9	0xbec9bda8	-0.3940251
10	0x3e411ec3	0.18859391
11	0x3d9d5216	0.07681672
12	0x3da51952	0.0806147
13	0x3e688062	0.22705224
14	0x3ce0683a	0.02739345
15	0x3ea32232	0.31862026
16	0x3d148d94	0.036267832
17	0xbe4c3878	-0.19943416
18	0xbdd8990d	-0.10576067
19	0x3eac2ce4	0.33628
20	0x3e354de7	0.17705499
21	0xbe22ff74	-0.1591776
22	0xbdcee5bf	-0.10102414
23	0xbd161dc7	-0.03664949
24	0x3eca9a4c	0.39570844
25	0xbe5fba82	-0.21848491
26	0x3dea592c	0.114427894
27	0xbe5ff7fe	-0.21871945
28	0xbebfd4ff	-0.3746719
29	0x3eb3b433	0.3509842
30	0xbe295ee0	-0.16540098
31	0x3eb1d424	0.34732163
32	0x3ebf3fea	0.3735345
33	0xbe639242	-0.22223762
34	0xbe9fd4f5	-0.3121716
35	0x3e1ff93f	0.15622424
36	0x3edb2746	0.428034
37	0x3d80c3a1	0.06287313
38	0xbd74da64	-0.059778586
39	0x3eabfc2c	0.3359083
40	0xbe76a74e	-0.24087259
41	0xbe20473d	-0.15652175
42	0x3e973098	0.29529262
43	0x3e1cd103	0.15314107
44	0xbb007a3d	-0.001960411
45	0xbda09db4	-0.078425795
46	0xbea5800f	-0.32324263
47	0x3d6718c5	0.056420106
48	0xbde4d746	-0.11173873
49	0xbde5f066	-0.11227493
50	0xbcc1f43b	-0.023676028
51	0xbee19975	-0.4406239
52	0xbc65c542	-0.014024081
53	0x3dfea212	0.12433256
54	0x3e065338	0.13117683
55	0xbe9e0725	-0.30864826
56	0x3df348c4	0.11879113
57	0xbd7bdeb7	-0.061491694
58	0xbe6f4d31	-0.2336929
59	0x3e871230	0.26381063
60	0xbd679403	-0.05653764
61	0x3ceb5577	0.028727276
62	0xbdb01100	-0.085969925
63	0x3e79b43f	0.24385165
64	0xbe3cbb70	-0.18430877
65	0xbe88246e	-0.26590294
66	0xbe822ed1	-0.25426343
67	0x3dc5146f	0.09623038
68	0x3e25b1b4	0.1618107
69	0x3dcac503	0.09900858
70	0x3e590bdd	0.21195932
71	0xbe96e478	-0.29471183
72	0x3e2f5189	0.17120947
73	0xbd8dbc43	-0.06920674
74	0xbe13e460	-0.14442587
75	0xbe3e81e6	-0.1860424
76	0x3e27df25	0.16393717
77	0x3eb9e001	0.36303714
78	0xbe95c644	-0.29252827
79	0xbe42f454	-0.19038516
80	0xbec5475a	-0.38531
81	0x3e7c4f46	0.24639615
82	0x3e89d995	0.26923814
83	0xbdbcbe9c	-0.09216043
84	0xbd66fe0f	-0.056394633
85	0xbd4ff7a8	-0.050773293
86	0x3d4cacfd	0.049969662
87	0x3ecfffe0	0.40624905
88	0xbe186af4	-0.1488455
89	0xbddd4ca5	-0.108056344
90	0x3b9efa8c	0.004851645
91	0x3d0e5000	0.034744263
92	0x3e8aa95b	0.27082333
93	0xbe92e3cb	-0.28689417
94	0x3e23736a	0.15961996
95	0x3dc4f206	0.09616475
96	0x3ec7f234	0.39051974
97	0xbeb16152	-0.34644562
98	0x3dcdfc8a	0.10057934
99	0xbc180668	-0.009278871
100	0xbe4b258c	-0.19838542
101	0xbd9536e1	-0.07285858
102	0x3e64e74b	0.22353856
103	0x3d861aeb	0.06548103
104	0x3d7df2cd	0.06199913
105	0xbea96c2a	-0.33090335
106	0xbe2620e7	-0.16223489
107	0xbdc8ed2b	-0.09810861
108	0xbe26a893	-0.16275243
109	0x3ddd1000	0.107940674
110	0xbe7a6c2a	-0.24455324
111	0x3dc9c7d3	0.098525666
112	0xbda15f38	-0.0787949
113	0xbe7e2934	-0.24820405
114	0xbebee979	-0.372875
115	0x3da89534	0.08231583
116	0x3e7cf0bf	0.24701212
117	0xbeac86c6	-0.33696574
118	0x3e03d4d1	0.12874152
119	0xbec7f8cf	-0.39057013
120	0x3eb72e63	0.35777578
121	0xbe64a8fc	-0.22330087
122	0x3eb451d7	0.3521869
123	0xbdb38537	-0.08765643
124	0x3ddc8266	0.10767059
125	0xbcca7e83	-0.024718529
126	0xbe3925fe	-0.18080899
127	0x3e3814cb	0.17976682
128	0x3e7925c0	0.24330807
129	0x3cb0863b	0.021548381
130	0x3e262fb8	0.16229141
131	0xbead0d72	-0.3379932
132	0xbe81d15e	-0.25355047
133	0xbebccf5e	-0.3687696
134	0xbe984fb7	-0.29748318
135	0xbe53d961	-0.20688392
136	0xbe75a2c5	-0.23987873
137	0x3e8430f9	0.25818613
138	0xbe00a3d8	-0.12562501
139	0x3e854e00	0.26036072
140	0xbd6775d9	-0.056508873
141	0xbdf3bb9a	-0.119010165
142	0x3e6beae8	0.23038828
143	0xbe5e9c2f	-0.21739267
144	0x3ed8298d	0.422192
145	0xbdf0138d	-0.11722479
146	0x3e48982e	0.19589302
147	0xbe7d7328	-0.2475096
148	0xbd38ba5e	-0.04509961
149	0xbe364d96	-0.17803034
150	0xbda7bb61	-0.081900366
151	0xbe63fc41	-0.22264196
152	0x3ea34fd4	0.31896842
153	0xbd8c25b9	-0.068431325
154	0xbe39fdf5	-0.18163283
155	0x3eb64e4f	0.3560662
156	0xbbca537d	-0.0061745034
157	0xbed001c7	-0.40626356
158	0x3e935c11	0.2878118
159	0x3ecdee10	0.4022069
160	0xbeb20a8a	-0.34773666
161	0xbc429e9d	-0.011878637
162	0x3e90b1f2	0.28260761
163	0x3ebe2cbb	0.37143502
164	0x3df1771e	0.11790298
165	0xbe9832be	-0.29726213
166	0x3ebdb0a9	0.37048844
167	0x3e578e3e	0.21050355
168	0x3e8e45af	0.2778754
169	0xbe9cf856	-0.30658215
170	0x3cb91283	0.022591835
171	0xbe88bc46	-0.2670614
172	0xbed088fa	-0.40729505
173	0xbea5bd15	-0.3237082
174	0xbe8f7218	-0.28016734
175	0xbe1bd9c6	-0.15219793
176	0xbeccba7c	-0.39986026
177	0xbe1c7e75	-0.15282615
178	0x3c8b0897	0.01697187
179	0x3e1fb059	0.15594615
180	0x3e95bef0	0.29247236
181	0x3e733fba	0.23754779
182	0x3e9facbd	0.31186476
183	0x3ec0e720	0.37676334
184	0x3ce55027	0.027992321
185	0xbe570895	-0.20999368
186	0x3e6fd87e	0.23422429
187	0xbd025fde	-0.031829707
188	0x3ec79d9e	0.3898744
189	0xbe96afd5	-0.29431024
190	0xbdcf574b	-0.10124072
191	0x3e70e50f	0.23524879
192	0x3e84cd8c	0.2593807
193	0x3db16046	0.08660941
194	0xbe663f63	-0.22485118
195	0xbebd2163	-0.36939535
196	0x3e0d054f	0.13771556
197	0xbdcff155	-0.10153452
198	0xbd19c77c	-0.03754376
199	0xbdabb271	-0.08383644
200	0xbdb10a9d	-0.086446024
201	0xbd964422	-0.07337214
202	0xbda80413	-0.08203902
203	0xbd4817d2	-0.04885084
204	0xbd5827ff	-0.05277252
205	0x3e85b82e	0.2611708
206	0x3e925eb1	0.2858787
207	0xbd871f3e	-0.06597756
208	0x3d7d59aa	0.06185309
209	0xbe7cf69e	-0.24703452
210	0x3e9967b4	0.29961932
211	0x3e0c38f8	0.13693607
212	0xbe914ed3	-0.2838045
213	0x3d2a411f	0.04156601
214	0xbeac6d7f	-0.3367729
215	0x3e8bc10c	0.2729572
216	0x3dcbee84	0.099576026
217	0x3e564176	0.20923409
218	0xbe93d2d8	-0.288718
219	0x3d64015d	0.055665363
220	0xbedaf7af	-0.42767093
221	0x3e4c7c93	0.19969396
222	0x3ec2fa07	0.3808138
223	0x3d4c6825	0.049904007
224	0xbe9d48ec	-0.30719697
225	0xbe0e388a	-0.13888755
226	0x3dfb86fb	0.12281605
227	0x3e0995b6	0.13436016
228	0xbe0d666d	-0.13808604
229	0xbe2b447f	-0.16725348
230	0x3edcb153	0.43104038
231	0x3e8b3e33	0.27195892
232	0xbec9b711	-0.3939748
233	0xbec35f82	-0.38158804
234	0x3ea11b02	0.31465918
235	0xbe84a480	-0.25906754
236	0x3ebf3dda	0.37351876
237	0xbcd7287c	-0.026264422
238	0xbca3e5b4	-0.020006992
239	0xbe1eb9da	-0.15500584
240	0x3e41e02a	0.18933168
241	0xbbdd0154	-0.006744543
242	0xbc961fe4	-0.018325754
243	0xbe81ec0b	-0.253754
244	0x3ec696b5	0.38786855
245	0xbe9c62f4	-0.30544245
246	0xbeb9d265	-0.3629333
247	0x3d700542	0.058598764
248	0xbed4bb4d	-0.4154915
249	0x3daa7fb3	0.08325138
250	0xbec5108f	-0.38489196
251	0x3ebca1fe	0.3684234
252	0x3d605a74	0.054773763
253	0xbe0d3956	-0.13791403
254	0xbe0c45ba	-0.13698474
255	0xbc82f2cd	-0.015984917

gconv.1.lins.2.weight f4 [16, 16]
0	0x3e94b013	0.29040584
1	0xbe9cf975	-0.3065907
2	0x3ebe3d87	0.37156317
3	0xbcda02fe	-0.026612755
4	0xbe161de1	-0.14659835
5	0xbebd0acf	-0.3692231
6	0xbeaa2d09	-0.33237484
7	0x3eb9d1d8	0.3629291
8	0x3ea34f95	0.31896654
9	0xbe758278	-0.23975551
10	0xbed904ea	-0.42386562
11	0x3cfca303	0.030839449
12	0xbd4c9836	-0.049949847
13	0x3eb8fc52	0.36130005
14	0xbea8a16d	-0.32935658
15	0x3e992cf9	0.29917124
16	0xbed47504	-0.41495526
17	0x3d8ef6cd	0.06980667
18	0x3e23cea2	0.15996793
19	0xbe81968c	-0.2531017
20	0xbe6bfb95	-0.2304519
21	0xbe4a72c1	-0.19770338
22	0x3cbbd7ba	0.022930015
23	0xbe09ba47	-0.13449965
24	0xbdb4e08a	-0.0883189
25	0x3e8646e4	0.2622596
26	0x3e7ba985	0.24576385
27	0xbdb9b942	-0.09068538
28	0xbe7fbb47	-0.24973784
29	0xbed6466c	-0.41850603
30	0x3eb5cc96	0.3550765
31	0x3ec3855f	0.38187692
32	0xbe64c4a5	-0.22340639
33	0x3e693ce0	0.22777128
34	0xbddbac4d	-0.10726223
35	0x3e88854a	0.2666419
36	0x3ebf8631	0.37407067
37	0x3e90d53e	0.2828769
38	0xbe85bb97	-0.26119682
39	0x3e44c7c4	0.1921683
40	0xbed75b69	-0.42061928
41	0xbdc124f0	-0.094308734
42	0x3e55efbf	0.20892237
43	0xbe4e2882	-0.2013264
44	0xbea12f5b	-0.31481442
45	0x3e481fa2	0.19543317
46	0x3e766af1	0.24064232
47	0xbebe786c	-0.3720125
48	0xbec445c8	-0.3833449
49	0xbe6d18c0	-0.23153973
50	0xbea58d58	-0.323344
51	0x3eaec65b	0.34135708
52	0xbe2c016b	-0.16797416
53	0x3e686b10	0.22697091
54	0xbdd806ba	-0.10548158
55	0xbec97f67	-0.39355013
56	0xbe382090	-0.17981172
57	0x3dceef6c	0.1010426
58	0x3eb69418	0.35659862
59	0x3e92d9b2	0.28681713
60	0x3e70eaa6	0.23527011
61	0x3c435c0b	0.0119238
62	0x3e99a962	0.3001204
63	0x3e884a94	0.266194
64	0xbe2c554e	-0.16829416
65	0x3e7df8b0	0.24801898
66	0xbe0382ea	-0.12842909
67	0x3e07ddea	0.13268247
68	0x3ec1daf8	0.37862372
69	0x3e33ce77	0.17559229
70	0x3e3c526d	0.18390818
71	0x3e64cb86	0.22343263
72	0xbea778f8	-0.3270948
73	0x3e8e592a	0.27802402
74	0x3ec5bf6b	0.38622603
75	0xbda814dc	-0.082071036
76	0x3e6edadf	0.2332568
77	0xbe880136	-0.26563424
78	0x3e586589	0.21132483
79	0x3e73b0ec	0.23797959
80	0x3ebd0999	0.36921385
81	0xbebda3a9	-0.37038925
82	0xbeb862bf	-0.36012837
83	0x3ee30ca5	0.44345585
84	0x3ea48488	0.32132363
85	0x3ea8d54f	0.32975242
86	0xbe499ad0	-0.19687963
87	0xbdf2c1df	-0.11853384
88	0x3e9e275b	0.308894
89	0x3ed58565	0.41703334
90	0x3e97d72a	0.29656345
91	0x3ec8191d	0.3908166
92	0x3ee1b8cf	0.4408631
93	0xbdee38c2	-0.116319194
94	0x3d4a7626	0.04942908
95	0xbeb20beb	-0.34774718
96	0x3e1611de	0.14655253
97	0x3d72eff0	0.059310853
98	0x3cb4b14e	0.022057202
99	0x3ec96c72	0.3934055
100	0xbd88d5d0	-0.066814065
101	0xbebc8aae	-0.36824554
102	0xbea4b138	-0.32166457
103	0xbdffa789	-0.12483127
104	0xbdcb04fb	-0.09913059
105	0xbed60992	-0.41804177
106	0x3e9e67b0	0.30938482
107	0x3eceac1d	0.40365687
108	0xbe2540b5	-0.16137965
109	0x3b867f12	0.0041045034
110	0x3e9d2efb	0.30699906
111	0xbcd5ac08	-0.026083007
112	0xbe9a24aa	-0.30106097
113	0xbe57b709	-0.21065916
114	0xbecad71c	-0.3961724
115	0xbe1d8c43	-0.15385537
116	0xbe325205	-0.174141
117	0xbd5be761	-0.053687457
118	0xbdaf455a	-0.0855815
119	0x3e9c20f4	0.3049389
120	0x3d39a4ef	0.04532331
121	0xbe918ec4	-0.28429234
122	0xbe827d9d	-0.2548646
123	0xbea84d7c	-0.32871616
124	0x3e006102	0.12537006
125	0xbeccaf95	-0.39977708
126	0x3dcdedfd	0.10055158
127	0x3e707187	0.23480807
128	0x3e5361f7	0.2064284
129	0xbe9a0c62	-0.30087572
130	0xbd5007a6	-0.050788544
131	0xbe83219c	-0.2561158
132	0xbd9368af	-0.07197701
133	0x3ead1b2e	0.338098
134	0xbec7ef06	-0.39049548
135	0x3e417925	0.18893869
136	0xbebcc1ec	-0.368667
137	0xbe21b37d	-0.15791126
138	0xbcff5b6e	-0.031171527
139	0xbe9ffd81	-0.31248096
140	0x3ebac2bf	0.36476704
141	0xbe004694	-0.12526923
142	0x3daed249	0.085362025
143	0xbd3c0e43	-0.04591204
144	0xbe39b546	-0.18135557
145	0x3e12e6e3	0.14345889
146	0xbd160651	-0.036627118
147	0x3ed4a5e1	0.41532806
148	0xbebea50f	-0.37235305
149	0xbe1ae7dc	-0.1512751
150	0xbe306ff1	-0.17230202
151	0xbea5db44	-0.3239385
152	0xbe5e0014	-0.21679717
153	0x3e830a83	0.25593957
154	0xbe8e388a	-0.2777751
155	0xbde091e0	-0.109653234
156	0x3e05bdb3	0.13060646
157	0x3dd27f07	0.10278135
158	0x3d56cfe2	0.052444346
159	0xbe48c38a	-0.19605842
160	0x3ebdfdab	0.37107596
161	0x3e4bdd4e	0.1990864
162	0x3e476d11	0.194752
163	0xbeb06784	-0.34453976
164	0xbe83646b	-0.2566255
165	0x3d42ab3c	0.047526583
166	0xbe6e6c21	-0.23283435
167	0xbde27734	-0.110578924
168	0x3ea0fb6c	0.3144182
169	0xbead9139	-0.3389986
170	0x3ebea001	0.37231448
171	0x3ec7312e	0.3890471
172	0xbcdfc7b4	-0.027316906
173	0x3de96b32	0.11397399
174	0x3e917c3e	0.28415102
175	0xbee2fb22	-0.44332224
176	0xbec9025e	-0.3925962
177	0xbe7b3ec6	-0.24535665
178	0xbed18f22	-0.40929514
179	0x3e1d917b	0.15387528
180	0xbdb39d9e	-0.087702975
181	0xbe86681d	-0.26251307
182	0xbdb94d38	-0.090479314
183	0x3e9db73c	0.3080386
184	0x3d397acd	0.045283128
185	0xbec5de6c	-0.38646257
186	0xbece6155	-0.40308633
187	0x3d0a88d5	0.0338219
188	0x3e7d1840	0.24716282
189	0xbecbe32d	-0.3982176
190	0x3ec2bdb2	0.3803535
191	0x3e0af4e1	0.13569976
192	0xbe96f369	-0.29482582
193	0xbe82201e	-0.25415128
194	0xbe90af25	-0.28258625
195	0x3e8b77d8	0.2723987
196	0x3db78e81	0.08962727
197	0xbe3ff438	-0.18745506
198	0x3e916a88	0.2840159
199	0xbe03d1df	-0.12873028
200	0x3ed86b5d	0.42269412
201	0xbeb0740e	-0.34463543
202	0xbe0b353d	-0.13594528
203	0xbe839388	-0.25698495
204	0xbdb53cdc	-0.08849499
205	0xbe2944f1	-0.16530205
206	0x3e6d5492	0.23176792
207	0xbdd75dbd	-0.10515926
208	0xbc024771	-0.007951603
209	0xbd801a6e	-0.06255041
210	0xbdf76345	-0.12079481
211	0xbeb2b54b	-0.3490394
212	0xbe7cc69a	-0.24685135
213	0xbea7898c	-0.32722127
214	0x3eb443d5	0.35208002
215	0xbe1a5eed	-0.15075274
216	0xbebde108	-0.37085748
217	0x3e90df91	0.28295568
218	0xbe66abd4	-0.22526485
219	0x3d886475	0.06659786
220	0x3d50b3c9	0.050952706
221	0x3c1de665	0.00963745
222	0xbe54335a	-0.20722714
223	0xbe94c070	-0.29053068
224	0xbecd7599	-0.40128782
225	0x3e3b130d	0.18268986
226	0xbecb0e1f	-0.3965921
227	0xbe30407f	-0.17212103
228	0x3d9e50d8	0.077302635
229	0x3d142260	0.036165595
230	0xbecd3c46	-0.40085047
231	0xbedabc2b	-0.42721686
232	0xbe60fd47	-0.21971618
233	0xbe3b60f3	-0.18298702
234	0xbece202c	-0.4025892
235	0x3ebd506c	0.3697542
236	0x3da5b4c3	0.08091118
237	0x3e288d6d	0.164602
238	0x3d630c4e	0.055431657
239	0xbdc046c1	-0.09388495
240	0xbe5241c5	-0.20532902
241	0x3df6facc	0.120595545
242	0x3cacd190	0.021096021
243	0x3d9e4018	0.07727069
244	0xbea88a90	-0.32918215
245	0xbe39bdee	-0.18138859
246	0xbed30ded	-0.41221562
247	0x3e7f3459	0.24922313
248	0xbdef99e8	-0.11699277
249	0xbdad2a51	-0.08455337
250	0xbc233594	-0.0099615045
251	0xbed1adfd	-0.40953055
252	0x3c2cff6e	0.010558946
253	0x3ec0374c	0.37542188
254	0xbe1c2dcb	-0.15251844
255	0x3e78da3f	0.24302004

gconv.2.lins.0.weight f4 [16, 16]
0	0x3e729ca5	0.23692568
1	0xbeb29fdf	-0.34887597
2	0xbe624afd	-0.22098918
3	0x3e2d4579	0.16921033
4	0xbd86db74	-0.06584826
5	0x3dea5b00	0.11443138
6	0xbdca6d8c	-0.09884176
7	0x3df599a8	0.11992198
8	0xbea9c356	-0.33156842
9	0xbd42284e	-0.04740172
10	0xbe6edd77	-0.2332667
11	0xbbc7ae67	-0.0060937884
12	0x3e8630f4	0.26209223
13	0x3e8cfd6c	0.27537096
14	0xbe23aeba	-0.15984622
15	0x3e6f800b	0.23388688
16	0xbeba2b6f	-0.36361262
17	0x3d786929	0.060647164
18	0x3e0a1f32	0.13488463
19	0x3da6284f	0.08113157
20	0xbdacd4f7	-0.08439057
21	0x3ca7e5c7	0.020495309
22	0xbd64e620	-0.055883527
23	0xbdc67e3e	-0.096920475
24	0x3e901161	0.2813826
25	0x3c33be3f	0.010970651
26	0x3cf23283	0.029565101
27	0xbe6dbe34	-0.23217088
28	0x3e724d35	0.23662265
29	0x3e0846c1	0.1330824
30	0xbe16e7b3	-0.14736824
31	0x3dc0d1d8	0.094150245
32	0xbe79bf13	-0.24389295
33	0x3e0ce694	0.13759834
34	0x3ecb2fe8	0.39684987
35	0x3eb4e86b	0.3533357
36	0x3e5edb14	0.21763259
37	0xbd3bd752	-0.045859642
38	0xbe9ae4b3	-0.3025261
39	0xbeb040cc	-0.34424436
40	0x3d103de4	0.035215273
41	0xbdae63e0	-0.085151434
42	0xbd51a50c	-0.05118279
43	0x3e3c7c83	0.18406872
44	0xbea79075	-0.327274
45	0x3d94cb96	0.072653934
46	0x3df2db3f	0.11858224
47	0x3e963c4c	0.29342878
48	0xbde5ffc8	-0.11230427
49	0xbe7a8883	-0.24466138
50	0x3e8fdcac	0.28098047
51	0x3e03794f	0.12839244
52	0x3dff0bc1	0.12453414
53	0xbe18132d	-0.14851065
54	0x3ed6c6d3	0.41948566
55	0x3ce76677	0.028247101
56	0xbe61c9a6	-0.22049579
57	0x3da2b612	0.079448834
58	0x3de80b5d	0.113302924
59	0x3e42964e	0.19002649
60	0x3e18d2f7	0.14924227
61	0x3df70fe0	0.12063575
62	0xbe35a6a4	-0.1773935
63	0xbea85cf2	-0.32883412
64	0x3dc6d681	0.09708882
65	0x3ecd2de9	0.4007409
66	0xbeb20263	-0.34767446
67	0x3e10208a	0.14074913
68	0x3de95ea6	0.11395006
69	0xbca0c7af	-0.019626467
70	0xbe82cbf7	-0.25546238
71	0xbec178d9	-0.37787512
72	0x3e837902	0.2567826
73	0x3e406a69	0.18790592
74	0xbab6665a	-0.0013916001
75	0xbe2115ee	-0.15731022
76	0x3eb062d2	0.34450394
77	0x3b19fa95	0.0023495306
78	0xbeb8e31a	-0.36110765
79	0xbe09b8fe	-0.13449475
80	0x3e4c6d6f	0.1996362
81	0x3bb5cd79	0.005548176
82	0xbdc294df	-0.09501051
83	0xbd59d76f	-0.05318397
84	0xbe4e452c	-0.20143574
85	0x3e579f02	0.2105675
86	0xbe3d158b	-0.18465249
87	0x3ebb3f2f	0.36571643
88	0xbd70dcc0	-0.058804274
89	0xbea5bb66	-0.32369536
90	0xbec1a885	-0.37823883
91	0x3e99c0e3	0.30029973
92	0xbe5e98ac	-0.21737927
93	0xbe2df382	-0.16987422
94	0x3e0093ef	0.12556432
95	0xbeb9f509	-0.3631976
96	0xbeb3f7ca	-0.35149986
97	0x3e90fa8f	0.2831616
98	0x3e284ce1	0.16435577
99	0xbd911a2a	-0.070850685
100	0x3ea8fd6b	0.33005843
101	0xbcfd8ffe	-0.03095245
102	0x3eaa495f	0.33259103
103	0xbe144b25	-0.1448179
104	0xbe13d091	-0.1443503
105	0x3cadf9d2	0.021237288
106	0x3d982720	0.074293375
107	0xbec9dd66	-0.39426726
108	0x3ea2bd67	0.31785128
109	0x3d640134	0.05566521
110	0xbe77f6b8	-0.2421521
111	0xbd80679c	-0.06269762
112	0xbcfeb231	-0.031090828
113	0xbe0ff974	-0.14060003
114	0x3e0db17d	0.13837238
115	0x3ea2ab4e	0.3177132
116	0xbe87093d	-0.26374236
117	0xbdd0a7de	-0.10188268
118	0x3eddd187	0.4332392
119	0x3df2c9e8	0.11854917
120	0xbebdb50f	-0.370522
121	0xbe09d68b	-0.13460748
122	0xbe763ea7	-0.24047337
123	0x3ece7ef4	0.40331233
124	0x3e2a428f	0.16626953
125	0x3e19824b	0.14991109
126	0xbdd7a5c9	-0.10529668
127	0xbe9db130	-0.30799246
128	0xbea80f81	-0.3282433
129	0x3dbb9b97	0.09160536
130	0xbd2ae8e8	-0.041726023
131	0xbd1a03f2	-0.03760142
132	0xbec27185	-0.37977234
133	0xbed1e2ea	-0.40993434
134	0xbeb3eb5a	-0.35140496
135	0x3e4510dd	0.19244714
136	0xbece4d17	-0.4029319
137	0x3ea8cd2e	0.3296904
138	0xbe007a6f	-0.12546705
139	0xbecdaee0	-0.40172482
140	0xbda6b190	-0.08139336
141	0xbc316060	-0.0108262
142	0xbc55aaf7	-0.0130412495
143	0xbec9601b	-0.39331135
144	0x3e95b8c7	0.29242536
145	0xbb4cf7c1	-0.0031275603
146	0xbe361853	-0.17782716
147	0xbd9981a1	-0.07495428
148	0x3ec940e9	0.39307335
149	0x3e95aaf3	0.29231986
150	0xbedf178e	-0.43572658
151	0xbcedb561	-0.029017152
152	0xbea008d0	-0.31256723
153	0x3ea4eb3e	0.32210726
154	0x3e5b94c4	0.21443468
155	0xbe9ed9ce	-0.31025547
156	0xbd289472	-0.041157193
157	0x3e72b49a	0.23701707
158	0x3ea0e2fd	0.31423178
159	0xbe64eed2	-0.22356728
160	0xbbd2ef24	-0.006437199
161	0xbeccae82	-0.3997689
162	0x3d37f9f4	0.04491611
163	0x3e62d339	0.22150888
164	0x3e2c5f22	0.16833165
165	0x3dab3f6f	0.083617084
166	0x3ea520e5	0.3225166
167	0x3d2db4cd	0.042408753
168	0xbedb2053	-0.427981
169	0xbd4336f0	-0.047659814
170	0xbc9d1797	-0.019176288
171	0x3ed0052a	0.4062894
172	0x3eacc4fd	0.3374404
173	0x3e3ac255	0.18238194
174	0xbeb6679b	-0.3562592
175	0xbe3b10c7	-0.18268119
176	0xbd70e7c9	-0.058814798
177	0xbe99bb57	-0.3002574
178	0x3e99dfe2	0.30053622
179	0x3ea31e64	0.31859124
180	0x3d50cefc	0.050978646
181	0x3e9d6e43	0.30748186
182	0x3eb32166	0.34986418
183	0xbe2a8649	-0.16652788
184	0x3e215ce1	0.15758087
185	0xbed032c0	-0.4066372
186	0x3ebb9164	0.36634362
187	0x3ea7b379	0.32754114
188	0x3dd0ed69	0.102015324
189	0xbe888330	-0.26662588
190	0xbe7f88fd	-0.249546
191	0x3e916457	0.28396866
192	0xbe148a21	-0.14505817
193	0xbe64e19f	-0.22351693
194	0xbe094753	-0.13406114
195	0x3ea39058	0.31946063
196	0xbe5d3a34	-0.21604234
197	0xbe6ab4ca	-0.22920528
198	0x3ebd1343	0.36928758
199	0xbea93e40	-0.33055305
200	0x3e6836ea	0.22677198
201	0x3cd37e89	0.025817173
202	0x3c8e59f2	0.017376874
203	0x3de8d29b	0.11368295
204	0x3e89b7ea	0.26898128
205	0x3e3f93eb	0.1870877
206	0x3e2d8eff	0.1694908
207	0xbe876cb9	-0.26450136
208	0xbe6e8e55	-0.23296483
209	0xbaabeec4	-0.0013117422
210	0xbec80ae6	-0.39070815
211	0x3eaa293b	0.3323458
212	0xbe240cab	-0.16020457
213	0xbdf43884	-0.11924842
214	0xbed8e1ac	-0.42359674
215	0x3d801beb	0.06255325
216	0xbec6126b	-0.38685927
217	0xbebb4948	-0.36579347
218	0x3e162d1c	0.14665645
219	0x3dbd0fa3	0.09231498
220	0xbeae5162	-0.34046465
221	0xbee2813a	-0.44239217
222	0xbe165da4	-0.14684159
223	0xbcd1ea22	-0.025624339
224	0xbec485fa	-0.38383466
225	0xbe8aefb4	-0.27136004
226	0x3eb43d95	0.35203233
227	0x3da9fe99	0.08300514
228	0xbe9bfd0f	-0.30466506
229	0x3e7cd134	0.2468918
230	0x3e375325	0.17902811
231	0xbd86d891	-0.065842755
232	0xbe0f080e	-0.13967916
233	0xbe97499f	-0.29548356
234	0xbe842ebe	-0.2581691
235	0xbca0974b	-0.019603392
236	0x3de1b84a	0.110214785
237	0xbe271e87	-0.16320239
238	0x3daff116	0.08590905
239	0xbdaf71f4	-0.08566657
240	0xbe674d52	-0.22588089
241	0xbd850fe8	-0.064971745
242	0x3e084938	0.1330918
243	0x3ec7187c	0.38885868
244	0x3ea8b2ba	0.32948858
245	0x3ec05611	0.37565663
246	0x3d16715f	0.036729213
247	0xbe0c866a	-0.1372315
248	0xbe39c6b1	-0.18142201
249	0xbe5577a1	-0.20846416
250	0x3e0af731	0.13570859
251	0xbd807582	-0.06272413
252	0x3ec4bfe8	0.38427663
253	0xbe80d949	-0.25165775
254	0x3e302543	0.17201714
255	0x3df06a01	0.11738969
